checkpoints/frogger_policy_0.75.pt (torch, 51797 bytes, 4 tensors)

net.0.weight f4 [128, 90]
00000000: 0103 2f3d d0da a2bc 38d7 97bc 2417 d4bd
00000010: e011 a4bd f72f 213e c70e e43e d8ab 903f
00000020: 4b62 2a3e c1f9 98bb ee34 30bd 65b5 2e3e
00000030: 87c1 c83e 48fa e33d b53f 023d 827c b2bd
00000040: 658e 05be 65f3 293d 8026 80be a4c1 3ebd
00000050: c39a 6a3d c361 d0bc 3c13 d7be 76cb 20be
00000060: 45ff 203d 82c8 4cbe 32f9 30be 3d83 243d
00000070: dac4 77be 30c4 8abd 3ad2 14bd 61b7 d43d
00000080: bb11 20bd 1a85 9b3d 075c aabb 7903 333e
00000090: e57c 153e a02c a83a 8607 64bf cb67 e53d
000000a0: c9df 35bf 03a2 2e3e 653b 0cbd 784b 9d3d
000000b0: 0d39 543e 2d89 4ebf 4e15 273e 8abb d53d
000000c0: 8d1a a43d f161 d73d f14b fc3d f888 933d
000000d0: 8c27 833d 25a3 50bf f582 c33d dfc1 00bd
000000e0: e19d aabc fbcb a63d 2e2f 03bc 30eb 7d3d
000000f0: 3a5c 8ebd 3b96 6d3d 3253 29bd f0c2 a1bd
00000100: 0a1e a33c 3c8e 71bc 3ae0 763b 8b2f 47bd
00000110: c61b c43d 774f d03c 9f16 163d c36e 993d
00000120: 7cb1 4f3c 3b66 75bb 175f 96bc 7bd8 993c
00000130: 65fb aebd 8350 7d3d 09ae 8c3d b825 9e3c
00000140: 3933 783c 7436 bc3d fda5 1f3d 7bc5 f4bb
00000150: 4263 eb3c af1a 673d 71c2 c1bd 1e4b 2f3d
00000160: f591 623d 5ef4 303d 1bbc 0fbc 6421 8f3c
00000170: c126 8c3d 5f95 843d d5be ad3d e8c6 c33d
00000180: 7413 c93e 2d9c 103f 3d0d 483e bdd3 243d
00000190: df87 6b3e a4ce 3a3e 4a3d 6f3f 0e1d 833c
000001a0: 8205 c8bc 7b9b 083e 7755 403e e072 5d3f
000001b0: f8eb 1d3e 6d64 a43b 24b3 ad3c b140 29be
000001c0: 3488 c73e f36a c73d 20eb a8bd 9989 77bd
000001d0: 2aa8 7f3e 8de7 4fbf dc31 d53d e5f8 0e3d
000001e0: c6b6 bd3d 13d6 96bd 028c 993c 750f 6ebd
000001f0: 304d d0bd e6b3 233e f62d 053e 5529 c73d
00000200: 2aa7 903e 1729 09bd 4a63 d33e fab8 5c3e
00000210: 3335 a3bd 52f5 fd3d c459 80be ed66 243e
00000220: 659c dc3d f172 2cbe e1e6 8e3e 6c6e b33c
00000230: 29a0 a23d fee8 643e 9a0d fabd aa17 923e
00000240: 608f 79bd 5c24 a3bc db5b c73d 908f 1cbd
00000250: c8ce fa3c bbd3 bc3d 9ef3 653e e8fb f73c
00000260: 9edd ca3d c67a 803d 22b8 d03d 2d9f 213d
00000270: 9130 f03c 7005 9c3c 4190 6fbd 299a 9abd
00000280: 352f 193d 3d4a 0c3d 944e 7cbb 0baf 383d
00000290: 1889 aa3d 8934 c0bd ac4e 023d ab41 363c
000002a0: 820b 5fbc 42b5 c3bc 8d61 3bbd 308d a33b
000002b0: 46e2 98bc 1715 3e3d 147d f7bc f7c1 a73d
000002c0: 6a24 8fbd b536 51bd ad69 e43c 58a1 68bd
000002d0: 7f5b 80bd ef25 6f3d 6575 21bc 3762 cfbb
000002e0: be7d abbc cc9e 413e 1de1 903e 97cc 853d
000002f0: 082e 793e 122f c1bc 595f bebd 1d29 393d
00000300: 16df 833f bda6 183e 604c 8ebd e741 a53d
00000310: bf4f a5bd 221a 793f 7607 203e f775 4f3c
00000320: a3f9 a3bc 3c58 a33e 0e20 ce3e 2ca0 acbd
00000330: cf7c 7fbd 2582 02be 1296 b8bc 5205 bebe
00000340: 30a6 bc3d 25cb 96bd 404e 76bd b56c 99bd
00000350: 0d3b 573d 6083 8f3d 32fe 2f3d 0957 723d
00000360: 4f95 0fbe 009f a33e 54f1 92bc 3cbe dc3c
00000370: 02b6 f4be b850 343e 7c5d 6a3e da38 323e
00000380: fb25 c6bc 6922 1f3e 5dd3 67bd 417d 1f3e
00000390: 43d4 82be bced 043e f858 ec3e 61f3 8a3d
000003a0: 5b72 7e3d 317b 81be bb60 f1bc 81fd 3e3d
000003b0: 58b1 d43d 96a9 5a3d 5384 3ebd ea88 143d
000003c0: 5995 d63d 146e d9bc 50b0 3dbc 51fc 443d
000003d0: 96ce ec3d 2d71 a2bd f08d 0f3c 55ad cebb
000003e0: 592d d73d fb3f 1c3d 50c2 083c c0f2 a3bc
000003f0: d41a c1bd d2fb 3abc b859 cd3d 4741 2cbc
0.042727474 -0.019879729 -0.018535241 -0.10355976 -0.08011222 0.15740953 0.44542524 1.1302443
0.16639058 -0.004668445 -0.043019228 0.17061384 0.3921015 0.11131722 0.031799037 -0.08715154
-0.130426 0.041491885 -0.25029373 -0.04657139 0.0572765 -0.025437241 -0.42006862 -0.15702614
0.039305944 -0.19998363 -0.1728256 0.04016422 -0.24196187 -0.06775701 -0.0363333 0.10386539
-0.03907941 0.075937465 -0.005198959 0.17481793 0.14598425 0.0012830682 -0.8907398 0.112014376
-0.71044594 0.1705399 -0.03423633 0.0768041 0.20724888 -0.80678064 0.16316721 0.10436161
0.08012877 0.10516728 0.12319172 0.07203859 0.06404027 -0.8149894 0.095464624 -0.03143489
-0.020827236 0.08144375 -0.008006854 0.06199187 -0.069511846 0.0580046 -0.041339107 -0.078985095
0.019911785 -0.014743384 0.003767027 -0.048629325 0.0957561 0.025428517 0.036642667 0.07491829
0.012676593 -0.0037444967 -0.01835589 0.018779984 -0.085440435 0.06184436 0.06869132 0.019305095
0.015148931 0.091900736 0.038976658 -0.0074698306 0.028733853 0.05642193 -0.09460915 0.042796247
0.055314977 0.043201797 -0.008772875 0.017471977 0.06843329 0.06473803 0.08483664 0.09559423
0.39272654 0.56488305 0.195363 0.04024099 0.2300105 0.1824289 0.93452895 0.016005065
-0.024416689 0.13340561 0.18782602 0.8650341 0.15422046 0.0050168545 0.021203585 -0.16528584
0.38971102 0.09737196 -0.082479715 -0.060433958 0.24966493 -0.81212693 0.104099005 0.034905333
0.09263377 -0.0736505 0.018743519 -0.05812021 -0.10170972 0.15986595 0.13005814 0.0972468
0.28252536 -0.033486452 0.4128669 0.21554938 -0.07969131 0.12400307 -0.25068486 0.16054888
0.107720174 -0.16840722 0.27910522 0.02190324 0.079407044 0.22354504 -0.122096255 0.2853368
-0.06092775 -0.019914798 0.09734317 -0.03822285 0.03061618 0.09220072 0.22456214 0.030271485
0.099055514 0.06273417 0.101913705 0.039458442 0.029320033 0.019045562 -0.05848718 -0.07548935
0.037398536 0.034250487 -0.0038498985 0.04508881 0.0832693 -0.0938502 0.03181331 0.011124055
-0.0136135835 -0.023890141 -0.04574733 0.004991196 -0.018662583 0.04640683 -0.03021101 0.08191293
-0.06989367 -0.051077563 0.027882421 -0.056794494 -0.062674515 0.058385786 -0.009854649 -0.006328847
-0.020933982 0.18908232 0.28296748 0.06533163 0.24333966 -0.023582015 -0.0929553 0.045205224
1.0302455 0.14907356 -0.06948161 0.080692105 -0.08071851 0.973055 0.15627846 0.012662402
-0.020016497 0.31903255 0.4025883 -0.08428988 -0.062374886 -0.12744959 -0.022532497 -0.37113434
0.09211385 -0.073629655 -0.06013322 -0.07491437 0.05254655 0.0700748 0.04296703 0.059165034
-0.140218 0.31957245 -0.01793734 0.02694618 -0.4779511 0.17608917 0.22887224 0.174045
-0.024188032 0.1554047 -0.056598056 0.15575124 -0.25552568 0.12981313 0.46161628 0.06784702
0.062120777 -0.252893 -0.02946507 0.04662848 0.10385388 0.053384386 -0.046512913 0.036263384
0.104777046 -0.026541747 -0.011577681 0.04809219 0.11562841 -0.07931743 0.008761868 -0.006307284
0.10506696 0.038146954 0.008347109 -0.020013213 -0.09428945 -0.011412578 0.10026878 -0.01051361

net.0.bias f4 [128]
00000000: af88 d5bd 71d6 063d b3f9 39bd f45a 12bd
00000010: 1a10 523c 1a18 09bd 063f 7d3d 9be7 2bbd
00000020: c7b9 433d a3a6 a8bd 2035 3dbe b0a2 063e
00000030: a62f a03d 4936 bc3c d9ac 003d aa60 e83d
00000040: fc78 b13d c9b8 8c3d 49fd c43d b147 8abd
00000050: 6cde 81bd 049c 873c e417 20be b488 a13d
00000060: 4235 31bc cae4 95bc 915d 393d 9839 d8bc
00000070: 022e 4abd 8f22 ac3c 2e11 0c3e dd90 eebb
00000080: e90e 013e 31e5 34bc b9ea ed3d 73bb e0bd
00000090: c6cb 0fbe 51ed 263d 84c5 81bd 1593 0f3d
000000a0: 6757 82bd 673a a3bd f2af 80bd 331d 073c
000000b0: 2c37 aa39 ff74 9f3c 995a f43d 3120 03be
000000c0: 80b0 e4bc fc43 43bb ac6f 863c 6923 2abe
000000d0: 53de 94bc 8bbc 7eba f4e8 593e 697e cbbd
000000e0: 2f6f 3c3c 6ec3 5cbd 3776 3c3d 10b4 753d
000000f0: 0ea5 2f3e 6615 3cbe 6846 c2bd 20c1 163e
00000100: 0af0 933d 812a 4d3d e06a be3d 8b54 6f3d
00000110: 90fa 02bd 0acd 14bd 4b40 e63d d5e9 5ebd
00000120: e216 7f3d b2f2 29bd a0ba 493d 9c71 dfbd
00000130: 8c54 c43c a286 28be ccf7 363c 3370 0c3c
00000140: fc83 17be f64d a0bc 5849 bebd 24ce 733d
00000150: ed3c 5a3d 1739 3e3e 6fc7 84bc 280b 873d
00000160: f75d 213e 84d9 a73c e014 923d 78c2 3fbd
00000170: 7f51 88bb 94ab a0bd 2489 ceba dc52 53bd
00000180: deb3 2fbb 478d ad3d e2c4 0fbd f1fc d6bc
00000190: e583 ba3c 1662 35bd b829 113e 4b76 383e
000001a0: 26fe 9ebd 67e9 88bd 071c 873d c922 8dbd
000001b0: 0add 083d 94f0 083e 27bf 02be c49c 623d
000001c0: 3699 08be b31f bf3d 76b2 dbbb 9449 2c3e
000001d0: 0f7d b2bd 3967 a73d 9f95 2cbd 9f52 993d
000001e0: bfeb b9bd c4b4 813c 8547 10be dc0e 423c
000001f0: e6fa 8e3d 629c c03b e5fc 1cbe a5a8 cb3c
-0.10426461 0.03291935 -0.045404147 -0.03573127 0.012821222 -0.03347025 0.061827682 -0.041968923
0.047784593 -0.082349084 -0.18477297 0.13147998 0.07821588 0.022975104 0.03141484 0.11346562
0.08665654 0.068711825 0.09618623 -0.06751955 -0.06341252 0.016553886 -0.15634114 0.07887402
-0.01081592 -0.018297572 0.045255248 -0.02639465 -0.049360283 0.021012573 0.13678429 -0.0072804526
0.12603344 -0.011040972 0.116170354 -0.10973253 -0.14042577 0.040753666 -0.06336501 0.035052378
-0.06364327 -0.07970124 -0.06283559 0.008246708 0.00032466033 0.019464968 0.11931343 -0.12805249
-0.027916193 -0.002979516 0.016410671 -0.1661507 -0.018172419 -0.0009717426 0.21280271 -0.0993622
0.011501118 -0.053897314 0.046011176 0.059986174 0.17152807 -0.18367538 -0.09486085 0.14722109
0.07223518 0.050089363 0.092977285 0.058430236 -0.031977236 -0.036328353 0.11242732 -0.05442222
0.062277682 -0.041491218 0.049250245 -0.10910341 0.023966096 -0.16457608 0.011167478 0.008571672
-0.14796442 -0.019568425 -0.09291333 0.059522763 0.05328076 0.18576466 -0.016208379 0.06593925
0.15758501 0.020489462 0.07132888 -0.04681632 -0.0041601057 -0.07845226 -0.0015757424 -0.051592693
-0.002681009 0.08474212 -0.03509987 -0.026243659 0.02276797 -0.044282995 0.1417607 0.18013875
-0.07763319 -0.06685143 0.06597143 -0.068914 0.033413924 0.13373023 -0.12768231 0.055325285
-0.13339695 0.09332218 -0.006704624 0.16824943 -0.08715259 0.08173985 -0.042134877 0.07486462
-0.09078168 0.015833266 -0.14089783 0.011844363 0.06981449 0.0058780173 -0.15330847 0.02486069

net.2.weight f4 [5, 128]
00000000: c06a 763f 76e9 183f 96bc 8f3e f870 5fbc
00000010: 6e20 c53e 9427 383f ec2d 8d3d 5c01 bf3e
00000020: 3429 ce3e e3ff 173d 953e 533e 2e8c a13e
00000030: d908 2f3f 9cb8 053f ba83 463f 2578 173e
00000040: 8a1b d43e 4135 3b3f 05ac 3fbe c6a1 19bc
00000050: 039a 1c3f 7a01 203d 2808 bcbd 19a4 dcbd
00000060: c24b 9c3c a7d8 283d c2ec 95bc 093a 0f3d
00000070: 5f6a b6bd 72d5 1b3e 51da 7a3e de8e 12bd
00000080: d911 363e d2b1 aabd 977e de3e 28b3 563c
00000090: 08b3 803d 6a44 73be 9b5b 843d 7b5e b53d
000000a0: a1dd ce3c bfbc 473e 707b 96bd 567a 5b3e
000000b0: 698e 533e 3344 c03e 9227 993e 2f3c 853e
000000c0: 112c 76be 4f95 4a3c 8a02 2abe e82b 893c
000000d0: be34 06bd 66f5 adbc 0cd8 323e 1a55 cebe
000000e0: bf1c c43c fd35 923b 3821 813e 3aa7 0b3f
000000f0: b34e 47be f668 b23d eaa6 c53c 2154 083f
00000100: cb54 a93f cf50 fa3d d8d2 803e d379 8dbd
00000110: f8bb 623e 5272 1ebe 555e 9a3e c1d7 27bf
00000120: ce99 93be b66b 4e3e 5456 cd3e dce5 123f
00000130: 3e88 bf3e 69d4 81bc 2784 26be 3760 0bbf
00000140: 299b 923c 0eb2 823d c273 52be cf54 853e
00000150: 7c6a 47be 84c7 7a3f cfec b6bd 5b57 2a3f
00000160: 7ac0 fd3e 2e3a c5bc 193f 873e efd1 9d3c
00000170: 755a e43e be7a 083d b400 15be 68ef 5dbe
00000180: 65ab 763d 5eb4 d63e f5b1 1ebb f02b 4f3e
00000190: f6ec 653c 7785 993d 03f6 b13d 2114 b33e
000001a0: a55c b73e a084 88bd aaad f63e eaba 26bc
000001b0: c20f ab3e d3fe 173f 4ab0 413c 0e2a a73e
000001c0: ac30 c03d 19cd 33be 627e ad3c 52dc 8ebd
000001d0: 2c00 e2b9 6054 813e 92b3 813d e363 103f
000001e0: 2bda d5bc 6073 433f ca86 973c f0a7 3b3e
000001f0: 2976 3a3f 7b65 eebd 9c4b 073e e40e 143f
00000200: d825 c0be d2c6 b4be 9326 213e 4a31 d73c
00000210: d945 33bd e9c6 babe 3ec8 a4bd 8159 27be
00000220: 4ade 97be 53ac 2d3d b17a 013d e9b4 03bd
00000230: 2466 79be 77a4 77be c51c bfbe b066 9c3d
00000240: 19d4 30be 4a6a afbe e37a 273e be86 63bd
00000250: ae1a 80be 92f8 033c 5357 b73b d06a 113e
00000260: 9c6c 993d da38 83bc 3131 70be 820b de3c
00000270: 383e a93d 3852 f73d c5a0 a4be c9fc 4abd
00000280: 1a41 5cbd 9a51 14bd 01ac dcbd ae38 c6bc
00000290: 8642 3abd c87a 073e 4810 333d 84ab 713e
000002a0: 20f6 693b f69b 343d 1fe3 02bd e1b6 70bc
000002b0: 2167 8d3c 8ea0 d03c a103 963d 0e04 d03d
000002c0: 7d6e 483e c94b 593d 9baa 353e de2e d13b
000002d0: b2bd 93bd 6492 263d 993e 0a3f 9995 d23e
000002e0: c734 edb7 84ec 6fbd d7be a23c 925a 02bf
000002f0: e7a0 763c 348f 5b3d bca4 68bd c084 58be
00000300: 4c57 9bbf 4930 cf3d 2bbb c4bd 8f33 633e
00000310: 092f ddbb bfcf 703e 284e 833d 96eb 363f
00000320: 1387 733e 0288 96bd 784e 8dbe 6b12 cabd
00000330: 401a 123c 8feb a93c 77bd 423e 3b66 b13e
00000340: 14e7 7a3c a3be 773b 506c a03e 6644 0b3d
00000350: ac25 0f3f 93a4 3dbf dc3f 7e3e e14e dfbe
00000360: f604 d2be 8d15 4e3d 4d1d b63c 5fed d63c
00000370: f717 593c 49ab 1bbd 1a2c 5ebe a264 533e
00000380: ad6f a0bd dd3c 0abd 08f5 ac3c b8b9 ca3d
00000390: fa55 59ba 10f3 523b 0f0e 1fbd 0798 de3c
000003a0: 384f ae3b 1dd0 8b3e 644f 53be fb69 813c
000003b0: 2087 b2bd afe5 acbe 3861 11bd b1be 87bd
000003c0: d9be b0bd 9fed 963e cefd 5bbd 2c54 493e
000003d0: ddc6 553d a1a2 5b3e 34e9 a83d a309 59be
000003e0: 4773 40bc aa59 7abe 9e58 c53b 4a30 bebb
000003f0: 0cf7 84be f9c0 983d 128e 943c a91c 71be
0.9625664 0.59731233 0.28073567 -0.013637774 0.38501304 0.7193539 0.068935245 0.37305725
0.4026581 0.037109267 0.20629342 0.3155226 0.68372875 0.52234817 0.7754475 0.14791925
0.4142726 0.73128134 -0.18717964 -0.009376949 0.61172503 0.03906391 -0.09181243 -0.10773487
0.019079093 0.04122224 -0.018301371 0.034967456 -0.089070074 0.15218142 0.24497344 -0.03578078
0.17780246 -0.08334698 0.43455955 0.013104238 0.062841475 -0.23756567 0.06462785 0.08855911
0.025252165 0.19505595 -0.073477626 0.21433386 0.20659794 0.37552032 0.29913002 0.2602248
-0.24040247 0.0123646995 -0.16602531 0.016744569 -0.032765143 -0.02123518 0.17465228 -0.40299302
0.023939488 0.0044620023 0.25220656 0.5455204 -0.19463615 0.08711426 0.024127442 0.5325337
1.3229002 0.12222444 0.2516086 -0.06908002 0.22142017 -0.15473297 0.30150095 -0.6556359
-0.2882828 0.20158276 0.40104926 0.5738199 0.37408632 -0.015848355 -0.1626135 -0.5444369
0.017896252 0.063816175 -0.2055197 0.26041266 -0.19474214 0.97960687 -0.089318864 0.66539544
0.4956091 -0.024075594 0.26415327 0.019265143 0.44600263 0.03332018 -0.1455105 -0.21673357
0.06022205 0.41934484 -0.0024214957 0.20231605 0.014033547 0.074961595 0.08689501 0.34976295
0.3581287 -0.06665921 0.4817937 -0.0101764 0.3341046 0.59373206 0.011821816 0.32649273
0.093842834 -0.17558707 0.021178428 -0.069756165 -0.00043106207 0.25259686 0.063330784 0.56402415
-0.026105007 0.76347923 0.01849689 0.18325782 0.7283655 -0.116404496 0.13212436 0.5783522
-0.37528872 -0.35307938 0.15737371 0.02626862 -0.043767784 -0.3647988 -0.08046006 -0.16342737
-0.2966178 0.04240067 0.03161115 -0.03215495 -0.2435537 -0.24183832 -0.37326637 0.076367736
-0.17268409 -0.3426078 0.16355471 -0.055548422 -0.25020355 0.008054869 0.0055951267 0.14200902
0.07491419 -0.01601832 -0.23456265 0.027105097 0.082638204 0.12076229 -0.32153907 -0.04955748
-0.053773023 -0.036210634 -0.10774995 -0.024196949 -0.045473598 0.13230431 0.0437167 0.23600584
0.003569968 0.04409405 -0.03195488 -0.014692039 0.01726109 0.025467183 0.07324911 0.10157023
0.19573398 0.05305079 0.17740862 0.006383761 -0.07213916 0.040666953 0.54001766 0.4112976
-2.8277178e-05 -0.05857517 0.01986639 -0.5091945 0.015053011 0.053603366 -0.056797728 -0.2114439
-1.2136016 0.101166315 -0.09606012 0.22187637 -0.006749992 0.23516749 0.064113915 0.71453226
0.23781995 -0.0735016 -0.2759893 -0.09866794 0.008917391 0.020742206 0.19017588 0.34648308
0.015313882 0.0037802837 0.31332636 0.034000777 0.5591686 -0.74079245 0.24829048 -0.43614867
-0.4101941 0.05031352 0.022230769 0.026236234 0.013250343 -0.038005147 -0.21696511 0.20643857
-0.078338005 -0.03374945 0.021112934 0.09898704 -0.00082907046 0.0032188334 -0.038831767 0.027172102
0.005319502 0.27307215 -0.20635754 0.015797606 -0.08717179 -0.33768985 -0.035493106 -0.066281684
-0.08630151 0.29478166 -0.053708844 0.19661015 0.052191604 0.21448757 0.08247605 -0.21195082
-0.011746234 -0.24448267 0.006022527 -0.0058040963 -0.25969732 0.074586816 0.01813415 -0.23546089

net.2.bias f4 [5]
00000000: 5dfd 83bc abaf 133e ad06 0b3e 5c50 0f3d
00000010: 1d42 323d
-0.016112024 0.14422481 0.13576765 0.034988746 0.04352008
