checkpoints/frogger_policy_0.92.pt (torch, 51797 bytes, 4 tensors)

net.0.weight f4 [128, 90]
-0.07691756 0.0023999852 -0.10507695 0.09202364 0.027729321 -0.07765343 0.02016637 -0.054397035
-0.095013335 0.024542091 0.0020952683 -0.112048924 0.03553601 0.050862443 0.02101735 -0.037737757
0.04847204 -0.058655746 -0.09680815 -0.050038405 -0.03457399 -0.048983548 0.009848718 -0.06440565
0.03065017 -0.05803367 -0.09833456 -0.10083028 -0.07554035 -0.042432226 0.07899337 0.07019817
-0.020483023 0.026183367 -0.06429888 -0.10905408 0.0024435644 -0.016411725 -0.010624973 -0.07936347
-0.03769382 0.017941745 0.05638598 0.041720007 0.0074388403 -0.058873545 0.031902317 -0.0095019955
0.0017024269 -0.0684668 -0.021754684 -0.11851571 0.04901567 -0.12149832 -0.08664938 0.032017853
-0.086886555 0.10012955 0.053165894 -0.045238126 0.047531612 0.033675507 -0.047934003 -0.03473978
-0.01828186 0.09754635 -0.06368942 0.036899816 -0.07280997 0.043438483 0.06106223 0.06991278
-0.04537253 0.00034093426 0.10269151 -0.088330165 0.097601235 -0.061462864 0.03390578 0.08555946
-0.04739434 -0.059555233 -0.01079683 -0.061314173 0.04860618 -0.05393876 0.028903076 -0.053853504
0.042936556 0.062881075 0.07643374 -0.058853596 0.029134009 0.043542717 0.054198623 0.3647265
0.9362479 0.4877078 0.08933071 -0.06786844 0.16774394 0.79159606 0.962523 0.07962776
0.0069530616 0.055368997 0.8794782 0.8879632 0.10615297 -0.14937522 0.39080465 -0.14251491
0.9103841 0.10047744 0.0069014207 -0.27473342 0.5253725 -0.7014048 -0.088023715 -0.042209085
-0.08294694 0.01012088 -0.03419869 -0.10063151 0.03174 0.1552236 0.31987903 0.16544053
-0.48117438 -0.0059399884 0.051157102 0.046715263 0.0017667658 0.020554334 -0.019983295 -0.38368934
0.12290469 0.023339912 0.07925191 0.095725745 -0.0006136667 0.036167055 -0.19786474 0.09087383
-0.11333497 -0.022636142 -0.04897187 0.09272197 0.06385213 -0.056822605 0.08884291 0.017883008
0.026952762 -0.0057397853 -0.09778984 0.029795358 0.008305856 0.101908624 0.103490114 -0.032253977
-0.015861223 -0.06833892 0.06333769 -0.075701974 0.10454849 -0.031294025 -0.038794618 -0.055591136
-0.029860286 0.015763221 -0.08581266 -0.031732433 0.035984963 0.10485966 -0.04310436 -0.051622592
-0.054644316 0.078842156 -0.016585626 -0.08766386 -0.006586621 0.008014971 -0.09571031 0.07379405
0.04892516 0.03660129 -0.018843845 -0.103651166 -0.10475702 0.034146518 -0.029600387 0.030158479
0.0142241875 -0.01445363 0.07998376 0.09616608 -0.013916255 -0.07080791 0.069449574 -0.10234332
-0.104655184 0.11252176 -0.09278072 0.06024356 0.07949173 0.013529995 -0.03653155 0.03748225
-0.08111383 -0.057768706 0.10350983 0.03325774 0.01722746 -0.040358376 0.013992568 -0.016979642
0.0761004 0.0019180438 -0.10396415 0.08075451 0.0146480575 -0.030408353 -0.065643184 -0.06440449
-0.036105588 -0.045454133 0.0052638 0.014401893 -0.014427832 -0.0454496 -0.0356065 -0.06780143
0.040232763 -0.010979846 0.061398815 0.029026272 0.07968815 0.008562839 -0.02676118 0.0994134
-0.11953683 -0.04738844 -0.043416005 -0.08706838 -0.031893566 0.032561824 0.06694518 0.038285855
-0.10306617 -0.09423667 -0.028969197 0.10372922 -0.0033181906 -0.047945622 0.05806477 0.011443615
00000000: f486 9dbd 1249 1d3b 9532 d7bd e476 bc3d
00000010: 9a28 e33c c308 9fbd f133 a53c 6dcf 5ebd
00000020: 5a96 c2bd 7f0c c93c c550 093b e879 e5bd
00000030: 358e 113d 2355 503d 942c ac3c e892 1abd
00000040: 9e8a 463d 0241 70bd 5a43 c6bd 12f5 4cbd
00000050: 759d 0dbd f9a2 48bd 845c 213c 1ce7 83bd
00000060: 1116 fb3c b7b4 6dbd a163 c9bd 1b80 cebd
00000070: e6b4 9abd 6acd 2dbd 47c7 a13d 0fc4 8f3d
00000080: 03cc a7bc 807e d63c 22af 83bd bf57 dfbd
00000090: 3524 203b e271 86bc 5e14 2ebc 5189 a2bd
000000a0: d664 1abd 91fa 923c fcf4 663d 99e2 2a3d
000000b0: 84c1 f33b 6325 71bd 01ac 023d 42ae 1bbc
000000c0: f823 df3a 5238 8cbd e136 b2bc 5db8 f2bd
000000d0: a8c4 483d 1cd4 f8bd 3b75 b1bd 2725 033d
000000e0: 94f1 b1bd b910 cd3d 7bc4 593d 9d4b 39bd
000000f0: 82b0 423d 54ef 093d 7256 44bd 4d4b 0ebd
00000100: d7c3 95bc 61c6 c73d 996f 82bd 4324 173d
00000110: 651d 95bd 8dec 313d 641c 7a3d 6e2e 8f3d
00000120: 8cd8 39bd 6cbf b239 ed4f d23d 72e6 b4bd
00000130: 28e3 c73d 7cc0 7bbd cae0 0a3d cc39 af3d
00000140: 9120 42bd 30f0 73bd 30e5 30bc 9224 7bbd
00000150: 4617 473d e4ee 5cbd 25c6 ec3c 7e95 5cbd
00000160: 3ede 2f3d cbc7 803d 4b89 9c3d 7810 71bd
00000170: 72aa ee3c d959 323d 60ff 5d3d 6fbd ba3e
00000180: f1ad 6f3f d6b4 f93e 05f3 b63d 9cfe 8abd
00000190: 11c5 2b3e 0aa6 4a3f e867 763f e113 a33d
000001a0: 82d6 e33b 9aca 623d 7c25 613f 8e51 633f
000001b0: ba66 d93d d1f5 18be 8c17 c83e 6eef 11be
000001c0: ef0e 693f 1ec7 cd3d 5025 e23b dca9 8cbe
000001d0: d07e 063f 448f 33bf c745 b4bd 6fe3 2cbd
000001e0: 16e0 a9bd 0cd2 253c ed13 0cbd e517 cebd
000001f0: cd01 023d eff2 1e3e 2fc7 a33e 3e69 293e
00000200: 7d5c f6be 3ca4 c2bb 1c8a 513d 8158 3f3d
00000210: d392 e73a 9061 a83c 02b4 a3bc ee72 c4be
00000220: 74b5 fb3d 5833 bf3c d34e a23d dc0b c43d
00000230: 7ade 20ba e823 143d 0e9d 4abe 0f1c ba3d
00000240: 2a1c e8bd 6e6f b9bc ba96 48bd 04e5 bd3d
00000250: e8c4 823d d2be 68bd 46f3 b53d 637f 923c
00000260: 0acc dc3c cf14 bcbb 0a46 c8bd 6515 f43c
00000270: 4915 083c 78b5 d03d a0f2 d33d bf1c 04bd
00000280: 65ef 81bc 47f5 8bbd 31b7 813d a309 9bbd
00000290: 851d d63d 2a2e 00bd 1be7 1ebd 88b3 63bd
000002a0: 8f9d f4bc df21 813c 8cbe afbd def9 01bd
000002b0: f864 133d a9c0 d63d 338e 30bd 3672 53bd
000002c0: b8d2 5fbd ff77 a13d 94de 87bc 1c89 b3bd
000002d0: 95d4 d7bb 3a51 033c c403 c4bd 5621 973d
000002e0: c065 483d 3ceb 153d 685e 9abc 1047 d4bd
000002f0: d98a d6bd 38dd 0b3d 837c f2bc ea0e f73c
00000300: 910c 693c ebce 6cbc 87ce a33d b9f2 c43d
00000310: 0101 64bc bd03 91bd 943b 8e3d 6099 d1bd
00000320: 7555 d6bd cf71 e63d d103 bebd f3c1 763d
00000330: 8fcc a23d eaac 5d3c 1ba2 15bd fd86 193d
00000340: 021f a6bd e19e 6cbd f6fc d33d 4539 083d
00000350: 9a20 8d3c d34e 25bd 1541 653c e418 8bbc
00000360: 87da 9b3d df66 fb3a 28eb d4bd 9f62 a53d
00000370: 68fe 6f3c f01a f9bc ef6f 86bd 80e6 83bd
00000380: 74e3 13bd 1d2e 3abd f47b ac3b ebf5 6b3c
00000390: b762 6cbc 5c29 3abd 1fd8 11bd 7adb 8abd
000003a0: 1ccb 243d d0e4 33bc 537d 7b3d 81c8 ed3c
000003b0: 8a33 a33d 264b 0c3c 433a dbbc 4199 cb3d
000003c0: bacf f4bd 621a 42bd fbd4 31bd e850 b2bd
000003d0: d4a2 02bd 8c5f 053d 8e1a 893d a1d1 1c3d
000003e0: 5b14 d3bd 28ff c0bd cf50 edbc fc6f d43d
000003f0: 0076 59bb a162 44bd 53d5 6d3d 007e 3b3c

net.0.bias f4 [128]
-0.05181732 -0.029042242 -0.06481247 -0.129127 -0.00786055 -0.094408266 -0.019779013 0.08085835
0.025557432 0.1455959 0.112188615 -0.093335316 -0.0842519 -0.09579351 0.007784775 0.098586865
-0.014543246 0.18348967 0.026942523 0.0074791578 0.003953195 0.016293786 -0.04958268 -0.032551266
-0.062058296 -0.07595101 -0.03089708 0.023809401 0.06285446 0.03452066 -0.090147726 -0.04178011
0.14100718 0.036800377 -0.00817202 0.10303769 0.03475469 0.17907448 0.15419388 -0.051049665
0.07253842 -0.04598896 0.07221706 -0.04205627 0.09968616 -0.08166531 -0.018589556 0.18577948
-0.02362472 -0.11212409 -0.07997355 0.12218641 0.032337613 -0.008150065 0.0012542261 0.0477717
0.016510658 -0.049275365 0.13040648 0.065183766 0.059786886 -0.07190883 -0.121337794 -0.058894202
-0.022038858 -0.0036044247 -0.0010940764 0.032926787 -0.01635708 -0.036908966 0.022803424 0.03574954
0.05311215 -0.03166598 0.06898946 -0.01980856 -0.074675635 -0.092229724 -0.046790503 -0.06851109
0.011514614 -0.06868079 0.16622798 0.06956323 0.013407392 -0.13046528 0.057676937 -0.040225327
0.053972293 0.06218696 0.17841765 0.18509917 -0.06786768 0.11434067 -0.12848128 0.15515448
-0.10998709 0.1059859 0.08034729 -0.11390807 0.0224069 0.10118958 -0.11152807 -0.080292895
0.048081703 -0.058383018 0.12115807 -0.12608784 -0.03876986 0.13598555 -0.0072142812 -0.07534787
0.13285424 0.07252556 0.0818056 0.15966408 -0.014526049 0.16649884 -0.027649691 0.19086586
-0.1237131 -0.0756595 -0.1318341 0.022174118 0.0011687754 0.012620462 -0.002332281 -0.08087437
00000000: 663e 54bd ffe9 edbc 66bc 84bd de39 04be
00000010: 89c9 00bc 1f59 c1bd 9907 a2bc 1099 a53d
00000020: d25d d13c 1717 153e 25c3 e53d 9626 bfbd
00000030: 438c acbd 632f c4bd 6d17 ff3b e9e7 c93d
00000040: cb46 6ebc b7e4 3b3e 91b6 dc3c b913 f53b
00000050: ce89 813b 8c7a 853c 3517 4bbd 7a54 05bd
00000060: d730 7ebd 348c 9bbd e01b fdbc ef0b c33c
00000070: d7b9 803d 8965 0d3d 5f9f b8bd 9f21 2bbd
00000080: 3064 103e febb 163d f0e3 05bc 6d05 d33d
00000090: ef5a 0e3d 4d5f 373e 00e5 1d3e 7419 51bd
000000a0: 068f 943d eb5e 3cbd 8ae6 933d 3243 2cbd
000000b0: 4228 cc3d 2440 a7bd 2049 98bc fa3c 3e3e
000000c0: a188 c1bc 51a1 e5bd 2cc9 a3bd de3c fa3d
000000d0: 7274 043d da87 05bc d864 a43a 42ac 433d
000000e0: 5c41 873c f7d4 49bd 4789 053e 117f 853d
000000f0: 18e3 743d f044 93bd f37f f8bd 0c3b 71bd
00000100: d68a b4bc 3638 6cbb 1d67 8fba 3dde 063d
00000110: 48ff 85bc db2d 17bd 3fce ba3c 1c6e 123d
00000120: 208c 593d 30b4 01bd 594a 8d3d 9045 a2bc
00000130: 8aef 98bd f0e2 bcbd 66a7 3fbd 8b4f 8cbd
00000140: cba7 3c3c 84a8 8cbd ab37 2a3e 2b77 8e3d
00000150: aeaa 5b3c b198 05be a73e 6c3d 50c3 24bd
00000160: 0d12 5d3d c1b7 7e3d 1eb3 363e a38a 3d3e
00000170: 36fe 8abd 712b ea3d 9990 03be d1e0 1e3e
00000180: e940 e1bd 230f d93d 1f8d a43d a248 e9bd
00000190: ad8e b73c 7c3c cf3d d468 e4bd 9a70 a4bd
000001a0: 52f1 443d 0823 6fbd b921 f83d 2c1d 01be
000001b0: 25cd 1ebd cc3f 0b3e c765 ecbb fc4f 9abd
000001c0: f10a 083e 4888 943d b289 a73d fb7e 233e
000001d0: aafe 6dbc ac7e 2a3e 9b81 e2bc 5772 433e
000001e0: 4b5d fdbd 5ef3 9abd 85ff 06be 7fa6 b53c
000001f0: 9831 993a 0ec6 4e3c 2fd9 18bb 76a1 a5bd

net.2.weight f4 [5, 128]
-0.011598865 0.65776616 -0.004091474 -0.10771206 -0.021185432 -0.035457026 0.3194174 0.31753626
-0.016273707 -0.41718724 0.58499396 -0.06662206 0.70981485 -0.039730877 0.4599451 -0.35174248
0.27832666 0.43335417 0.6526672 0.41722602 0.02399813 1.0768392 -0.07633247 0.2743082
0.02698019 0.3839381 0.8028826 0.8757456 0.41771907 0.027382778 0.12392712 0.4120335
0.050363433 0.07824036 -0.025036737 0.6478573 -0.004625305 0.7870578 0.48233095 0.5053942
0.34459794 0.07618128 0.438584 0.42223427 -0.31823 -0.009048015 0.42423445 0.19091804
0.09628876 0.006880702 -0.31613308 -0.38794875 0.09137854 -0.041718263 -0.13449655 0.081923045
0.5486757 0.0025497722 0.5848326 0.37958333 -0.5759127 0.5938783 0.016953202 0.63081324
0.6475398 -0.64133435 0.44321138 -0.020360613 -0.21284947 -0.48506024 0.51770693 0.57623553
0.25481984 -0.31934646 0.67569566 0.35786274 0.3694593 -0.036934085 -0.040286493 -0.007306167
0.87709606 -0.10251749 0.43956894 0.3620519 0.55482763 -0.043410707 0.95716006 0.032054134
0.85517645 -0.54350746 -0.39721924 -0.45856 0.8808816 0.57071114 0.042739805 0.18283062
-0.0801563 0.5094695 0.43016732 -0.08136737 -0.725488 0.24061278 0.91867274 0.06844984
-0.44722396 0.37368837 0.7928449 -0.016910342 0.027104056 0.23107642 0.8346912 0.5455686
-0.54872924 0.18668666 0.4573854 -0.105679795 -0.0212391 0.7991135 -0.32268646 0.4314181
0.2123228 -0.29081842 -0.027284672 0.6581965 0.6016158 -0.048018247 0.18155895 -0.06505042
-0.012462938 -0.04688996 -0.057344675 -0.033180583 0.013381499 0.007668297 0.46964824 0.34413758
-0.042511716 0.18571849 -0.29695323 -0.04105561 0.024911242 0.012233319 -0.0036634726 0.34309238
0.059072472 -0.0880796 -0.08545851 -0.5733935 0.046333823 -0.09801883 0.022902513 0.386264
0.055283934 -0.0452857 -0.2990397 -0.015166923 0.035271626 -0.07457276 -0.33458766 -0.19067799
-0.33323362 0.3149698 0.08518218 -0.21554223 -0.046272486 -0.4070407 -0.12380959 -0.115730695
0.17170143 0.045666445 -0.09901682 -0.11572619 0.23784357 -0.013727415 -0.07843922 0.30155554
0.3397739 -0.0662692 0.3992724 0.21490677 -0.073047765 -0.053938974 0.013275375 -0.08150724
-0.3147325 0.022427537 -0.6812393 -0.37282163 0.24756184 0.09514708 -0.00073344255 -0.16337112
-0.0038128719 0.38791695 0.018776454 0.054703392 0.2789478 0.40498677 0.035940558 -0.34673455
-0.27529302 0.31595802 -0.44113055 -0.080018595 0.21246329 0.06634413 0.10240626 -0.034408513
-0.31750777 0.15045403 0.15923801 -0.11796351 -0.06929974 0.035267375 -0.0029259548 0.047117513
-0.108478196 0.39845893 0.23777443 0.3799688 -0.109693624 -0.37302887 -0.024929196 -0.16859911
-0.018792538 -0.059792962 -0.14245391 0.12501141 0.4185066 0.21504083 -0.3674292 0.07398935
-0.5229462 0.061870273 -0.030462364 -0.0073628495 0.026065003 -0.27254507 -0.2998614 0.03002451
0.2815984 -0.026105057 0.032903932 -0.060174 -0.01494097 -0.703262 0.3924178 0.13987136
0.13531029 0.2607334 0.09250059 -0.18723243 -0.005035534 -0.0031630811 0.32884982 -0.06976458
00000000: 2a09 3ebc 5d63 283f c611 86bb 2498 dcbd
00000010: 128d adbc 633b 11bd ad8a a33e 1d94 a23e
00000020: 7050 85bc 9199 d5be 2ac2 153f 2671 88bd
00000030: 6db6 353f d8bc 22bd ed7d eb3e 9717 b4be
00000040: d580 8e3e 99e0 dd3e 3315 273f a69e d53e
00000050: ba97 c43c ded5 893f 3354 9cbd 2072 8c3e
00000060: 8f05 dd3c 8993 c43e b789 4d3f dd30 603f
00000070: 46df d53e d951 e03c 80cd fd3d 0ef6 d23e
00000080: e349 4e3d 7b3c a03d d819 cdbc fad9 253f
00000090: df8f 97bb 9f7c 493f 15f4 f63e 8461 013f
000000a0: 246f b03e ee04 9c3d 158e e03e 172f d83e
000000b0: 0bef a2be 203e 14bc 4235 d93e 0580 433e
000000c0: 0b33 c53d 8377 e13b 32dc a1be 38a1 c6be
000000d0: ac24 bb3d c5e0 2abd 77b9 09be 45c7 a73d
000000e0: 0376 0c3f 141a 273b 97b7 153f bf58 c23e
000000f0: 046f 13bf 6908 183f 71e1 8a3c fa7c 213f
00000100: 2bc5 253f 7d2e 24bf 9aec e23e 4dcb a6bc
00000110: 36f5 59be d159 f8be 7188 043f 2c84 133f
00000120: bf77 823e 6181 a3be 64fa 2c3f c939 b73e
00000130: c529 bd3e 3248 17bd 7303 25bd 9268 efbb
00000140: 5e89 603f b1f4 d1bd 2e0f e13e de5e b93e
00000150: 2f09 0e3f 6dcf 31bd 7108 753f 324b 033d
00000160: d8ec 5a3f 4e23 0bbf 5260 cbbe 60c8 eabe
00000170: 7581 613f 201a 123f ef0f 2f3d f337 3b3e
00000180: fc28 a4bd 986c 023f e43e dc3e f0a3 a6bd
00000190: 95b9 39bf 3263 763e 232e 6b3f 6e2f 8c3d
000001a0: 8afa e4be 1554 bf3e e2f7 4a3f 8f87 8abc
000001b0: 5309 de3c 4c9f 6c3e 53ae 553f 62aa 0b3f
000001c0: 8579 0cbf ca2a 3f3e 6b2e ea3e a66e d8bd
000001d0: 9ffd adbc b492 4c3f 2937 a5be d5e2 dc3e
000001e0: 266b 593e 27e6 94be 1b84 dfbc 917f 283f
000001f0: 7e03 1a3f c8ae 44bd 97ea 393e 2839 85bd
00000200: 5a31 4cbc b00f 40bd 40e2 6abd 5de8 07bd
00000210: 133e 5b3c 5646 fb3b bc75 f03e cd32 b03e
00000220: c420 2ebd fd2c 3e3e 410a 98be ed29 28bd
00000230: a912 cc3c 426e 483c df16 70bb cea9 af3e
00000240: faf5 713d 1463 b4bd df04 afbd ebc9 12bf
00000250: 89c8 3d3d 19be c8bd 0d9e bb3c 65c4 c53e
00000260: 6871 623d 807d 39bd bb1b 99be b07e 78bc
00000270: fb78 103d 9ab9 98bd 134f abbe 1741 43be
00000280: 999d aabe b943 a13e ff73 ae3d 1ab7 5cbe
00000290: 3888 3dbd a367 d0be e28f fdbd 3704 edbd
000002a0: 80d2 2f3e bd0c 3b3d 55c9 cabd da01 edbd
000002b0: 448d 733e f4e8 60bc bea4 a0bd 7d65 9a3e
000002c0: d8f6 ad3e 25b8 87bd 6f6d cc3e 8510 5c3e
000002d0: 119a 95bd 1def 5cbd f580 593c 45ed a6bd
000002e0: 9e24 a1be f4b9 b73c b365 2ebf 7ae2 bebe
000002f0: da80 7d3e 79dc c23d 7f44 40ba c24a 27be
00000300: 60e1 79bb 0d9d c63e 14d1 993c aa10 603d
00000310: 3fd2 8e3e 6d5a cf3e 6836 133d 3187 b1be
00000320: 35f3 8cbe 40c5 a13e dddb e1be cae0 a3bd
00000330: fa8f 593e 6edf 873d 60ba d13d f1ef 0cbd
00000340: 6190 a2be 9f10 1a3e 4a0f 233e da96 f1bd
00000350: 06ed 8dbd 8674 103d 60c1 3fbb 4bfe 403d
00000360: d129 debd cf02 cc3e 247b 733e 458b c23e
00000370: 0da7 e0bd a4fd bebe 5038 ccbc 3fa5 2cbe
00000380: cff2 99bc 77e9 74bd 70df 11be fe02 003e
00000390: 7f46 d63e aa33 5c3e ae1f bcbe ba87 973d
000003a0: cddf 05bf af6b 7d3d 358c f9bc 0f44 f1bb
000003b0: 4686 d53c 078b 8bbe 6f87 99be f6f5 f53c
000003c0: aa2d 903e 46da d5bc 46c6 063d 0379 76bd
000003d0: f8ca 74bc fa08 34bf fcea c83e 703a 0f3e
000003e0: c88e 0a3e d97e 853e f370 bd3d dcb9 3fbe
000003f0: 1f01 a5bb b24b 4fbb 015f a83e bbe0 8ebd

net.2.bias f4 [5]
-0.18793467 0.2684734 0.0677363 -0.20952123 0.14018466
00000000: f271 40be 5875 893e 54b9 8a3d bc8c 56be
00000010: 918c 0f3e
