checkpoints/frogger_policy_0.88.pt (torch, 51797 bytes, 4 tensors)

net.0.weight f4 [128, 90]
00000000: c283 b8bc bc0e 81bd 9aba cd3d 864b d93b
00000010: 00fe 0a3d a8bf 5cbd a85f 9bbc 19ac 44bc
00000020: 01d6 1a3d 30bb 903d 9c8e 993d c23d 9dbd
00000030: b8f4 953d fb97 223d bb3f c7bd d0b3 aa3d
00000040: 35ae d53b 93c5 dc3c 019a 7e3d 97b5 483d
00000050: 145c c1bc 9b86 9d3d 4cfa 093d 0049 96bd
00000060: f1a3 bfbd c1e3 aebd 0c0a 203d 03d1 253d
00000070: 3c2b 85bc 0157 63bd 92d4 523d 91be 84bd
00000080: 2ed5 ce3d 8c4c 8a3b 3f20 c43d 45d3 07bb
00000090: 8b86 aabd 517b 45bd e57e d3bc 982a a4bd
000000a0: 8cdd b2bc 39c3 453d 9c78 80bc eb4e 923d
000000b0: 41d0 3cbd 20be 113d 8b84 5ebc f00b 75bd
000000c0: b35f 76bd 4567 5dbd 3f43 843d 4bda b73a
000000d0: d56f aebc 5b2a 543d 8884 a53b 7cb2 d4bd
000000e0: 3a8c 92bd b275 87bc 32b8 613c afa2 abbd
000000f0: 97c1 853d 8781 07be e90c d6bd 51bc 91bd
00000100: b526 0ebe b176 933c a956 123b 4dcf a6bd
00000110: b649 8d3b 88cd 9c39 1702 adbd e1a7 6f3d
00000120: 2d37 d0bd e692 3a3d 12fc d6bb 154e b0bc
00000130: 6959 003d f618 fd3a a1b3 8dbd 9167 ae3a
00000140: 3662 1d3c f457 6cbd 0291 29bd 3516 9c3d
00000150: cfd7 83bd c526 273d cf05 b93d 9ce8 9dbd
00000160: e981 a3bc 9dd8 983d 80af 24bd 4c9b 4bbc
00000170: 760e 5f3c cc90 26bd 6e9d 11bd 9c43 623e
00000180: 6ebe 503c c66d 2b3f e75f 303f 7ed8 863e
00000190: 0b87 81bd 3a50 e93c 49b9 043f be90 d63e
000001a0: 1267 033f 2b8c 573b f40e acbe e544 663f
000001b0: bf1f 0c3e efdd fcbb c2c1 93bd 3739 abbd
000001c0: 90a7 d53c 7640 f2bd ae74 36bd 48ae 1abe
000001d0: 418e d4be bbf0 d2be 6028 f9bd 1773 76be
000001e0: b7ee cebd 52c8 c8bd 378e cabd dc3b c2bd
000001f0: 5a4a 723d 2e48 a13b 543f 5b3d 75e1 993d
00000200: 9741 3cbf 747b 403e 8929 b2be d09c f23d
00000210: 851b a53d 2433 2c3e 6511 f93d bf0a 20bf
00000220: 8a88 243e 8eed 683e 3758 693e eb3d 493e
00000230: 4873 a03a f0d4 cf3d 3267 ef3c 7284 c2be
00000240: db24 133e 9331 2a3d 70e8 37bd cbbe c9bd
00000250: 0e99 983d 930d 803d 1b45 903d 8e6a e53c
00000260: cd63 8a3d 76a1 323d 2301 b3bd 0722 063d
00000270: 6982 0c3d b7b2 a33b 054c 0ab5 bc01 853d
00000280: 5045 8b3b 7369 bcbd 3332 583d f322 a6bc
00000290: 8d3f a1bd bec9 2f3c 20b9 a7bd ba2a 3d3d
000002a0: 1cda cabc 03cc a33b 8cc3 9a3d 000c b83d
000002b0: 4113 a8bd cb3b 6e3d 557a a5bd cc20 2e3d
000002c0: 29ce bfbd 4be8 353d 1097 96bc c4fd 643d
000002d0: 8c01 073d 0007 ad3c 36e1 63bd 2597 ca3b
000002e0: 2ad0 43bc ecc2 9dbd f105 cebd 551b 8dbb
000002f0: c42b 6cbd 99b8 5c3d db31 883d d9f2 6a3d
00000300: 70e9 513d 16b7 acbd 9bee cc3d 842a a0bd
00000310: e4d6 a4bc 90f2 babd 96fb 70bd 7e89 cb3d
00000320: 4830 06b8 0e31 c3bc 0763 b7bd 66f3 92bd
00000330: 4a7f 993d 3bff 74bc 1e05 38bd f2c4 4f3d
00000340: d44f aa3b 3d7a 8c3c a164 0ebb 170a bcbc
00000350: ff3e 88bd 3aa8 07bd 760e 08bd c9e4 bebd
00000360: 33fb 5ebd cde2 1abe 1e5c 4f3d 8392 b4bd
00000370: 84df 2cbc 5218 bbbc 63e4 0c3b bd62 67bd
00000380: 237f ffbd cc91 b2bd f63e 6abd 4932 c7bc
00000390: 7d5c 0cbe b454 693c aa70 a93b cbd2 d6bd
000003a0: ef78 543d 9d94 cb3b 2512 06be 964f cfbd
000003b0: f87f 6a3d 4c35 b23d c7f4 e33c 9090 23bc
000003c0: 6e52 803c d773 19bb 0a63 61bd 3001 be3c
000003d0: db2f a63b 4712 933d d010 353d e330 cc3d
000003e0: 72f2 253d 01ce a23d 8996 8d3d 735a a43d
000003f0: 0d43 b53b 083d a7bd 8ef2 87bb 8b95 903d
-0.022523765 -0.063016385 0.10045357 0.0066313175 0.03393364 -0.053893715 -0.01896651 -0.012003922
0.037801746 0.07066953 0.07497904 -0.07677795 0.07322067 0.03969572 -0.097289525 0.08335078
0.0065210112 0.02694968 0.06215859 0.049001303 -0.023603477 0.076916896 0.033685967 -0.073381424
-0.09357441 -0.08539534 0.03907208 0.040482532 -0.016255967 -0.055502895 0.051472254 -0.0648166
0.100992545 0.004220551 0.09576463 -0.0020725292 -0.08326443 -0.048213307 -0.025817344 -0.080159366
-0.021834157 0.048281882 -0.015682511 0.07143959 -0.046097044 0.035581708 -0.013581405 -0.059825838
-0.06014986 -0.054053564 0.06458139 0.0014026848 -0.02129356 0.051798206 0.0050511993 -0.10385606
-0.07155652 -0.016535614 0.013776826 -0.08380639 0.06531065 -0.13233005 -0.10451681 -0.07115997
-0.13881953 0.018000932 0.0022329486 -0.08145008 0.0043117655 0.0002990777 -0.08447664 0.05850971
-0.10166774 0.04555025 -0.006560811 -0.021521607 0.03133527 0.0019309807 -0.06919027 0.0013306012
0.009605935 -0.057701066 -0.041398056 0.07621423 -0.064376466 0.040808458 0.09034311 -0.07710382
-0.019959407 0.07463191 -0.040206432 -0.012427162 0.013614288 -0.040665433 -0.035550527 0.22096103
0.0127407145 0.66964376 0.68896335 0.26337045 -0.063245855 0.028480638 0.5184522 0.41907305
0.5132915 0.0032889943 -0.33605158 0.89948875 0.13683985 -0.0077168862 -0.07214691 -0.08360522
0.026080877 -0.11828701 -0.04454487 -0.15105546 -0.4151478 -0.41199288 -0.12165904 -0.24067341
-0.10104125 -0.09803833 -0.098904066 -0.094840735 0.05915294 0.0049219346 0.05352719 0.07513706
-0.7353758 0.18797094 -0.34797314 0.11846316 0.080618896 0.16816384 0.12161521 -0.625164
0.1606771 0.2274687 0.22787558 0.19652526 0.0012241388 0.101480365 0.029224012 -0.37991673
0.14369528 0.041551184 -0.044899404 -0.09850844 0.07451068 0.06252589 0.07044431 0.02800491
0.06757317 0.043611012 -0.08740451 0.032747295 0.034304056 0.0049956697 -5.151963e-07 0.064944714
0.004250206 -0.091998 0.05278225 -0.020280337 -0.078734495 0.010729251 -0.08189607 0.046183325
-0.024762206 0.0049986853 0.07556829 0.08986664 -0.082067974 0.05816249 -0.080799736 0.042511746
-0.09365494 0.044410985 -0.01838258 0.055906072 0.03296046 0.021121502 -0.0556347 0.0061825686
-0.011951486 -0.07703194 -0.10059727 -0.0043062367 -0.057658926 0.053886984 0.06650134 0.057360504
0.051248014 -0.08433358 0.10006448 -0.07820609 -0.020122 -0.091282964 -0.05883368 0.09938334
-3.1993055e-05 -0.023827102 -0.08954435 -0.07175331 0.074949816 -0.01495343 -0.044926755 0.05072493
0.0051975045 0.017148132 -0.002172746 -0.02295403 -0.066526406 -0.033119418 -0.033216916 -0.09320981
-0.05443878 -0.1512558 0.05062496 -0.088170074 -0.010551337 -0.022838745 0.0021498434 -0.05649065
-0.12475421 -0.08719215 -0.05718895 -0.02431597 -0.13707156 0.014241386 0.0051709013 -0.10489424
0.051873144 0.0062127844 -0.13092859 -0.10122602 0.057250947 0.08701572 0.02782668 -0.009983197
0.015664306 -0.0023414993 -0.05502609 0.023193926 0.005071623 0.071812205 0.044205487 0.09970262
0.040514417 0.079494484 0.06913478 0.08025064 0.0055316747 -0.08165938 -0.004148788 0.07059773

net.0.bias f4 [128]
00000000: 29dc 0bbe 1048 113d 891a a4bd 409f f93d
00000010: d6a1 87bc 56d4 fa3d 5df3 143d b8b8 03bd
00000020: a59c c03d 8afd ba3d 7765 ff3d 1614 19bd
00000030: 6b40 e13b aa28 7939 e895 2a3d d59d a33d
00000040: 8cf1 a2bc ba7b 273c 22da f6bd dbe5 0a3d
00000050: df2b fe3d 3f66 c8bc 6841 263c b779 8a3d
00000060: 6c56 26bd d8b2 983c 70eb cbbd e3e2 e4bd
00000070: 4bf4 a1bc 9e1f abbd 4b8e abbd a313 60bd
00000080: fdac bcbd c206 543d d43d 86bd 1c0e f9bb
00000090: 2f25 1bbc 7471 e5bd 4b9b a9bd 7c8c 36bd
000000a0: 4ede 54be 4db3 963c 414c af3c 81e1 073e
000000b0: 1ecc 113d 202e 21bd 8870 10bc c4d9 233d
000000c0: 4d3b d8bd ffa6 183d 7443 94bd c960 22bd
000000d0: d51d 673d e85d 2b3c 0301 043d d0c8 203b
000000e0: 16e7 0cbe 3fc6 02bd bb99 ebbd a2c7 3f3b
000000f0: 5ec7 d03d d7cf 02be 623e ba3d 734f 3e3e
00000100: b91f e83c 20a3 22bd b1ef 833d 3473 b4bd
00000110: 0c6c b0bd 5dec c43d 70c9 94bb da8a d4bb
00000120: b784 553d f1df 74bc e918 a5bd f593 bbbc
00000130: 61ea b83c 83da d1bd b4ef 87bd 1273 99bd
00000140: b034 d6bb e06e fdbc dfc2 003e 311f 7abd
00000150: 8a96 dbbd e347 d0bd 322b 3e3d befa 9d3c
00000160: 7424 f23c 2dce 0dbe 5c1f 1ebb c6f4 a33d
00000170: 4a27 64bd 2d59 4e3e e7d5 c63c 4442 1cbe
00000180: ad46 0e3d d98a 503d 7b5d 0dbd f294 243c
00000190: 7cdf 3bbe ba66 473d de73 58bc 7b29 e93d
000001a0: a920 9b3d dc19 9c3c be3b ac3d b2ff 98bd
000001b0: 0ea5 013e d537 7abb 680b d0bd 614d 2ebd
000001c0: bbd0 643d eb1b ccbc 9fdf a4bc 4882 00bd
000001d0: 1390 62bd ba76 34bc 7598 883d 13db 873d
000001e0: 42e6 2d3e 19f4 c73d 0838 14be f309 043e
000001f0: ea16 9c3d 009c fbbd 247b 1a3d 6a01 3abc
-0.13658203 0.035469115 -0.08012874 0.12188578 -0.016556662 0.12247531 0.0363649 -0.032158583
0.094048776 0.0913039 0.12470525 -0.03737267 0.0068741343 0.00023761639 0.041646868 0.079890884
-0.01989057 0.01022237 -0.12053324 0.033910614 0.124107115 -0.024462817 0.01014743 0.067614965
-0.040609762 0.018639967 -0.099570155 -0.11176088 -0.019769808 -0.0835564 -0.083767496 -0.054706227
-0.092126824 0.051764257 -0.065547615 -0.007600559 -0.0094693145 -0.1120328 -0.08281573 -0.04456757
-0.20787928 0.018396044 0.021398665 0.13269617 0.035595052 -0.03935063 -0.008815892 0.0400026
-0.10558186 0.037268635 -0.07239428 -0.039643083 0.056424934 0.010459401 0.032227527 0.0024533756
-0.13760027 -0.031927343 -0.11503931 0.0029263278 0.10194276 -0.12774597 0.0909393 0.18584995
0.028335439 -0.03970635 0.06442202 -0.08811036 -0.08614358 0.09615395 -0.004540615 -0.006486279
0.05212852 -0.01494597 -0.08061392 -0.0228977 0.022572698 -0.10246756 -0.066375166 -0.07492651
-0.0065370426 -0.030936658 0.12574337 -0.061064903 -0.107220724 -0.10169961 0.046427913 0.019284602
0.029558398 -0.13848181 -0.0024127578 0.08005671 -0.05570153 0.20151205 0.024271918 -0.15259653
0.03473537 0.050913665 -0.034512978 0.010045277 -0.18346971 0.048681952 -0.013211219 0.11384865
0.07574589 0.0190553 0.084098324 -0.07470645 0.1266062 -0.003818025 -0.101584256 -0.042554263
0.055863123 -0.024915656 -0.020126162 -0.031374246 -0.05531318 -0.011014635 0.06669704 0.06633582
0.16982368 0.09763355 -0.14474499 0.1289442 0.07621558 -0.12285614 0.037715092 -0.011352876

net.2.weight f4 [5, 128]
00000000: b7fa 2e3d eec3 1c3f 408f 83bc dc46 bf3e
00000010: e34d e63e 5161 5a3d 3120 393f ad35 14bd
00000020: 670f af3e 0b76 c03e 02b8 133f 99ce 343b
00000030: cae1 ef3e ca85 93be 927a c53e 5a9d aabe
00000040: 9dd8 ac3b 2748 ee3e b572 8bbb 9100 9dbe
00000050: 3b58 b73e 16f2 c33d c875 053e f488 0bbf
00000060: 8a1d ad3c 07ce 1b3f 6a53 133f 7fba 13bd
00000070: 66c1 ad3d 5fb6 373f 573c 4d3d 6f5c 913d
00000080: 5173 5a3f 5d97 093f de46 ce3e ce92 1e3c
00000090: 2560 f0be ff48 533f 95ab b83e 425f a9be
000000a0: 16e0 3d3b 7a38 403e bd5d f83c 94cf 2d3f
000000b0: f203 22bd 4514 b83a 87cb 9d3e 4c63 0bbf
000000c0: 22ca 8a3d 0000 a7be 8106 163d 4903 cabc
000000d0: 2dbe 163f fe4e 313f 664f f43e d45c d9bc
000000e0: 53e9 92bc cb10 43bc 05ec 0f3f 17ad e43d
000000f0: f048 38bf d7fd f63c 9450 6f3f b007 363f
00000100: 61dd 4d3d a321 6ebd e96e 363f 41fb 67bd
00000110: 3104 32bd 7b00 f8be 5152 0f3f b46c 85bc
00000120: 3a7e 253f cf09 6fbb ae2a 8f3e f671 b53d
00000130: 4edb 7dbd 9ec9 cf3c 0a60 a03d 2e63 8d3c
00000140: 1592 5abe 4ec5 eabb 91aa a43e cfb7 28bd
00000150: f83a cfbd 1009 84bd 8f41 35bd 1365 43bd
00000160: b9ba a6be 7274 d03b 1a92 4ebd cfee 093e
00000170: 8f08 643f 4f84 8e3e e91f 35bd 5a80 473d
00000180: 233e 983e 2dc9 4abf 47b0 2abd 521a 173f
00000190: 1c3c 5b3e 6ceb fdbe 6943 22bd 445d d83e
000001a0: d6da 173f dcdc 753e 66ac f93e bb58 9f3f
000001b0: afc9 90be ce3d e83e 4dfd 10bd bab3 843e
000001c0: 5aca 97bd c723 303e 74b0 1abe 2a36 2a3f
000001d0: 1143 d6bc 4640 493f 1a44 253f 51da 5cbb
000001e0: 3a1d 2a3f 17bc 083f 404a 523d 9045 0e3f
000001f0: 51b0 df3e ebc1 20bd 2e18 c53e 7129 c63d
00000200: 883b 083d e8e7 39be 80be 603c a1af 79be
00000210: 3d6d a8be f4c7 84be fc05 2bbe 199e a8bc
00000220: 0334 14be 1d2d 90be 2269 f2be 797c a5bd
00000230: 272c 3fbe 20b4 ee3c b95e 3dbe f2d3 883e
00000240: eb0e 57bd eb62 b3be b0f6 b63c 3ca4 833e
00000250: 7ef4 bfbe f216 a6bd de14 013d a4e5 d13d
00000260: 252a 96bc f235 04be 3f4e 21be f142 8cbd
00000270: 671d b8bc cd78 2bbf e943 1b3b 3f63 2d3c
00000280: 12f8 a8be 84ea 23be 2092 80be 6fbd 7ebd
00000290: 4514 ba3d 69f1 7ebe e669 6cbd 8c5a 043e
000002a0: af12 e83c 6855 a8be ed73 953d 99c7 dbbe
000002b0: afdb 973c 21d8 0cbe 8991 aebe c6eb acbd
000002c0: 625b 6dbc b417 823b f7f7 63bc 509f 51bb
000002d0: 899c a0be 62aa 4abe 977f 5bbd a72c c1bd
000002e0: afa8 bcbd 8857 40bd de5f 09bd 4440 2b3d
000002f0: 4fea 423d 6e5d 963a 8452 9bbe e8c4 15bf
00000300: b909 c73c b049 1b3c 7c4b 16be cf75 1a3d
00000310: 3eb5 9c3c 9ec4 9a3e 8d8c abbe 71f8 1e3b
00000320: a581 e0be 7704 27bc 62d8 fbbd de40 34be
00000330: 51d7 0ebe 86ca 5a3d 4b11 883e 592c e6bd
00000340: 1d9d 553e 481e a2bc cc93 96be c3e1 3abd
00000350: 34e3 563d 59ce adbd f790 e4bb 8c98 bebd
00000360: ac36 193e 5f84 1bbd d42f b5bc 65b4 9bbe
00000370: 3e21 9cbe c51b aabe a9df ddbc 43fd d33c
00000380: 7513 8bbe 98f1 f93c 7e05 c73c 3cec 36be
00000390: fe4c 32bc 1e01 863e d571 9cbd 6e50 14bd
000003a0: 21df aabe 4ecf 3d3c c6f8 23be 76d2 c9be
000003b0: 9579 403e 81e4 85be dff6 3d3d 4544 82be
000003c0: 80c6 803e 7115 33be 2e2d 673e 7d64 18be
000003d0: 2b11 9c3c 41cf 61be db6d 9ebe 76e6 773d
000003e0: 1325 28bf 9b40 28be 4c40 e83b 9014 27bf
000003f0: fd95 61bc efaf caba 5869 99bd 77a9 1dbe
0.04271957 0.61236465 -0.016059518 0.3735875 0.44981298 0.053315464 0.72314745 -0.036184
0.3419144 0.3759006 0.5770265 0.0027588962 0.4685195 -0.2881301 0.38570076 -0.33323175
0.0052748458 0.46539423 -0.0042556175 -0.30664495 0.35809502 0.095676586 0.13033211 -0.5450585
0.02113225 0.6086125 0.57549155 -0.03606653 0.084841534 0.7176265 0.050106373 0.070977084
0.8533221 0.5374659 0.40288442 0.009678556 -0.46948352 0.8253326 0.36068407 -0.33080488
0.0028972677 0.18771544 0.030318135 0.67894864 -0.039554544 0.0014044127 0.30819342 -0.5444839
0.06776835 -0.32617188 0.036627296 -0.02465977 0.58883935 0.6926116 0.47716826 -0.026533522
-0.017933523 -0.011905859 0.5621951 0.11165827 -0.71986294 0.030150337 0.9348233 0.7110548
0.05025995 -0.058137547 0.71262985 -0.0566361 -0.04346103 -0.48437867 0.5598498 -0.016287185
0.6464573 -0.0036474352 0.2796225 0.08859627 -0.061976723 0.025364693 0.07830818 0.017259207
-0.21344788 -0.007164634 0.32161382 -0.04119092 -0.10118669 -0.06447041 -0.044251975 -0.047703814
-0.32564333 0.0063615376 -0.050432302 0.13470004 0.8907556 0.27835318 -0.044219885 0.04870639
0.29734907 -0.7921322 -0.041672017 0.59024537 0.21409649 -0.49593675 -0.03961507 0.42258656
0.5931829 0.24010032 0.48764342 1.2448953 -0.28278872 0.45359653 -0.035397816 0.2591837
-0.074116424 0.17201148 -0.15106374 0.664889 -0.026155027 0.786137 0.6455704 -0.0033699463
0.66450846 0.53412 0.05134034 0.55574894 0.43689206 -0.039247435 0.3849501 0.09675873
0.0332599 -0.18154871 0.013717294 -0.24383403 -0.32895842 -0.25933802 -0.16701502 -0.0205832
-0.14472966 -0.2815942 -0.47345835 -0.08080382 -0.18669187 0.029138625 -0.18493165 0.267242
-0.05250446 -0.35036406 0.022334427 0.25711238 -0.3749122 -0.08109845 0.03151404 0.102488786
-0.018330643 -0.12911204 -0.15752505 -0.068487056 -0.022474958 -0.669812 0.00236916 0.010582744
-0.33001763 -0.1600743 -0.25111485 -0.062192377 0.09085897 -0.24896778 -0.05771818 0.12925166
0.028329222 -0.3287766 0.07297502 -0.42925718 0.01853737 -0.13754322 -0.3409541 -0.08443408
-0.014487119 0.003970111 -0.0139141 -0.0031985827 -0.31369427 -0.19791558 -0.053588476 -0.09432345
-0.09211861 -0.046958476 -0.03353869 0.041809335 0.047586735 0.0011471936 -0.30336392 -0.5850358
0.024296628 0.009478018 -0.14677233 0.037710007 0.019129392 0.30228132 -0.3350567 0.002425697
-0.4384891 -0.010193936 -0.12297131 -0.1760287 -0.13949324 0.053415798 0.26575693 -0.112389274
0.20860715 -0.01978983 -0.29409635 -0.04562546 0.05246277 -0.08486623 -0.006975289 -0.0930644
0.14962262 -0.037968036 -0.022117533 -0.30411068 -0.30494112 -0.3322431 -0.027084189 0.0258776
-0.27163282 0.030510709 0.024294611 -0.17863554 -0.010882614 0.26172727 -0.07638899 -0.036209516
-0.3337336 0.01158507 -0.16012868 -0.3941838 0.1879638 -0.26150897 0.046378013 -0.2544271
0.25151443 -0.17488648 0.22575828 -0.14882083 0.019051155 -0.22051717 -0.30943188 0.06052252
-0.6568157 -0.16430895 0.007087743 -0.6526575 -0.01376867 -0.0015463809 -0.07490796 -0.15396677

net.2.bias f4 [5]
00000000: 3b52 e2bd 4c78 ab3d 3e1e c1bd 7d52 d43c
00000010: 9efe 4c3e
-0.110508405 0.08372554 -0.09429596 0.02591824 0.20019004
