checkpoints/frogger_policy_0.79.pt (torch, 51797 bytes, 4 tensors)

net.0.weight f4 [128, 90]
00000000: ca33 c1bd ec23 6a3c 8de7 ce3d 4db7 f83b
00000010: 0aad f93c 9917 173d 8cc1 2d3d 4e04 3b3c
00000020: f58f 23bd 01d7 803c 11f9 01bc 1ac5 713d
00000030: 1dae 203e 52c7 98bd d17a 14bd c285 913d
00000040: 514a 8fbb 48bc 25bc 9132 c13c 7a34 a0bd
00000050: c0b1 2cbd c3d2 9e3d 3dce 6bbb 71e0 fa3c
00000060: e760 9cbd 1c38 debc 860e 2abc 8c02 5e3d
00000070: b8b5 26bd 45d2 ac3d fdde 9dbc f30b a5bd
00000080: 1dc3 4c3d b2af b93d 9cfd c9bd 5ff3 76bd
00000090: d4d7 2e3d d14e 1e3d 6cc7 dabd 7c21 9bbd
000000a0: c239 dfbc fe36 143d 50e1 eabd e876 90bd
000000b0: fe45 20bd 7a85 413d 0028 7bbd 398a 88bd
000000c0: d489 e8bd c8fc 95bd cba4 a5bd 35fa 863d
000000d0: 9a0f d0bd c5fc d2bd 144d 963d 960e 313d
000000e0: c125 0abd 2383 87bb dac1 c5bc 8985 833d
000000f0: f28c f5bd 1890 cebd 22cb 8dbd ced9 7a3b
00000100: 9bed ccbd 7642 aebc d641 bfbd 27e3 c93d
00000110: 476a b8bd 3065 d13d 946a d63d f8d1 423d
00000120: 4e02 b13d 18bf b2bd ec6a 52bc babb 233c
00000130: 0534 f03c 1290 6abc e9a8 e5bc 4d0b 82bb
00000140: d90e 8d3d 4ab6 d6bd 79a4 a0bd 020a 1f3c
00000150: 1257 b03d 34b3 a53d 620c d73c 844a a73b
00000160: 0c0d 823d 5251 9b3d c71b 9d3d db6b 843d
00000170: 5ce4 bb3d 3b4e 49bd ba02 713c 786d 953e
00000180: 804d 673f 4aa7 d93e 7709 a03e c915 113c
00000190: 3b6e 4e3e d592 123f a56f 143f 6627 8d3e
000001a0: abf5 2d3e df33 d9bc b0b7 e23e 7b77 6a3f
000001b0: 8b6f a43e 2a1d b7bd ec42 f9bd 08e2 18be
000001c0: dd2d 283f e283 12be ee19 ee3d bf04 fdbd
000001d0: be67 663c ffad ebbe b9c4 3bbe 2c23 23be
000001e0: 99f6 7c3d 7d4d 19bd 4759 9d3c 2f82 293d
000001f0: a0da 41bc 8bf6 fc3d 3778 433e 2fa4 4c3e
00000200: 1387 20bf 5924 113e 5aff 443d fc70 7abc
00000210: 9983 713d c2e0 463e 8c94 363d 2435 35bf
00000220: c139 953d e46e f03d 5d0b 313d 1c2d 163e
00000230: 1f69 3f3d 1b0c 083e 31e9 3b3d 372b 56bd
00000240: e807 8fbc f681 c23b 1031 b2bd b391 19bc
00000250: 4986 7c3c ed34 3d3c ddd5 613c d2d1 e23c
00000260: 5583 063d c5d1 ef3c de13 153a 39cb 1fbc
00000270: 0ef6 9f3d 08f6 7bba e35d d13d 2ea7 973c
00000280: e131 a0bd 30f9 34bd fea3 0fbd 173c c33d
00000290: 0486 a13d f111 02bd 6114 5e3c 8547 9a3d
000002a0: 5eda c63d ca74 1bbc 26e3 08bc 52d9 60bd
000002b0: 3405 333b 3c57 793d e3eb 78bd 8624 88bd
000002c0: 3f40 a73d 9672 45bc bb14 d23d 64c0 b8bd
000002d0: 80d8 8d3d 54d0 823d 0dc7 b8bd 4995 34bd
000002e0: 7620 793d 8692 223e e65d 3c3f fdd3 d13e
000002f0: aa1a 9c3e d1b3 563d c2e0 aa3e 8394 073f
00000300: 79c0 473f f875 a13e de33 bf3d e4d2 ca3c
00000310: 085f ee3e b877 553f 9cfe 023e 6a22 02be
00000320: 9c18 b23e 3353 a2be ef8c 103f 8dad fd3c
00000330: 8a99 a0bd 4bf7 2e3e 5554 f33e 3018 1fbf
00000340: cdb5 80be b743 e1bd e804 0b3c bc5e b4bb
00000350: d0b6 a2bd 7fc8 20bd f4b4 47bd ba13 ff3c
00000360: e310 e83d cad7 08bd 26d2 b8bd 3d3d d1bd
00000370: 38bf a43d d406 debb eb70 49be 3e75 be3d
00000380: b2a6 e83d 8fe6 533d cd7c 31bc 3b49 073c
00000390: af8f 84bd 1310 e4ba 0fd3 66be 04b4 203e
000003a0: fe71 9b3d 8b5a 0d3e fc9c 183e a25e 663c
000003b0: 7bbe 623d 5998 c9bc cb94 91bd 2cdf 233d
000003c0: 1fcf 3c3d 3cee a73d 9b12 183d 5117 2f3d
000003d0: 1698 763d be06 21bd dea3 20bd 62e0 283d
000003e0: 4f77 b53d 3857 613c 333f a43c 794c 58bd
000003f0: 3a63 f93b 21e4 193c c7ee 38bd 2aeb c73d
-0.09433706 0.014290791 0.101027586 0.0075902105 0.03047802 0.03688774 0.04242091 0.011414601
-0.03993221 0.015727522 -0.007932917 0.05902586 0.15691419 -0.07459892 -0.03624994 0.071055904
-0.004372873 -0.0101156905 0.023583682 -0.07822509 -0.042161703 0.07755043 -0.0035981082 0.0306246
-0.0763567 -0.027126364 -0.010379439 0.054201648 -0.040700644 0.08438543 -0.019271368 -0.0805892
0.049990762 0.09066714 -0.09862825 -0.06029069 0.0426863 0.038649384 -0.10682568 -0.07574746
-0.02724922 0.036185257 -0.11468756 -0.070539296 -0.03912925 0.047246434 -0.061317444 -0.06666989
-0.11354414 -0.07323605 -0.080880724 0.06590692 -0.10159226 -0.10302118 0.0733892 0.0432268
-0.03372741 -0.0041355058 -0.024140287 0.06421954 -0.11989774 -0.100860775 -0.0692351 0.0038276794
-0.10006257 -0.021271925 -0.09338729 0.09857779 -0.09004646 0.10224378 0.10469547 0.047563523
0.08643018 -0.087278545 -0.012842875 0.009993488 0.02932168 -0.014316576 -0.028034644 -0.0039686323
0.068875976 -0.10483988 -0.07843871 0.009706976 0.08610357 0.08090821 0.026251022 0.0051053185
0.06350145 0.0758387 0.07671314 0.06465884 0.091744155 -0.049146872 0.014710123 0.2918508
0.9035263 0.42510444 0.3125722 0.008855292 0.20159237 0.572553 0.57982856 0.2756912
0.16988246 -0.026513992 0.44280767 0.9158856 0.3211635 -0.089411095 -0.121709675 -0.14929974
0.6569498 -0.14308122 0.116260394 -0.12354421 0.01406282 -0.46031186 -0.18336762 -0.15931386
0.06175861 -0.037427414 0.01920761 0.04138392 -0.011831909 0.12351712 0.19088827 0.19984506
-0.62706107 0.14174022 0.048095085 -0.015285727 0.058963392 0.19421676 0.04457526 -0.7078421
0.07286406 0.11739901 0.043223727 0.14665645 0.04673111 0.13285868 0.045876686 -0.052287307
-0.017459825 0.0059359027 -0.08700764 -0.009373116 0.015412875 0.011548263 0.013783899 0.02768794
0.03284009 0.02927483 0.00056868594 -0.009753042 0.07810603 -0.00096115516 0.102229856 0.018512335
-0.07822014 -0.044182956 -0.035068505 0.095329456 0.078868896 -0.03175539 0.013554663 0.075331725
0.09709619 -0.009488294 -0.008354938 -0.054894753 0.0027316334 0.06087421 -0.060771834 -0.06647591
0.08166551 -0.012051245 0.1025786 -0.090210706 0.0692606 0.06387392 -0.09022341 -0.044087682
0.060821973 0.15876207 0.7358078 0.40982047 0.30489093 0.05241758 0.33374602 0.52960986
0.78028065 0.31535316 0.09336065 0.024758764 0.46556878 0.833858 0.12792438 -0.1270844
0.347844 -0.317041 0.5646505 0.030966545 -0.07841785 0.17086522 0.47525278 -0.6214628
-0.25138703 -0.10999244 0.008485056 -0.0055044573 -0.07945025 -0.039253708 -0.048756555 0.031137336
0.11331346 -0.033408917 -0.09024458 -0.102167584 0.080442846 -0.0067757163 -0.19671981 0.09299706
0.113599196 0.05173355 -0.0108329775 0.008257206 -0.06472718 -0.001739981 -0.2254145 0.1569367
0.07590102 0.1380407 0.14903635 0.014060648 0.055357438 -0.024608778 -0.07108458 0.040007755
0.046095964 0.081997365 0.03712712 0.042746846 0.060203634 -0.03931307 -0.039218776 0.041229613
0.08860647 0.013753705 0.020049667 -0.052807305 0.0076107057 0.009392769 -0.04514959 0.09761651

net.0.bias f4 [128]
00000000: 6e42 d2bd 07f1 c2bd a5b0 66bd 9513 c9bd
00000010: dfc9 25bd a718 14be 6ef7 56bd d4b0 9bbd
00000020: 85be 213e 3733 d4bc dc3c acbd 4b7d aabc
00000030: a875 023d 4482 66bd 3db5 25ba e23e f6bd
00000040: a429 05be ad8a d4bc 4945 c3bd 2b9e fabd
00000050: 9e0e 5e3d fc85 693c 58cd 00be 4746 263e
00000060: d9e9 98bd 8337 96bd 0305 033d 142d fc3d
00000070: fdc5 7abd 2bac 183e 8588 973d 692f 013e
00000080: b6e3 593d bb3f d139 a5ad 04be b716 0cbe
00000090: 61df 973d 1ef8 953c 8024 98bd a630 c23d
000000a0: 0793 2d3c d4ba a83d 8aba f0bd 4092 04bd
000000b0: 3951 47bc 9cd3 88bc 04b9 f93c 6171 01be
000000c0: 1a41 87bd fad2 0abe 8e0d 16bd 7eb2 e33c
000000d0: 9759 22bc f3a2 a6bd e74c 24bd 4c0f 16bd
000000e0: d7c2 1dbe 7da2 ae3b 9426 10be 8dd2 2d3c
000000f0: aebd 613d 140d d3bb 0485 103c 17ab a23c
00000100: a002 89bc c221 e0bd b034 6e3d 3100 19be
00000110: 23f9 2abd 4da6 bb3e b780 e43d 1ffd 123e
00000120: 8626 80bc b4f9 c73c 5002 84bc 5fae 733d
00000130: 072b 023e 8f13 8cbd 33d2 69bd 0edc a8bd
00000140: c5b0 173d 5678 aebd b069 4e3d 7a1e f0bc
00000150: 9fc3 de3d 9b46 753d bd86 573d 0734 0a3d
00000160: 65ee ddbb fc46 d1bd a5a6 94bd cfe8 303e
00000170: 3c1f d5bd 3b8d 833d 7647 133d e08e af3d
00000180: 8c6f b93d 8d40 3d3d 04c7 00be 5df4 c1bc
00000190: 9665 fe3d c9c0 053d 8ba7 a0bd 0ad9 d33d
000001a0: c3dc c33d ce02 b8bd b362 6abd 0901 cebd
000001b0: 0162 3dbd f726 0cbe f938 073d 0779 c4bd
000001c0: 9208 fd3d 188e 163d 6ba1 763d ff46 9cbc
000001d0: bfb4 663d b680 0e3e a7c6 9bbd de21 a03d
000001e0: 5e44 833c 3250 ecbc 5c16 fe3d 0fe2 963d
000001f0: d1dd e63d 4bab 383d bb4f 5bbc 6b9b f6bc
-0.10266577 -0.095186286 -0.056320805 -0.09818188 -0.040475722 -0.14462529 -0.05248206 -0.07602087
0.15795334 -0.025903327 -0.084100455 -0.020811697 0.031850487 -0.056276575 -0.0006321257 -0.12023713
-0.13004166 -0.025945032 -0.095346995 -0.122371994 0.05421316 0.014253136 -0.12578332 0.16237746
-0.07466478 -0.07334807 0.0319872 0.123132855 -0.061223973 0.14909427 0.07399086 0.12615742
0.053195678 0.0003991107 -0.12956865 -0.1368054 0.07415653 0.018306788 -0.07428837 0.09481935
0.010594136 0.0823876 -0.117543295 -0.032366037 -0.012165361 -0.016702466 0.03048373 -0.12640907
-0.06604214 -0.13557044 -0.03663402 0.027795073 -0.009909055 -0.08136549 -0.040112402 -0.036635682
-0.15406357 0.0053294287 -0.14077216 0.010609281 0.055112533 -0.006440768 0.008820776 0.019856973
-0.016724885 -0.10943939 0.058155715 -0.1494148 -0.0417415 0.36650315 0.11157363 0.1435437
-0.01564337 0.02441106 -0.016114384 0.059492465 0.12711726 -0.06839668 -0.057085227 -0.08245097
0.037033815 -0.08519046 0.05039376 -0.029311407 0.108771555 0.059881788 0.05261873 0.033741023
-0.0067728036 -0.10218617 -0.072583474 0.1727631 -0.10406348 0.06423422 0.035956822 0.08572173
0.09054479 0.04620414 -0.12575918 -0.023676092 0.1242172 0.032654557 -0.07844456 0.10344131
0.09563591 -0.0898491 -0.057223033 -0.10058791 -0.046236042 -0.13686739 0.033013318 -0.09593397
0.1235515 0.036756605 0.060212534 -0.019076822 0.056324717 0.13916287 -0.07606249 0.0781896
0.016023811 -0.028846834 0.124066085 0.07367336 0.11272777 0.045085233 -0.013385708 -0.030103406

net.2.weight f4 [5, 128]
00000000: f8de 253d 9b60 183f 2241 e63e 0cdf df3e
00000010: c276 09bd a10a ec3c 45fc d7bc d1a3 96bc
00000020: df45 103f 9003 6bbd 4ef3 f43e 61bf 423f
00000030: c7dc 1e3f 0df9 1a3f 49ca 1dbd 58d3 b6bd
00000040: 1718 863c f205 293f 0b57 22bc 1659 293d
00000050: 6356 583f 0635 7cb9 7439 18bd 4e83 95be
00000060: ed73 183f 3cf0 3dbd 4917 46bd 4bf8 073e
00000070: 703e 7dbc 0d8b c53e 1db3 1d3e a7cc 6b3d
00000080: c4e8 2c3f 5f93 6a3c 69d5 bdbb 915a 80bc
00000090: 5b1a c6b9 35f8 b83e e9ec 22bc 3a79 2e3f
000000a0: 60f0 b73e afeb 133f adc5 b23c 5a99 293e
000000b0: f413 0abd 5dc1 093f acb7 f03e d116 e7bc
000000c0: 4876 923e 5476 eebc aa83 ae3c fa9c 493f
000000d0: 6f02 423d 7d0a 59bd 06fa 063f 49a7 583f
000000e0: b65f 573f eb78 863e 0e5b 9b3d 46f6 4d3c
000000f0: 44eb 333e 1659 a33e 4fd0 053e 1ff6 62bc
00000100: cb62 083f 2a2f 92bb 151f 1c3f d5a3 113b
00000110: a737 443f 221c 40bf 00f1 353f 5b1f 403f
00000120: 8639 e7bc 62ec 033f 007a a7bd ba30 a33e
00000130: 006d 223e 46c2 b5bc f16d d53e 4522 6bbd
00000140: 5e25 a7bd 15f5 53bd a8ec a13e bc4a 28bd
00000150: 3519 e83e a007 103f c706 4d3e 15c8 6dbc
00000160: 3a3c 153e f01b c73b 5fc5 8ebe c822 14bf
00000170: 62da b23c 2aa7 8b3f 38ae a63e c5cf b63e
00000180: b863 f93e e675 29bd 7871 01bd 3dce 163f
00000190: 6d8f 6e3e 400f 9b3e 322f 973d 7c5a 103f
000001a0: fa51 733d 2db0 21bd dcdf 1abd 9eb0 9c3d
000001b0: 3a6a 42bd caae a2bd ed9f 443f 0a17 9fbd
000001c0: ebb1 2c3f 7864 793f ca47 613f 59eb b93d
000001d0: e4d8 cb3e 595c 6bbe f5da 5f3c 990f 003e
000001e0: 9acf 863e 77d2 d8bb a121 f6be e94f 90be
000001f0: f187 2c3f 0ddb b53e 17ad c33c 9d99 c93e
00000200: 088d 1b3d 22a3 a3bd bbac 26be e4f1 fabd
00000210: 07d6 893d 140e 2a3d 9c61 4c3d c942 a53d
00000220: abc3 47bd 482a 5b3d 84c2 32be 6f96 9c3c
00000230: b434 da3b 2701 0f3d c22c 203d e3c6 9c3c
00000240: 2bb3 e03d 0f34 29be 87ee 373c a669 57bc
00000250: 42fa efbe 5bcc ebbc 129d 54bd 8c73 c2bd
00000260: 8e08 d3bd 2dff ef3b 6a69 51bd 7743 73be
00000270: 0e3c 91bc 4e96 dbbe 9878 e9be d518 933e
00000280: f367 f2bd a210 a2bd c464 1e3d 2eed d63c
00000290: 90b1 3c3e cb06 12bd a5c3 843d abd8 62be
000002a0: 5d56 4dbd 448e a2bd 2ea4 e8bc 0db4 6b3e
000002b0: 7a71 033d bdfc aa3d 2973 ea3c ede7 9ebd
000002c0: 59be f0be a3c8 973d d5cd f03c 3d0e 9fbe
000002d0: 3dbe 18be 5b1f 833d 5b04 3dbe 5208 85be
000002e0: 5ea2 b5bd 361a 5b3e 93e6 8c3b 72c0 233d
000002f0: c688 72bd d085 fc3d ac21 203e 27f2 b53c
00000300: 6537 60bd 27cc d73c d18f 94be b30d 113d
00000310: 69d2 bcbe 5b46 3b3f 7d7d bdbd e372 32bf
00000320: c3f3 2c3d 33e5 8fbe e42a dbbc 5da5 b6be
00000330: 6c38 86be 314b 913c b387 243e d776 363d
00000340: ca84 07bd 4c09 50bd 3939 fbbe b17f 3fbd
00000350: c3d4 c0be 5f82 60be 754b 75be 0654 c73c
00000360: 633a c53d cd7e e9bb 46c9 af3e 97aa e93e
00000370: 4c2d 6d3c d681 16bf 9abf 94be e387 8ebe
00000380: 4209 97be 741f 5abd 56da f8bb bcca 4dbe
00000390: ee34 e8be 729a 1a3e ac00 9c3c 4623 24be
000003a0: d5c8 f13d 27bb 6c3d fdb6 0bbd 3c3a 9a3d
000003b0: 4696 70bc fba1 d33d 6f89 5cbe a209 6ebc
000003c0: a2c4 b6be ae47 97be 3c71 42be 23de d03d
000003d0: 2505 73be 6877 b13e e02b 803d 115d a33e
000003e0: 4248 8e3c 4d48 c33c 3312 cf3e 8d31 24be
000003f0: 773d 97be fb6c ccbd 2e4f 043c d21f 0dbc
0.040495843 0.5952241 0.44971567 0.4372486 -0.033560522 0.028813662 -0.026365409 -0.01838866
0.56356615 -0.057376444 0.47841877 0.7607327 0.6205563 0.6053627 -0.038522992 -0.08927029
0.016368909 0.66024697 -0.009908448 0.041344725 0.84506816 -0.00024052346 -0.037164167 -0.2920174
0.5955189 -0.046371683 -0.04836205 0.1327831 -0.015456781 0.3858265 0.15400358 0.05756822
0.6754267 0.014317363 -0.0057932627 -0.015668185 -0.0003778514 0.36126867 -0.009944179 0.6815373
0.3592558 0.577815 0.021822775 0.16562405 -0.033710435 0.53810674 0.4701513 -0.028209122
0.28605866 -0.029109158 0.021303017 0.7875515 0.047365602 -0.052988518 0.52725255 0.84630257
0.8413042 0.26264128 0.07585727 0.012570923 0.17570215 0.31903905 0.13067745 -0.013852625
0.53275746 -0.004461189 0.6098493 0.0022222896 0.7664742 -0.7504293 0.7107086 0.75047845
-0.028225671 0.51532567 -0.081775665 0.31873113 0.15861893 -0.022187363 0.4168544 -0.05740573
-0.08161424 -0.0517474 0.31625867 -0.041086897 0.4533173 0.56261635 0.20022117 -0.014513035
0.14573756 0.0060763285 -0.27884957 -0.5786557 0.021832649 1.091039 0.32554793 0.3570539
0.48708892 -0.041372202 -0.031602353 0.58908445 0.232969 0.30285072 0.07382049 0.5638807
0.05940435 -0.039474655 -0.037811145 0.076508746 -0.047464587 -0.079434946 0.7680653 -0.07768066
0.6745898 0.9741893 0.88000166 0.09078092 0.39813912 -0.22984447 0.013663043 0.1250595
0.26330262 -0.0066168862 -0.48072532 -0.28185967 0.6739493 0.35518685 0.023886247 0.3937501
0.037976295 -0.079900995 -0.16276829 -0.12253168 0.067302756 0.041517332 0.049897775 0.08069379
-0.048770588 0.05350712 -0.17457014 0.019114701 0.0066591147 0.03491321 0.039105184 0.019137805
0.109716736 -0.16523765 0.011226303 -0.013147747 -0.4687062 -0.028783968 -0.051907606 -0.09494695
-0.10304366 0.0073241205 -0.05112592 -0.23756205 -0.017728832 -0.4288811 -0.45599818 0.28729883
-0.11836233 -0.07913329 0.038670316 0.026236143 0.1842711 -0.03565101 0.06482629 -0.22152965
-0.05013119 -0.07937291 -0.0283986 0.23017903 0.03209064 0.08348987 0.028619366 -0.0775908
-0.47020224 0.07411315 0.029395023 -0.3106555 -0.1491632 0.06402465 -0.18458693 -0.2598291
-0.0886886 0.21396717 0.0042999475 0.039978452 -0.05921247 0.1233021 0.15637845 0.022210194
-0.05474033 0.026342465 -0.29015973 0.035413455 -0.3687928 0.7315423 -0.092524506 -0.69706553
0.042224657 -0.28104553 -0.02675385 -0.35673037 -0.2621492 0.01773605 0.1606739 0.04454693
-0.033085622 -0.050790116 -0.49067095 -0.046752635 -0.37662324 -0.21924733 -0.23954566 0.024332058
0.09630277 -0.0071257115 0.34333247 0.45637962 0.014476132 -0.58791864 -0.2905243 -0.27838048
-0.2949925 -0.053252652 -0.007594387 -0.20096868 -0.45352882 0.15097979 0.01904329 -0.16029081
0.11805884 0.05779567 -0.034110058 0.075306386 -0.0146842655 0.1033363 -0.21536802 -0.014528664
-0.35696894 -0.29546875 -0.18988508 0.10198619 -0.23732431 0.34661412 0.062583685 0.31906942
0.01736844 0.023838187 0.40443572 -0.16034527 -0.2953908 -0.09981724 0.0080755185 -0.008613544

net.2.bias f4 [5]
00000000: 6b14 82be 9436 423e e8a1 04be 42db 34bd
00000010: 0916 183e
-0.25406203 0.18966132 -0.12952387 -0.044154413 0.14852156
