checkpoints/frogger_policy_0.78.pt (torch, 51797 bytes, 4 tensors)

net.0.weight f4 [128, 90]
000000 93 75 e3 bc 68 6a 84 bc e0 84 44 bd c7 99 b6 bd
       -0.027766025 -0.01616402 -0.047978282 -0.089160495
000010 ba 0f 1f 3d f4 79 47 3e f3 73 35 3e a1 8f cc 3e
       0.038833357 0.19480115 0.17720012 0.3995333
000020 90 b6 60 3e ff 0e a4 bd 4f 61 58 3e 54 59 37 3e
       0.21944642 -0.08010673 0.2113087 0.1790517
000030 73 60 db 3e d6 e2 d6 3b 33 1d 76 bd 1b cb ca bd
       0.42847022 0.0065578027 -0.06008644 -0.099020205
000040 43 8b c3 3e 72 90 fe 3e 96 5f ed bd 7c 7a 22 3d
       0.38192186 0.49719578 -0.11590497 0.03966759
000050 ec fb 56 bd ef 21 93 be d1 ab 39 3e 7a 8a 90 bd
       -0.052486345 -0.28736827 0.18131949 -0.07057662
000060 7e b6 66 bd 34 e4 93 bd 4f c0 0e 3d c4 30 79 be
       -0.05632638 -0.07221261 0.03485137 -0.24335009
000070 7e b0 db 3d a9 9c 1a 3d 24 ac 61 3d 79 90 7b bc
       0.107270226 0.03774706 0.055095807 -0.015354269
000080 a4 94 52 bd 6c 9f 68 bd 37 36 5b 3d 82 9a 00 3e
       -0.051411286 -0.05679266 0.0535185 0.1255894
000090 a2 46 21 3d 19 e0 26 3d 3d 17 87 3d 1d 29 49 be
       0.039374 0.04074106 0.06596229 -0.1964459
0000a0 53 79 56 bf 3d d4 7e 3e 7e ac db 3d 96 a0 08 3e
       -0.83778876 0.2488565 0.1072626 0.13342509
0000b0 3a 0e 36 3e 8b 1f 44 3d 0a 19 a2 bd 30 63 29 3d
       0.17778865 0.047881644 -0.07914932 0.04135436
0000c0 61 e2 cb 3c 0e 29 ae 3d 96 1a 1f 3e d0 27 71 3e
       0.02488822 0.08503924 0.15537485 0.23550344
0000d0 88 28 8c 3e 41 cf 4f bf 23 6f b6 3d b3 c8 8a 3d
       0.27374673 -0.8117562 0.089079164 0.067765616
0000e0 a9 89 59 bd 1d 1f c5 3d 75 1c d5 bc 78 f2 93 3c
       -0.0531098 0.09625075 -0.026014546 0.018059954
0000f0 65 a1 1d bc 8c 9d 1a 3e cf 11 fe 3b 3a 86 94 3d
       -0.009620999 0.15099162 0.007753588 0.07252164
000100 54 a9 36 bd b5 5c 13 3d 7b 34 93 3d 92 b5 a8 3c
       -0.044595078 0.035977084 0.07187744 0.020594392
000110 e8 2e 15 bd 10 5a 62 3d 9f 32 1b bd 88 78 04 3d
       -0.036421686 0.05526167 -0.037890073 0.03234151
000120 a5 0c 7c 3d 77 f2 9e bd 96 d5 a4 bd 1d ab 5e bc
       0.061535496 -0.0776109 -0.08048551 -0.013590601
000130 90 ee df bc 6e 94 92 ba 2c 8e d0 3d da 3b a5 3d
       -0.027335435 -0.0011183152 0.10183367 0.080680564
000140 c2 73 8a 3d 7d 8f 51 bd 42 fe 36 3d 02 27 63 3d
       0.0676036 -0.05116223 0.044676073 0.055457123
000150 0d a8 cf 3c bd 04 af bd 14 3e 8b bd 46 c7 70 3d
       0.025348688 -0.08545826 -0.0679895 0.058783792
000160 21 42 9a 3d e5 f1 c0 bd b0 b5 6b bc a8 eb b1 bc
       0.07532144 -0.09421138 -0.014386579 -0.021718815
000170 14 5d cf 3d cc d6 c5 bd 70 d7 9e 3d fc 30 02 bc
       0.10125175 -0.0966011 0.07755935 -0.007946249
000180 bd e8 27 bc f1 13 99 bd 3c 9d 2f 3c 35 c7 3b bd
       -0.01024836 -0.07474507 0.01071864 -0.045844276
000190 83 a1 c0 3d 02 11 b1 3d 07 1b a4 b9 17 93 e7 bc
       0.09405806 0.08645822 -0.00031300655 -0.02826838
0001a0 0d 00 72 bd 58 92 58 3b fb 13 59 3b c6 98 8e 3c
       -0.05908208 0.0033046212 0.0033123482 0.017406832
0001b0 80 58 d9 bc ab c8 8e bd 7a 18 b2 3c 23 94 9b 3d
       -0.026531458 -0.06971868 0.021740187 0.07596614
0001c0 ff 86 f7 3b f1 27 64 bd 52 a2 a8 bd fc 51 5d bd
       0.0075539346 -0.055702154 -0.08234085 -0.054033265
0001d0 4b e0 95 bb 82 d2 21 bd fb 5c 41 3d f5 b3 11 bb
       -0.004573857 -0.039507397 0.047207814 -0.0022232507
0001e0 9b 20 d0 bd 21 31 93 bd ba aa 2d bc 89 36 b1 3c
       -0.10162469 -0.07187105 -0.010599786 0.02163245
0001f0 0b a9 7b 3d 29 59 ac 3d 59 fa 98 3c b6 bc 3e 3d
       0.06144051 0.084154435 0.018674063 0.046566688
000200 a8 2a 2b 3d 93 d1 5d bd 6f 52 7d 3c b1 80 0e bd
       0.041788727 -0.054154944 0.015461548 -0.0347907
000210 2d c6 67 bd f4 0c eb ba f9 c8 bd bd f1 a9 b2 bd
       -0.05658548 -0.0017932937 -0.09266848 -0.0872382
000220 35 87 c6 3c 73 02 87 3c b0 2e c2 bd 48 fa 42 bd
       0.024234394 0.01648066 -0.09481561 -0.047601968
000230 75 75 a2 bd 0a f9 d0 bd c6 0d a6 bc 9a 62 bf bd
       -0.079325594 -0.102037504 -0.02027024 -0.09344979
000240 3a 6d 44 3d a0 4b 5e 3d ca 2a 7c 3c 7a e3 8f 3a
       0.04795573 0.05427134 0.015391061 0.0010977827
000250 b8 16 68 3c 86 4f b2 bd 94 0f 6b bd b6 1d b5 bd
       0.014165573 -0.08706574 -0.057387903 -0.088435575
000260 7d ab 97 bc c3 dc 93 3a 2a f0 1a be 75 27 06 bd
       -0.01851439 0.0011281002 -0.15130678 -0.032752473
000270 56 b6 c7 3d f0 b1 07 bd 92 5c a2 3d 07 ba a1 bd
       0.09751575 -0.03312868 0.07927813 -0.0789681
000280 9b 9b 75 bd b1 8d 1e 3d 60 60 62 bd a8 13 cb bd
       -0.05996285 0.038709346 -0.05526769 -0.099158585
000290 68 28 7d bd 09 ff 5a bd 1e 1a d7 bd fd 33 76 3b
       -0.061806113 -0.053465877 -0.10503028 0.0037567609
0002a0 10 ff 3a 3d 45 58 cd 3d 62 b1 e6 3c 26 00 e9 3b
       0.045653403 0.10026602 0.028160755 0.0071106134
0002b0 ce ad 71 bd f7 ac 2b bd 3e f1 b5 3c b8 84 1d bd
       -0.059003644 -0.041913 0.02220976 -0.03845665
0002c0 3c 4a 51 bd 54 38 b3 3d 10 e4 b9 3d 74 c6 df 3c
       -0.051096186 0.08750978 0.090767026 0.02731631
0002d0 50 de e0 3c 7a 45 14 bd 18 6a 17 bc 45 dc e3 bc
       0.027449757 -0.03619907 -0.009241603 -0.027814994
0002e0 9c 01 50 bd 82 60 5e 3c a4 8c 47 3e 6a ff 1e 3e
       -0.050782785 0.013572814 0.19487244 0.1552712
0002f0 2f a6 4d 3d b7 43 8a bc 66 e2 f3 3c 84 d5 06 be
       0.050207313 -0.016877992 0.029771041 -0.13167387
000300 a7 25 c2 3e 82 7c 8a bd 22 fa 9f bb a6 ed fa bd
       0.3791935 -0.06762029 -0.004882113 -0.12252359
000310 f0 d3 3f 3e 6d 76 86 3e d6 c7 0a 3d 63 cb b6 3c
       0.18733191 0.26262227 0.033881985 0.02231378
000320 c2 90 85 bd d7 a4 99 3c 1a 69 32 3f 39 9c 1a be
       -0.06521751 0.01875536 0.6969162 -0.15098657
000330 4f 9d a6 bd 06 ec 06 3e 1b b7 92 bd 47 65 ac be
       -0.08135473 0.13175973 -0.07163831 -0.33671018
000340 22 74 4f be f2 f5 99 3b e5 97 18 3d f3 61 8f bd
       -0.20259145 0.0046985084 0.037254233 -0.07001104
000350 d9 e7 f0 3c ff f0 a5 3d d4 69 f6 bc b9 83 22 bd
       0.029407429 0.08102607 -0.03007976 -0.0396764
000360 26 62 4a 3d 4e 91 42 3e af c1 e8 bd 22 40 89 bd
       0.049410008 0.19000742 -0.11365067 -0.067016855
000370 7c 84 02 be 71 b6 6f 3d 41 96 7e bc df ec 91 bd
       -0.12745851 0.0585236 -0.015538753 -0.07125258
000380 d3 00 63 bc a2 ef cb bd 2a 55 63 be e0 34 0e 3e
       -0.013855177 -0.09957816 -0.22200456 0.13887358
000390 95 53 a2 bd 1e 90 5c 3e 25 01 01 be ae bd 84 bd
       -0.07926098 0.21539351 -0.12598093 -0.06481491
0003a0 86 ac 8a 3d dd 69 69 be 61 1a b5 bd 8e c7 cc bd
       0.067711875 -0.2279429 -0.08842922 -0.099989995
0003b0 96 cb c3 3d 1f d4 d7 bd 28 ea 82 bd 5d d1 b2 bd
       0.09560315 -0.10538506 -0.06392318 -0.08731339
0003c0 4a dc 2c bc d3 5a 05 bd 65 6a 6e bd 50 d7 aa bd
       -0.010550568 -0.03255732 -0.058206934 -0.08341849
0003d0 fc bf 5f bc b3 a8 2b 3c db 61 be bd 0f 43 43 3d
       -0.0136566125 0.010477233 -0.09296008 0.047671374
0003e0 df 9b 35 3d ad c4 92 bd f5 2c 8a bd 6b a7 cd 3d
       0.044338103 -0.07166419 -0.06746856 0.10041698
0003f0 e5 7f b5 3d 2f a5 3d bc d7 fd 67 3c e0 9d 86 3d
       0.088622846 -0.011575027 0.014159641 0.06573081

net.0.bias f4 [128]
000000 6a 4d 0d 3d 56 c7 a5 bd 1d f5 1c be af d1 70 bd
       0.034497656 -0.08094661 -0.15327878 -0.05879372
000010 85 d0 87 3d ad 62 e3 3d 44 53 2d be 39 06 4e 3d
       0.06631569 0.11102805 -0.16926295 0.050298903
000020 f5 74 98 3d 24 81 ad 3d a4 3c 01 be b1 ad 95 bc
       0.07444183 0.08471897 -0.12620789 -0.0182713
000030 d2 9e 92 bd 0f 14 8a bd f7 5a ef bc 0d 8c 06 bd
       -0.07159199 -0.06742107 -0.02921818 -0.032848407
000040 ab 51 0c 3d ec aa 12 3d f3 a4 ed bd 1c f4 bc bd
       0.034257572 0.035807535 -0.11603727 -0.09226248
000050 34 9e 6e 3d 7d d1 b3 bb d2 09 c4 3d 9e c9 1c be
       0.058256343 -0.0054876194 0.095721856 -0.15311286
000060 9a 83 0c be 72 92 34 3c 23 7a 88 bd 99 c0 c7 3d
       -0.13722077 0.011021243 -0.06663921 0.09753532
000070 b1 7c 61 3d 41 f9 cd 3d 9a 76 a3 bc 14 c9 e3 bc
       0.055050556 0.10057307 -0.019954015 -0.027805842
000080 78 5b 1e 3d b0 a3 1f 3e d4 4a df 3d c2 9a 65 bc
       0.03866145 0.15589786 0.10902944 -0.014013948
000090 b0 b1 8b bd 70 ae 56 3e 88 a2 fd bb 0d c4 8a 3d
       -0.068210006 0.2096498 -0.0077403225 0.06775675
0000a0 c0 41 e5 bd 4a ef ac bd bc 74 1b 3d 63 7d 1f be
       -0.111941814 -0.08444078 0.037953123 -0.15575175
0000b0 c5 73 9a 3d c5 8b ca 3a 8d ac 0e bd 16 23 d8 3b
       0.075416125 0.0015453032 -0.034832526 0.0065959794
0000c0 46 3a a3 bd f0 85 c0 bd 3e a5 91 3d 1f 04 1a bd
       -0.07970099 -0.094005466 0.071115956 -0.037601586
0000d0 eb bd 09 be c6 ee 84 3d c0 2c 2d be 16 bb 0c bd
       -0.13451354 0.06490855 -0.16911602 -0.034358107
0000e0 92 58 e9 bc 67 2b 7f bd 84 b7 63 3d 22 ec a6 3d
       -0.028484616 -0.06229725 0.055594936 0.081505075
0000f0 48 03 a6 b7 66 7a 08 bc c6 d6 52 bb a2 f0 ba bb
       -1.979027e-05 -0.008329963 -0.0032171472 -0.005704955
000100 71 e3 57 39 ec 16 b6 3d d3 c7 fc bc 73 53 3a 3c
       0.00020588726 0.08891091 -0.030857002 0.011372435
000110 d6 37 8c bd 7e 2b 30 3b 21 64 ae 3d 13 5e 02 3e
       -0.06846587 0.0026881392 0.08515192 0.12731199
000120 13 7c 8a bd 39 50 8a 3d ff b1 14 3c d8 56 12 3e
       -0.067619465 0.067535825 0.009075641 0.14290941
000130 14 8a e3 bc 8c ac bc 3d 84 3e 28 bd 22 8f f6 3a
       -0.027775802 0.09212598 -0.041075245 0.0018810967
000140 a4 51 40 bd a5 ee 52 ba 23 c9 e4 bd 29 7c 20 3d
       -0.04695286 -0.0008046425 -0.11171176 0.03918091
000150 a2 ff 00 be 46 9b 24 be 71 a4 8b 3c 9b b2 8a 3d
       -0.12597516 -0.16074857 0.017046185 0.067723475
000160 a6 5e 0d bb 73 54 8b 3d cd 1b 02 3e ac 0c 05 be
       -0.0021571307 0.06803217 0.12705918 -0.12993115
000170 58 a5 87 bd db a0 9e 3d a8 31 92 3b ae ae 07 be
       -0.06623334 0.077455245 0.004461486 -0.13250229
000180 fb 6a 00 be ed fa e7 bc a2 3f 02 bd 30 c1 11 be
       -0.1254081 -0.028317893 -0.031798966 -0.14233851
000190 f3 fb c3 3d f0 1f 23 be 08 a0 ff bd 59 b8 ef bc
       0.0956954 -0.15930152 -0.124816954 -0.029262709
0001a0 ae ef 9b bd 9c cc 9d bd 7a 94 8a 3d fd 6a 43 3d
       -0.07614075 -0.07705042 0.06766601 0.047709454
0001b0 58 a0 ed 3d f1 79 a8 3d 1f a7 0a bd 46 f6 ec bd
       0.11602849 0.082263835 -0.033850785 -0.115704104
0001c0 ec 26 23 bd df 33 c4 bd 16 d8 e0 bc 7e 91 04 be
       -0.03983204 -0.09580206 -0.027446788 -0.12946126
0001d0 17 0f 9a 3d 74 ea f2 bc 08 e1 b9 3c 77 16 1b be
       0.075224094 -0.029652812 0.022690311 -0.15145288
0001e0 8b 4d fa 3d 44 4b c0 3d 8f 08 ff 3c 97 0d 7d 3c
       0.122218214 0.09389356 0.03113201 0.015445135
0001f0 80 c5 f4 bd fe 08 98 3d fb 23 1e 3d 03 38 08 3e
       -0.11951733 0.0742359 0.038608532 0.13302617

net.2.weight f4 [5, 128]
000000 42 66 ca 3e 9b 17 53 bd 63 61 a0 3c 1f 23 5b bd
       0.39531142 -0.051536184 0.019577688 -0.05350029
000010 1d 90 f0 be 13 73 1c 3d d6 f6 5c bc 2a 1a 8d 3f
       -0.4698495 0.03819568 -0.013486585 1.102361
000020 ed 32 e2 3e 9e 7c f9 be fd 42 3f 3d ac 6c a2 3d
       0.44179478 -0.48727888 0.046694744 0.07930884
000030 30 60 c6 3d e8 75 7e 3f 5f aa c2 3e 6e 00 33 be
       0.09686315 0.9939866 0.38020608 -0.17480633
000040 88 8f 6f 3f 0c f1 a6 3e 35 c7 6c b9 94 a5 6d bd
       0.93578386 0.3260578 -0.00022580924 -0.058019236
000050 49 b5 de be 67 4a 2c 3d 47 c0 1f 3f be 49 15 bd
       -0.43497685 0.042063143 0.62402767 -0.03644728
000060 d7 cd 48 bd f1 03 86 3f e3 3f 9a 3c 8d a5 78 be
       -0.04902443 1.0469953 0.018829292 -0.24281903
000070 9f a2 c8 3b 30 a4 2b 3f 8d 54 8e 3e 0f 52 8a 3d
       0.0061229016 0.67047405 0.27798882 0.06753933
000080 66 b4 50 3f b9 9a d1 be b6 f6 b4 3e e0 bd 32 bd
       0.81525266 -0.40938357 0.35344476 -0.04363811
000090 24 33 1f bd aa da f3 be c5 a3 c2 3e b2 39 b7 3e
       -0.03886713 -0.47627765 0.3801557 0.35786206
0000a0 26 66 4e 3c 5c 59 00 bc 82 ab 8f 3c e2 e3 0a 3e
       0.012597596 -0.007833805 0.017537836 0.13563493
0000b0 68 65 a7 3e 03 0b fc 3e e3 45 be 3e 79 67 0f 3f
       0.32694554 0.4922715 0.37162694 0.5601726
0000c0 a6 19 51 bd 3a f6 90 bc ba 26 02 3f 9e 05 a7 bb
       -0.05104985 -0.017695535 0.5084034 -0.005097105
0000d0 e6 83 3f 3c 25 fb f5 3e 18 0f 9c 3b e3 21 54 3f
       0.011689162 0.4804317 0.0047625415 0.8286421
0000e0 32 9c d3 3c 23 f3 53 3c 15 11 c6 be 7b 1f ab 3e
       0.025831316 0.012936386 -0.38684908 0.33422455
0000f0 c8 95 c1 3d 03 8d 03 3f 4e 04 c5 b8 cf 9a 82 3d
       0.09452397 0.5138704 -9.394494e-05 0.06377184
000100 d8 54 46 bc f7 ae c6 3e b0 45 0a 3e b5 5b 80 3d
       -0.012105189 0.38805363 0.13503146 0.06267492
000110 eb f4 f6 bd c5 21 63 3c 5d a2 81 3e bd bf 37 3f
       -0.12058433 0.013863032 0.25319186 0.71776944
000120 a5 8a ce bc 26 e3 cd bb 24 50 1b 3f c0 e0 4a be
       -0.025212595 -0.0062831817 0.6066916 -0.19812298
000130 f6 1d d0 3e c0 62 31 3f 75 07 5d bd 40 b6 57 3d
       0.40647858 0.69291306 -0.05396219 0.05266404
000140 9c a4 e4 ba 81 e9 36 3f 56 77 59 3a 68 e9 80 3f
       -0.0017444077 0.7145005 0.00082956755 1.007123
000150 39 88 d7 b9 21 21 58 bd 6b d6 1b 3f 01 71 e1 3e
       -0.0004110949 -0.05276597 0.6087405 0.44031528
000160 f2 92 e5 3d 22 27 b8 be 2e f7 18 3f 44 2d 12 bd
       0.11209668 -0.35967356 0.59752166 -0.0356877
000170 68 c2 f0 bc 21 61 fd 3e ac 93 5c bd 13 25 99 bd
       -0.029389575 0.49488166 -0.05385177 -0.074777745
000180 11 ee fd 3e 21 ee 04 3f a8 f4 08 3f a7 10 1d 3d
       0.49595693 0.51925856 0.53498316 0.03834596
000190 d1 2c 90 3f 77 62 20 bd 89 52 19 bc bb 81 f0 3d
       1.1263677 -0.039156403 -0.009358057 0.11743494
0001a0 bf c0 70 bd 82 fd 80 3e ee aa fb 3e 9a 95 26 be
       -0.058777567 0.2519341 0.49153847 -0.16268006
0001b0 00 ba f9 3e cc 41 c8 be b3 98 69 3e 7e fa 37 3d
       0.4877472 -0.391127 0.22812156 0.044916622
0001c0 c9 1b 42 3e 86 8e 39 bd c4 7f 85 bc d8 07 33 bc
       0.18955912 -0.045301937 -0.016296275 -0.010927163
0001d0 ec 7b 25 be cd 78 76 bd a0 a9 ec bb a6 de 55 3f
       -0.16160554 -0.0601738 -0.0072223693 0.8354286
0001e0 b7 98 e4 3e 3d e3 e9 3e 0d 8e f1 3d 25 a1 1a 3f
       0.44647762 0.45681182 0.11794672 0.6040214
0001f0 5e 09 ba bc 8c 7c c3 be 8a 65 a6 3d 30 5b 67 3d
       -0.022709545 -0.3818096 0.08124836 0.056483448
000200 2c 17 00 be 7a 5d 24 3d 58 6e 28 be 66 ef 2b bd
       -0.1250884 0.04012821 -0.16448343 -0.041976355
000210 47 b0 61 3e f4 57 22 be d0 89 3f 3e 6b fc f5 be
       0.220399 -0.15853864 0.18704915 -0.48044142
000220 41 7c e8 be 0e 78 e3 3d 14 8a d1 3c 22 9d 93 3d
       -0.45407298 0.11106883 0.025578536 0.07207705
000230 8f 2f fe 3c a8 72 aa be 54 57 9f be 89 e1 0d 3e
       0.031028537 -0.332906 -0.31121314 0.13855566
000240 17 52 b8 be 12 d4 d3 be b9 24 6e 3d 84 88 37 bd
       -0.3600013 -0.41372734 0.05814049 -0.044807926
000250 21 cb 8f 3e 84 66 95 3d 48 69 ed be 67 3d e1 bc
       0.28084663 0.07294944 -0.46369386 -0.0274951
000260 03 a5 0b 3d bb 26 96 be 96 ff cb 3b d9 30 3f bd
       0.034092914 -0.29326424 0.0062255366 -0.046677444
000270 24 93 b0 3c 3c 4d 47 be 04 99 74 be 5d 7c 77 3d
       0.021554537 -0.19463056 -0.23886496 0.060421336
000280 71 fe 5f be 71 18 79 3e de 30 94 3c a0 e2 ba 3b
       -0.21874405 0.2432573 0.018089708 0.0057032853
000290 dc 68 89 bc b3 f8 a0 3e 86 89 8c be 11 1a e1 3d
       -0.016773634 0.31439742 -0.27448672 0.109913
0002a0 e3 c2 86 bc b4 c8 dd 3d cc 20 60 3d f9 7e 33 bd
       -0.016450351 0.10829297 0.054718778 -0.043822262
0002b0 3b 86 2c be e8 5b de bd 98 eb 1e be 67 68 bc be
       -0.1684808 -0.108573735 -0.1551956 -0.36798403
0002c0 4c 26 e9 bd 5a c9 12 bd a2 a5 46 be 2b c3 0e ba
       -0.11384258 -0.035836555 -0.19399121 -0.00054459524
0002d0 48 e6 50 3b 70 db 82 bd bd 89 5f bd e1 5d 12 3d
       0.003187554 -0.06389511 -0.054574717 0.03573406
0002e0 30 40 c1 bd 16 12 92 bb ed 52 f7 3e 86 a9 1d be
       -0.09436071 -0.0044577224 0.48305455 -0.153967
0002f0 d5 75 a2 be ca fa be bd f0 ee 25 bd 33 22 2f bd
       -0.31730524 -0.09325178 -0.04051107 -0.042757224
000300 e0 8f a1 3b 9a 92 8b be 16 ce 4a 3d c1 34 18 3d
       0.0049304813 -0.27260286 0.049512945 0.037159685
000310 40 43 0b 3e 90 b9 a9 3a 10 9f f0 3d 38 4a 2c bf
       0.13599873 0.0012948979 0.11749089 -0.6730075
000320 e7 21 0e 3d 5d 0e 4f 3d 29 f3 16 bf be 35 eb bc
       0.0347003 0.050550807 -0.5896478 -0.02871215
000330 be cd 75 be 19 3f 1a bf 4b ad 2f 3c 51 58 21 3e
       -0.24004266 -0.6025253 0.010722469 0.15756346
000340 cd 3d 45 bc 22 89 69 be 7d 03 6f bd a0 19 03 bf
       -0.01203866 -0.22806218 -0.058352936 -0.51210976
000350 ea 1b 03 3e 5e a1 f0 3c de 1f ec be 5a 49 eb bc
       0.12803617 0.02937382 -0.46118063 -0.0287215
000360 a3 fc 6e 3d be ee 22 3e aa 4e 82 be 5d 18 14 3d
       0.058346402 0.15911385 -0.2545064 0.036156047
000370 c1 dd 8b bc 0a 3d 98 be 3d f3 c0 bd bd 41 3d 3c
       -0.017073514 -0.2973407 -0.09421394 0.011551318
000380 4b 6f 56 bc 66 53 01 bd 06 bd 9c be 5c 56 1d 3c
       -0.013088058 -0.031573676 -0.30612963 0.009603109
000390 e5 90 0f be e1 d9 aa bd 0f bd c9 3d bc 69 97 be
       -0.14020117 -0.08342338 0.09850513 -0.29572856
0003a0 9d 51 aa 3d c6 0c aa 3d 43 9e 2a be 62 7e b1 3e
       0.08316348 0.083032176 -0.16661935 0.34666735
0003b0 0d 61 a4 be 37 98 89 3e 64 5d 49 be cd 4e ab 3d
       -0.32105294 0.26873943 -0.19664532 0.083646394
0003c0 44 15 57 bd 15 20 69 bd 2f 4d aa 3c a1 93 15 bc
       -0.052510515 -0.05691536 0.020788757 -0.009129436
0003d0 2c 2a 96 bc eb 66 16 3e 7c 06 90 3c 27 0f e4 bd
       -0.018330656 0.14687698 0.017581217 -0.111357026
0003e0 84 c9 15 be a1 84 60 be 39 fd e9 bc 79 93 02 be
       -0.14627653 -0.21925594 -0.028563129 -0.12751569
0003f0 68 31 ab bd 46 b6 b0 3e 13 c4 d4 be f5 42 10 be
       -0.08359033 0.34514064 -0.41555843 -0.14088042

net.2.bias f4 [5]
000000 55 d8 34 be ce ae f7 3d 88 a1 ca 3c 2b a4 29 be
       -0.17660649 0.12093888 0.024735227 -0.16566531
000010 aa db 33 3e
       0.17564264
