checkpoints/frogger_policy_0.80.pt (torch, 51797 bytes, 4 tensors)

net.0.weight f4 [128, 90]
000000 3c f5 cd 3d 4d fd 47 3d bd 64 df 3b d8 45 9e 3b
       0.1005654 0.04882555 0.006817429 0.0048301034
000010 78 01 d1 bd 2b b9 07 3e 45 c1 e6 3e ab 3b 3d 3f
       -0.10205358 0.1325423 0.45069328 0.7391917
000020 ec 91 f3 3d 50 89 9f 3d 21 94 37 3e 1b 8f 0a 3f
       0.11893067 0.07789862 0.179276 0.5412461
000030 12 0b 2f 3f 8e 8e 27 bd f6 0d cb 3d ba f8 5f be
       0.68376267 -0.040907435 0.09914772 -0.21872225
000040 80 e9 f7 3e e6 22 ab 3e 23 7f e2 bd f5 23 b3 3d
       0.48420334 0.33425063 -0.11059406 0.08747093
000050 6f 0f 16 3e e1 69 76 be 14 d3 20 3f b4 b2 b5 3d
       0.14654325 -0.24063827 0.6282208 0.088719755
000060 7d 07 ba 3d 80 61 a0 bd 3c 2f b9 3e 33 ce 19 bf
       0.090834595 -0.07831097 0.3616885 -0.6008026
000070 15 f5 b7 3c 7d 32 d7 3d 55 16 f1 3c 0e af 38 3c
       0.022455731 0.10507677 0.029429594 0.011272205
000080 90 f3 eb 3c 13 c4 a2 3d 6b 37 b4 bb e5 d6 aa 3d
       0.028802663 0.079475544 -0.0054997704 0.08341769
000090 9e 7c bd 3d 0c b3 8f bd 9f 30 5f 3e d7 77 7e be
       0.092522845 -0.07016572 0.21795891 -0.24850403
0000a0 7f fa ce 3b 71 4e 72 bd 0f 47 f2 3c e3 59 9e 3d
       0.0063164826 -0.05915684 0.029574899 0.07731988
0000b0 71 f8 63 be 76 c2 93 3e 79 46 91 bd 45 55 f8 bd
       -0.22262742 0.288593 -0.0709352 -0.12125639
0000c0 f1 a0 eb bd 8b c9 a7 bd c5 ba 20 bb b7 9e 92 3c
       -0.115053065 -0.08192738 -0.0024525386 0.017897947
0000d0 b4 1e 7e be 1a ec 6f 3e ab cb 88 3d 9f 38 0a bc
       -0.248164 0.2342991 0.066794716 -0.008436351
0000e0 ef a0 b3 bd ba aa 0a bc d4 b7 95 bd 3a 31 96 3d
       -0.0877093 -0.008463556 -0.07310453 0.07333608
0000f0 a9 52 04 3e 44 1f dd 3c 5f aa 83 bc 1c 28 13 3e
       0.12922157 0.026992448 -0.01607245 0.1437077
000100 3e 75 b2 3c ef 89 b3 bd bf f6 b9 bd b7 3b 2e 3c
       0.021784421 -0.08766543 -0.09080266 0.010634354
000110 71 72 63 bc a6 30 8f 3d 7d af 3a 3d 6f 30 c2 bd
       -0.013882265 0.06991701 0.045577515 -0.09481894
000120 03 8d b2 bd 9f 9b b6 3d 95 14 d2 3d a3 a9 96 3d
       -0.08718302 0.08916401 0.10257832 0.073565744
000130 22 70 e2 bc 4d 39 1b 3d 26 7d b0 bd 5b d1 ce bc
       -0.02764136 0.037896443 -0.0861762 -0.025246313
000140 13 ee 90 bd 4f 47 9a bd 3d 03 77 3d 4c d0 22 3b
       -0.07076659 -0.07533132 0.060305823 0.0024843393
000150 3a 66 44 3d 5c 87 c1 bd 40 af 7f bc 42 f0 67 3d
       0.047949053 -0.09449646 -0.015605748 0.056625612
000160 76 e7 1f bd dd 56 03 3c fe 4a c4 3d eb b5 b2 3d
       -0.039039098 0.008016315 0.09584616 0.08726104
000170 10 c5 72 bd 82 96 5c 3d c1 97 e3 bc f6 12 2d 3e
       -0.059269965 0.053854473 -0.027782323 0.16901764
000180 66 b2 89 3f cd 11 f5 3d 60 a8 d5 bc 4f e2 42 bd
       1.0757568 0.11966286 -0.026081264 -0.047579106
000190 55 33 27 3d 82 3f 11 3f db fc 7a 3e 8d 19 bb 3d
       0.04082044 0.5673753 0.24510519 0.09135733
0001a0 46 0c 40 3c d5 9c 8c 3e c9 58 47 3e bd 9d 03 3f
       0.011721676 0.27463403 0.19467463 0.51412565
0001b0 76 ff 3a bd 1c 63 17 be 1b 72 35 bd c4 44 74 be
       -0.045653783 -0.14783901 -0.044298273 -0.23854357
0001c0 45 90 26 be 6f 5b 0d be 69 c8 aa bd fb 05 f9 bd
       -0.16265972 -0.1380441 -0.083390065 -0.12159344
0001d0 82 1e d7 3e 4a 59 b6 be 06 a5 2a be 5c 81 b5 3d
       0.42015463 -0.35614997 -0.16664514 0.08862564
0001e0 44 d4 f6 bc 65 eb 92 3d 34 01 25 3d a3 6c 73 3c
       -0.030130513 0.07173804 0.04028435 0.014857444
0001f0 10 b0 49 bd e5 51 e3 3d f3 6f 0c 3e 4f 7e da 3d
       -0.049240172 0.110996045 0.1371458 0.10668623
000200 6d 24 25 bf e6 ac 37 3e 91 71 05 bf 32 d2 ee 3c
       -0.64508706 0.1793705 -0.52126414 0.029152963
000210 f6 97 3e 3e e5 59 db 3d c5 23 20 3e c6 fa 1e bf
       0.18612656 0.107105054 0.15638645 -0.621014
000220 db 38 40 3e aa 97 b1 3c 26 1f b7 3d 78 7d 45 3d
       0.18771689 0.021678764 0.08941488 0.04821536
000230 18 48 69 3d 1c 04 e5 3d ef 93 bf 3d a8 01 17 bf
       0.05695352 0.111824244 0.09354388 -0.589869
000240 ef 1e 06 3e 51 4b 15 3d 9d 1a 57 3d bc 25 36 3c
       0.13097738 0.03644878 0.052515615 0.011117395
000250 76 51 7e bd fb a9 22 bc d6 aa e7 3c 1b 03 be 3d
       -0.062089406 -0.009928222 0.028279703 0.09277936
000260 f0 67 10 3d f6 32 b0 3b c6 c9 5f bd 04 cc 8f 3d
       0.035255373 0.0053771688 -0.054635786 0.07021335
000270 7a c1 3a 3d e7 c3 b1 3d 59 06 ae bd 26 e4 89 bd
       0.04559467 0.086799435 -0.084973045 -0.06732969
000280 fa af 59 bd 8a c3 44 3d 5a 38 9e 3b f6 72 ef 3c
       -0.05314634 0.048038043 0.004828495 0.029229622
000290 f2 21 9d 3d 12 21 f6 bc 67 95 c9 3d df 99 d2 bd
       0.0767249 -0.030045066 0.09842949 -0.10283255
0002a0 20 de ba bd ea e2 af 3d 49 fc b2 bd 0c 6a c6 3d
       -0.09124398 0.08588202 -0.08739526 0.096881956
0002b0 5b 01 98 3d 33 8e 0f bd a5 c1 85 3d c7 2b 46 bd
       0.074221335 -0.03504772 0.065310754 -0.048381593
0002c0 e5 5f 74 3d 3f 03 e2 bc ca e8 84 bc 23 dd ad 3c
       0.059661765 -0.027589438 -0.016224284 0.02122361
0002d0 9c 2f a9 3c 8e 6c 83 3c e5 97 a7 3d bc f6 72 bc
       0.020652585 0.016042974 0.081832685 -0.014829334
0002e0 c3 95 4c bd 10 cc 04 be d0 34 24 bf 88 ee 1f bf
       -0.04994751 -0.12968469 -0.64143085 -0.62473345
0002f0 4b 69 e5 bc 68 e3 6d bd 2b 90 42 be 69 8b 46 bf
       -0.02800431 -0.0580782 -0.19000308 -0.77556473
000300 ae 14 20 bf a8 c8 f3 bd 75 d1 08 3d d2 86 99 bd
       -0.62531555 -0.119035065 0.03340288 -0.07496418
000310 e2 6a 20 bf 55 f6 45 bf 1c 1d 2b be a6 7b 85 3d
       -0.6266309 -0.77329 -0.16710323 0.06517725
000320 c8 6d bc be f5 6f 91 be 34 ce b5 be 5a 27 b9 3c
       -0.36802506 -0.2840573 -0.35508883 0.022601772
000330 43 0a 7e bd 6e 6e cc bc 1d f6 d3 be 95 3f 1f 3f
       -0.062021505 -0.024955 -0.41398707 0.62206393
000340 7b e3 07 3d c1 2b 98 3d 11 d4 79 3c 52 e3 89 bd
       0.033175927 0.074302204 0.0152483145 -0.06732811
000350 32 8d a6 bd 0a 86 99 bd e2 b9 95 bd d6 19 9f 3d
       -0.081323996 -0.07496269 -0.07310845 0.077686
000360 0e 44 50 3e e2 a2 46 3d 9a c4 88 3e 4e 8e 27 3d
       0.20338461 0.04849518 0.26712495 0.040907197
000370 b4 1e 22 3f 0b 00 8f 3d 53 0a 2d 3d 7d b2 19 be
       0.633281 0.0698243 0.042246174 -0.15009494
000380 7f 20 d7 3d a1 7b a6 3e 20 7f 84 3d ea b3 e2 3b
       0.10504245 0.32516196 0.0646956 0.00691842
000390 18 f8 94 3e 5b 3f 74 3d de 08 66 3d 6d 96 32 3d
       0.2909553 0.059630733 0.0561608 0.04360049
0003a0 fe a3 ab 3d f7 22 25 3f b9 f0 5c be c5 d7 81 bd
       0.083808884 0.6450648 -0.21576203 -0.06339983
0003b0 8e 73 f2 bc 64 60 01 3d 1f a4 96 bd 1f 4f d7 bd
       -0.029596116 0.031586066 -0.07355522 -0.10513138
0003c0 a3 91 1e 3e c5 09 41 3e bd 34 4a 3e 59 3b 84 3e
       0.15485243 0.18851383 0.1974668 0.2582653
0003d0 b7 68 25 3e 05 cf cb bd ac 5e 68 3d 80 ba e2 bc
       0.16153227 -0.09951595 0.05673091 -0.02767682
0003e0 ff ef 5e 3c 19 06 da bc b0 90 6e 3d 17 dc c9 bd
       0.013607024 -0.026614236 0.058243454 -0.09856432
0003f0 34 30 0d 3c ab bb 52 3d bf 19 98 bd a8 9c 48 3d
       0.00861745 0.051448505 -0.07426786 0.048977524

net.0.bias f4 [128]
000000 79 34 1c 3c 96 c8 72 bd 90 3f 99 3d fc ae ce 3d
       0.009533995 -0.059273325 0.07482827 0.10091969
000010 7a 81 53 bd 8d fa ba bc 7d fa 87 3c a1 98 9c bd
       -0.05163715 -0.02282455 0.016598934 -0.07646299
000020 9a 1a 46 3e c7 d6 b0 3d 8b f4 00 be 84 e7 22 bd
       0.19346085 0.086347155 -0.12593286 -0.03977157
000030 d5 76 aa 3e ce dd 43 3d 60 c9 3f 3e a9 86 05 bd
       0.33293787 0.04781895 0.18729162 -0.032599125
000040 1f 0a 32 3e a4 aa 99 3d 12 f1 ee 3d 8b 4c 95 3d
       0.17386673 0.0750325 0.11667074 0.0728999
000050 df e6 53 bd 84 86 b7 bc 85 a3 36 bc c3 ad 4f 3d
       -0.051733848 -0.02240301 -0.0111473845 0.05070282
000060 b5 cb a4 bd a7 10 ac 3d 47 fd 42 bc 40 81 f2 bc
       -0.080466665 0.08401614 -0.011901206 -0.029602647
000070 cb f4 0d bd 14 63 ff bc 4c 2e 07 3e a9 52 4a bd
       -0.03465728 -0.031175174 0.13201255 -0.049395237
000080 a1 cf dc bc 89 a5 f9 bd 2d 9b ae bd 8d d1 31 3d
       -0.026954474 -0.121897765 -0.08525691 0.043412734
000090 0a f4 bc 3d f7 3b 1b 3e a6 70 2b bd 8f 12 cd bc
       0.09226234 0.15159594 -0.041855477 -0.025033263
0000a0 2c 96 40 3d 90 8e 13 3d b9 29 f1 bc b4 fa b1 bd
       0.047018215 0.03602463 -0.02943884 -0.08690396
0000b0 58 c3 c4 bd 2c e2 09 3d d2 a9 e0 3d 40 b3 8a 3b
       -0.09607571 0.03366296 0.10969891 0.004232794
0000c0 75 b7 bd bd 0f 4c b6 3c b6 5b 86 bd fe 57 07 be
       -0.09263507 0.022253064 -0.06560461 -0.1321716
0000d0 4e 33 2c bd c4 3a ec bd 5f ff 3f bd f6 ef c6 bd
       -0.042041115 -0.11534646 -0.0468744 -0.09713738
0000e0 93 17 c9 3d f0 e9 82 3d 0e 8d da bd 98 84 d6 bd
       0.098189496 0.06392276 -0.10671435 -0.10474509
0000f0 ff 9a 96 bd 4d 9e f1 3d 46 6b d9 bd 2e 17 08 3e
       -0.07353782 0.117977716 -0.10616164 0.13290092
000100 6e 43 5b bd 39 d3 fb bd 27 a3 fd 3d 40 73 21 bd
       -0.053531103 -0.12296147 0.123846345 -0.03941655
000110 43 11 d2 3d e8 9b a8 bc 62 86 db bd 50 d5 2d be
       0.10257199 -0.020582154 -0.10718991 -0.16975904
000120 d8 16 c9 3c dc 4e 3d bd e5 c9 b5 bd db c2 39 3b
       0.024547026 -0.046217784 -0.08876399 0.0028344903
000130 b2 e8 de 3d e0 6e 6a bd f2 93 4d bd a3 ec 2d 3e
       0.10884227 -0.057234645 -0.05018992 0.16984801
000140 d8 c1 fd b7 9b ca 9a 3d c8 59 be bb 9b c5 6e 3d
       -3.0250216e-05 0.07558175 -0.0058090426 0.05829392
000150 81 bd c4 3d ca 0a 9a bd d1 c0 98 3d 60 88 0a bc
       0.096064575 -0.07521589 0.07458652 -0.008455366
000160 ac 59 f3 3d 44 ba 5a 3c 36 5b 52 39 58 eb 32 bc
       0.11882338 0.013350073 0.0002006114 -0.010920368
000170 b0 dd 90 bd 4b b6 ac ba 55 3a 3d bd 56 2a 0a 3e
       -0.070735335 -0.0013176886 -0.046198208 0.13492712
000180 a8 74 7a bd f7 e6 e0 bd 26 2e 05 3e e9 7f 3b bd
       -0.06114641 -0.10981553 0.13005885 -0.04577628
000190 ac da 27 3d 10 12 4a 3d 03 24 64 3d d5 99 8e bd
       0.040980026 0.049333632 0.055698406 -0.06962935
0001a0 f0 87 52 3d 91 62 1b bd 9f 9a 14 3e 47 82 8d 3d
       0.05139917 -0.037935797 0.14512108 0.06909614
0001b0 7a 10 d6 bc b5 38 9d bd fa ce 29 3d d9 ef 9c 3c
       -0.026130904 -0.07676832 0.041457154 0.019157337
0001c0 41 24 f0 3d d1 4b 86 3d 1f af b0 bd 3c a1 23 3b
       0.11725665 0.065574296 -0.08627152 0.002496793
0001d0 6d 59 09 be 03 79 8f bc 73 39 e7 3d 64 e6 d0 bc
       -0.1341302 -0.017513758 0.112902544 -0.025500484
0001e0 0a f4 1a bd 3d d6 e7 3d 92 0e 18 3d 5a 8a dd 3b
       -0.03783039 0.113201596 0.03712327 0.0067608776
0001f0 e0 8f e2 bd 7d 2b 64 bd 04 63 0d bd e6 a4 7d 3d
       -0.11062598 -0.055705536 -0.034518257 0.061924838

net.2.weight f4 [5, 128]
000000 41 10 e5 3e af e8 4e 3f ac b8 3d be 7b 14 c9 3e
       0.44738963 0.80823797 -0.18527478 0.39273438
000010 36 41 f1 3e ec e1 0c 3f e4 27 ac bc 80 3c 8e 3d
       0.47120064 0.5503223 -0.021015115 0.06945133
000020 fb 2f 9a be ed 1a 3d 3e da 6d 51 3d c8 69 48 3e
       -0.3011473 0.18467303 0.051130153 0.19571602
000030 88 e6 d3 3d 27 43 02 3f cc 3f 86 3f 91 c3 f4 3b
       0.10346705 0.50883716 1.0488219 0.0074696024
000040 df 64 87 be ba d5 1a 3f 36 70 46 be 59 80 c6 3e
       -0.26444146 0.6048237 -0.19378743 0.38769796
000050 d7 ef 08 3c 7f d5 0e 3f 2c 8d 0e 3c cc 00 7c 3d
       0.0083579635 0.5579452 0.00870065 0.061524197
000060 50 84 9a bc bb f8 2f 3f f5 d2 db 3e 06 62 aa 3e
       -0.01886192 0.6873891 0.42934385 0.3327791
000070 d0 71 89 3e 31 1b 5e 3e 76 3f 2d 3f 60 bb 2b bc
       0.26844645 0.2169006 0.6767496 -0.010481685
000080 f1 5e ef 3e b3 8b 3d 3a 0e bf 43 bc ed ad f2 3e
       0.46752122 0.00072305946 -0.011947406 0.4739832
000090 bd 2d 43 3f 5f 6c 70 be aa 23 bb bd 5b 54 c1 3e
       0.76241666 -0.2347884 -0.09137662 0.3775967
0000a0 5e c3 59 3f 02 57 ce be 1f a8 08 3f 84 8e 99 bc
       0.8506373 -0.40300757 0.5338153 -0.018744715
0000b0 e3 bf 03 bd 8c 16 41 3e e0 e9 3b 3e f3 57 28 bd
       -0.03216542 0.18856257 0.18350935 -0.0410995
0000c0 9e de a6 bb d0 f9 bc bd 8f 59 0b 3f 72 e2 db bc
       -0.005092456 -0.092273355 0.5443353 -0.026841376
0000d0 c0 82 f6 3e e5 92 59 bc 87 8c bf 3e ac 56 74 bc
       0.4814663 -0.013279651 0.374119 -0.014913242
0000e0 ff ba 5b 3f 5e f4 cc 3e 70 ed ef 3b bb 7f ff 3a
       0.8583221 0.40030187 0.007322006 0.0019493023
0000f0 5a 4f 61 bd 85 b1 e8 be d2 fd 13 3e b7 7a 8c be
       -0.055007316 -0.45447937 0.14452294 -0.27437374
000100 1f 30 1b 3f 34 1c 66 bd e4 d8 93 3e 91 30 8f 3d
       0.606203 -0.05617924 0.28876412 0.06991685
000110 26 ae e2 3e 68 26 ab be cf 01 66 3d 9f e0 c5 bc
       0.4427349 -0.3342774 0.05615407 -0.02415496
000120 da fc 06 3d 3a a6 76 3e 2a 9b 72 3d 6b 53 3a bc
       0.03295598 0.24086848 0.059230007 -0.011372427
000130 23 5b 5d 3f 6c 3c 42 3c 27 bf a6 be df 6a c0 be
       0.8646719 0.011855226 -0.32567713 -0.37581536
000140 b0 07 bc 3e 2a 02 fc 3e 8f 63 8b be 51 d2 93 3e
       0.36724615 0.492204 -0.27224395 0.28871396
000150 ed fa dc bd 76 4e 87 3d a1 ad 10 3f d0 83 c2 3c
       -0.10790048 0.06606762 0.56514937 0.023744494
000160 88 a7 b8 3d e2 2a c8 3d 84 f5 b1 3e 6e 2a d9 3e
       0.09016329 0.09773804 0.34757626 0.42415184
000170 1e 37 b4 3c cb ca e1 3d c5 e9 0b bd ca b5 df 3e
       0.021998938 0.11025008 -0.034158487 0.43693382
000180 11 76 f1 3c 64 3e 39 bd 1c a8 1c 3f d4 5c 81 3d
       0.029475244 -0.045225516 0.61194015 0.06316534
000190 2a 35 ec 3e 4c 20 05 3f c6 42 a2 3e 12 ba 87 3d
       0.4613431 0.52002406 0.3169157 0.06627287
0001a0 da 01 bf 3e b0 28 9f 3e 3c c9 90 3d 0a 26 a8 bc
       0.373061 0.3108573 0.070696324 -0.020525951
0001b0 55 39 fa 3e 1b a0 0f bd 70 a7 9a bd 2a 0c 6b bd
       0.48871866 -0.035064798 -0.075514674 -0.057384647
0001c0 cd 34 dc 3e 40 2d 69 be ed 1f af 3e 37 dc ec 3e
       0.43009034 -0.22771168 0.34204045 0.4626176
0001d0 ec 5d 08 3d dc 7e 78 bc 19 9d c9 3e 29 8f 1d bc
       0.033292696 -0.015166964 0.39377668 -0.009616652
0001e0 41 49 9f 3e 34 99 e5 3e 7e a2 df bd 43 5f 5e bd
       0.31110576 0.44843447 -0.10919665 -0.054290067
0001f0 be c4 49 bd 82 21 03 bf e3 39 2b bd 75 72 f9 3e
       -0.049259894 -0.51223004 -0.041803252 0.48720136
000200 71 a6 7b be c0 94 7b be 50 56 e8 3e ae 52 bd bd
       -0.24575211 -0.24568462 0.4537835 -0.092442855
000210 bc 3e 34 be 54 a8 5a be 2d 6d 22 3d 6f d4 fb 3c
       -0.17602056 -0.21353275 0.0396549 0.030740945
000220 41 4d 9d 3e ab 85 90 be 16 20 e9 bc 75 db 62 3e
       0.30723003 -0.2822698 -0.028457683 0.22154029
000230 7f 7f b7 3e 6d c9 05 be b7 4e 29 bf 38 39 79 b9
       0.3583946 -0.13065119 -0.66135734 -0.00023767806
000240 d5 fc ae 3e 44 bf c0 be 59 9b fb 3d c5 28 d9 be
       0.3417727 -0.37645924 0.122854896 -0.42413917
000250 46 c4 e9 3c 37 ab ba be 36 69 42 bc 41 11 86 be
       0.028535973 -0.36458752 -0.011865905 -0.2618504
000260 da ab 60 3c 39 cf 02 bf 92 88 4e be b4 38 0d 3d
       0.013712848 -0.51097447 -0.20169285 0.034477904
000270 04 59 81 bd f2 9b da 3d 57 89 fb be 9b 0b 8d 3d
       -0.063158065 0.106742755 -0.4912822 0.06886979
000280 99 d4 1a bd 31 88 c4 bc c9 9e 38 3d 06 c2 ac be
       -0.037800405 -0.023990722 0.045073304 -0.33741778
000290 62 df ac be c5 58 02 be ec f0 0a 3d d9 56 f2 bd
       -0.33764178 -0.12729175 0.033921167 -0.11832971
0002a0 74 e5 ea be f5 78 8b 3e e8 07 c1 be d8 27 c1 3c
       -0.45878184 0.2724072 -0.37701344 0.02357857
0002b0 d5 5a db 3c e3 bc 73 be 33 38 6c be 67 c3 00 bc
       0.02677671 -0.23802523 -0.23068313 -0.007859088
0002c0 07 40 97 3d a1 50 bb 3e 22 d2 d8 bd 10 1a 23 bd
       0.07385259 0.36584952 -0.10586955 -0.039819777
0002d0 dd 1c 94 be b9 66 5c 3d c4 4b 35 bd f5 93 39 bd
       -0.2892827 0.0538089 -0.04426171 -0.04530712
0002e0 44 b4 ae be 17 b3 9e 3c 32 d0 ca 3d 6b 1a ab bd
       -0.34121907 0.019372506 0.09902991 -0.08354648
0002f0 d3 3d a2 3d 97 4f 0e be 01 6d a2 be 16 a3 ae be
       0.07921948 -0.13897549 -0.31723788 -0.341088
000300 2b 8b 5b be 6e 11 1b bd 72 05 1d be cc 09 3e bc
       -0.21439807 -0.03785842 -0.15334108 -0.011599015
000310 35 2a d9 be 1b 21 54 be 8c f1 50 3d d4 cf ce bc
       -0.42415014 -0.20715754 0.051011607 -0.025245585
000320 c6 00 08 3d 6e 24 9a 3e b8 e0 97 3d b9 75 e4 3b
       0.033203863 0.3010592 0.074159086 0.0069720414
000330 61 22 14 bf b9 b2 83 bd e3 88 31 be e8 a2 ca 3e
       -0.5786496 -0.06430573 -0.17337374 0.39577413
000340 0c e9 8e 3e a6 66 76 be 51 dd 09 3e aa e3 58 be
       0.27912176 -0.24062595 0.13463332 -0.21180597
000350 1e 79 f7 bd d3 18 aa 3d 33 6f 1d be 73 c7 97 bd
       -0.12083648 0.08305516 -0.1537445 -0.07411089
000360 99 41 a2 3e a1 b6 da 3d 58 cd b9 be 4b e6 09 be
       0.31690672 0.10679365 -0.36289477 -0.13466756
000370 37 a3 7f 3d 24 ff 20 3e c4 ac 32 bd 67 40 04 bf
       0.062411513 0.15722328 -0.043621793 -0.5166077
000380 2e 38 29 bc a5 41 2a 3c 16 dc be bd 48 97 cc bb
       -0.010328336 0.010391627 -0.09319322 -0.00624362
000390 1c b5 08 be 18 fb 8b be 88 7d b2 be 8f ba f3 3b
       -0.13350338 -0.27340007 -0.34861398 0.007438011
0003a0 c1 25 5f be 00 21 61 bd a3 78 b1 3e 78 c6 22 bd
       -0.21791746 -0.054963112 0.3466235 -0.039740056
0003b0 f8 d4 55 be d5 a1 85 3d 95 24 a8 bd bc c2 24 bc
       -0.20882022 0.06525008 -0.082101025 -0.010056194
0003c0 4b 78 b2 be 7d ac e2 3e 87 2e 35 3d 7e 30 82 be
       -0.348574 0.44272223 0.044233825 -0.25427622
0003d0 a6 d7 65 3d cc 63 9b 3c 3a 03 8b be 66 88 53 3c
       0.05611386 0.018968485 -0.271509 0.012910938
0003e0 c4 8e 97 be a5 a7 c5 bb 11 87 fd bd 1d bc 5f bd
       -0.2960111 -0.0060319477 -0.123792775 -0.05462276
0003f0 9f 6d f4 bc 8c dd bd 3d 5b cb 24 3d 75 6d cd be
       -0.029837428 0.09270772 0.040232997 -0.40122572

net.2.bias f4 [5]
000000 c0 bc 68 bd f9 f7 94 3e cf 36 9c 3c 0c 81 95 be
       -0.05682063 0.29095438 0.019069104 -0.29200017
000010 89 ec 46 bd
       -0.04856542
