checkpoints/frogger_policy_0.76.pt (torch, 51797 bytes, 4 tensors)

net.0.weight f4 [128, 90]
0	0xbd702ac1	-0.058634523
1	0xbd6a4738	-0.057196826
2	0xbdaa6523	-0.083200715
3	0xbc32f707	-0.010923154
4	0x3dc956fe	0.098310456
5	0x3db68f8c	0.08914098
6	0xbc8e2f88	-0.017356649
7	0xbe5b2aa2	-0.21402982
8	0xbf8aac2f	-1.0833796
9	0xbec27d29	-0.37986115
10	0xbd991d9b	-0.0747635
11	0xbe82e1b8	-0.25562835
12	0xbf35106a	-0.7072817
13	0xbec425fa	-0.38310224
14	0xbf0e70fd	-0.55641156
15	0xbd75212e	-0.059846096
16	0x3e42402a	0.18969789
17	0xbedc3d52	-0.43015534
18	0xbdc13e8d	-0.09435759
19	0x3de23ce3	0.110467695
20	0x3d55bbd3	0.052181076
21	0x3d798383	0.060916435
22	0xbf04eaed	-0.5192097
23	0x3ee615a3	0.44938383
24	0xbe83a471	-0.25711396
25	0x3d9853df	0.07437872
26	0x3e256585	0.16152008
27	0x3ea78ae0	0.3272314
28	0xbe80a725	-0.2512752
29	0x3c3a4d7b	0.011371012
30	0xbda4f31b	-0.08054181
31	0x3d70945d	0.05873524
32	0xbdc4e681	-0.09614278
33	0x3bfeba2c	0.0077736583
34	0x3d7fa636	0.06241437
35	0xbe1c6fb2	-0.15276983
36	0x3de55636	0.11198084
37	0x3e066c64	0.13127285
38	0xbe3e743b	-0.18599026
39	0x3e3487b4	0.17629892
40	0x3e1a63e1	0.15077163
41	0x3e5b31bb	0.2140569
42	0xbef31029	-0.47473267
43	0x3d866e96	0.06564061
44	0x3e0b7e6d	0.13622446
45	0xbed22176	-0.41041154
46	0x3ca28d60	0.019842803
47	0x3bacf13d	0.0052777813
48	0x3e47fcbf	0.19530009
49	0x3e5dd9ed	0.21665163
50	0xbf320db1	-0.6955214
51	0x3dd20f77	0.10256856
52	0xbd5db9f2	-0.05413241
53	0x3f2b74b5	0.66974956
54	0x3e304324	0.17213112
55	0x3d912744	0.070875674
56	0xbd224722	-0.03961862
57	0xbda95c93	-0.0826961
58	0x3dc68833	0.09693947
59	0x3d0d5cf6	0.034512483
60	0x3dbeba4d	0.09312878
61	0x3cafa775	0.021442154
62	0x3dead818	0.11466998
63	0x3d8964ff	0.067087166
64	0x3d8eac45	0.069664516
65	0x3da85938	0.08220142
66	0xbc801e40	-0.015639424
67	0xbd58c10a	-0.05291847
68	0xbd0ffb82	-0.035151966
69	0xbd9251f2	-0.07144536
70	0xbbbd9602	-0.0057857046
71	0xbd3a1966	-0.045434378
72	0x3d7fabb1	0.062419597
73	0x3c91dff2	0.01780698
74	0xbdcfbb37	-0.1014313
75	0x3c682960	0.014170021
76	0xbd874313	-0.0660459
77	0xbdad4e45	-0.08462194
78	0x3c0d46b5	0.008622815
79	0x3d0149e7	0.03156462
80	0xbca7a639	-0.020465003
81	0x3d9bfb33	0.07616272
82	0x3d4201ae	0.047364883
83	0xbdd5b87f	-0.104355805
84	0xbd931b59	-0.071829505
85	0x3d2bd7f9	0.041954014
86	0xbc1f26ff	-0.009713887
87	0xbdaa375f	-0.083113424
88	0xbc55736c	-0.013028007
89	0x3daff5ee	0.08591829
90	0x3da4e697	0.08051794
91	0xbc2c4cd2	-0.010516362
92	0x3c68d431	0.014210747
93	0xbd02cb94	-0.03193243
94	0x3c6d6471	0.014489279
95	0xbd881b70	-0.06645858
96	0x3ce7192f	0.02821025
97	0xbca5ccab	-0.020239195
98	0xbdd479d3	-0.103747986
99	0x3d29dca4	0.041470185
100	0x3d98c28a	0.074589804
101	0xbd05f809	-0.032707248
102	0xbcac8fb3	-0.021064615
103	0x3d46d0aa	0.04853884
104	0xbda004a0	-0.07813382
105	0xbdae99d2	-0.08525433
106	0xbc619d43	-0.013770404
107	0xbd1d2141	-0.03836179
108	0xbd9219f3	-0.07133856
109	0x3dac0847	0.08400016
110	0xbd30e322	-0.04318536
111	0x3d6ad449	0.057331357
112	0x3cbcfaa7	0.02306874
113	0xbb037e72	-0.002006438
114	0xbd7f5c22	-0.062343724
115	0x3bbc5dae	0.005748472
116	0xbb991ce9	-0.004672636
117	0xbd58c766	-0.052924536
118	0x3d299dc5	0.041410226
119	0x3d8144c1	0.06311942
120	0x3da3bccf	0.07994997
121	0x3d228fb8	0.039687842
122	0xba9fc043	-0.0012188036
123	0x3dbcb413	0.09214034
124	0x3cffd489	0.031229274
125	0xbdc4b903	-0.09605601
126	0x3be5641a	0.0070004584
127	0xbdab56ec	-0.083661884
128	0xbd37d428	-0.044880062
129	0x3d1ebe3a	0.038755633
130	0x3cfbec3c	0.030752294
131	0x3d02e6ea	0.031958498
132	0x3cab8b6c	0.020940505
133	0x3d76aa8f	0.06022125
134	0xbca785f0	-0.020449609
135	0x3911ffbc	0.00013923546
136	0x3d05645b	0.03256641
137	0x3c345a90	0.01100792
138	0xbd987416	-0.07444017
139	0xbdf04226	-0.11731367
140	0xbde8069a	-0.11329384
141	0x3c959c47	0.018262995
142	0x3cd64a51	0.026158484
143	0xbd4bac11	-0.049724642
144	0xbc798efd	-0.015231845
145	0x3ba8dc56	0.005153219
146	0xbd7dc8e7	-0.061959174
147	0x3d2e62ff	0.04257488
148	0xbd728d32	-0.059216686
149	0xbd7739ff	-0.060358044
150	0xbe02dbd9	-0.12779178
151	0xb6b7c98c	-5.477288e-06
152	0xbcb12473	-0.021623826
153	0xbcdf0725	-0.027225086
154	0xbd9b04e5	-0.07569293
155	0xbd6435a5	-0.055715222
156	0x3cd976b7	0.026545865
157	0x3dd018ff	0.101610176
158	0xbdcddbf2	-0.10051717
159	0x3d82c163	0.06384542
160	0xbd1c4a93	-0.038157057
161	0xbd8a97d5	-0.06767241
162	0x3c7f80de	0.015594689
163	0x3cbc0fad	0.022956694
164	0xbd200a50	-0.039072335
165	0x3c96ce4c	0.018408917
166	0xbdc4dc64	-0.09612349
167	0x3c8ccb10	0.017186671
168	0xbcac0022	-0.020996157
169	0xbdc6f3d6	-0.09714477
170	0xbdc5f655	-0.09666125
171	0xbc95d4c5	-0.018289933
172	0xb8928b94	-6.987821e-05
173	0x3dd458e6	0.103685185
174	0xbdb522ef	-0.08844554
175	0x3d621a5f	0.05520093
176	0x3d1abd3c	0.037778124
177	0x3d840acc	0.06447372
178	0xbda3b244	-0.07992986
179	0xbc62d145	-0.013843839
180	0xbd4744dd	-0.048649658
181	0x3ce18cf3	0.02753303
182	0xbda79923	-0.081835054
183	0xbd8ea086	-0.06964211
184	0x3d0deb33	0.03464813
185	0x3d932cca	0.07186277
186	0x3da2fa77	0.07957929
187	0xbdc3f2c5	-0.09567789
188	0x3d83f7f8	0.06443781
189	0xbd6db340	-0.058032274
190	0xbdbed3ce	-0.09317742
191	0xbc9e3ab9	-0.01931511
192	0x3d40b5c0	0.04704833
193	0xbda5ef27	-0.08102255
194	0xbce0aad9	-0.027425217
195	0xbda404d5	-0.08008734
196	0xbcd1a5ff	-0.025591848
197	0x3d5754c5	0.052571077
198	0xbd9807fe	-0.074233994
199	0x3d3516a9	0.044211064
200	0xbde9aee7	-0.11410313
201	0x3ca2c848	0.019870892
202	0x3d4ff900	0.050774574
203	0xbda9b3b8	-0.08286232
204	0xbd5c9fec	-0.05386345
205	0xbcfdb5fd	-0.030970568
206	0x3d8afbed	0.06786332
207	0xbe12247e	-0.14271733
208	0x3bf50504	0.0074774045
209	0xbc2b1b57	-0.01044353
210	0x3d8b3de3	0.06798913
211	0xbd869e51	-0.06573165
212	0xbda7c01a	-0.08190937
213	0xbdcd7ce3	-0.10033586
214	0x3d761866	0.060081862
215	0x3c6597f7	0.014013282
216	0xbc31647b	-0.010827179
217	0x3cb2f461	0.021845045
218	0xbdb93095	-0.090424694
219	0xbd620709	-0.05518249
220	0xbdd17c0e	-0.1022874
221	0xbd90d769	-0.07072336
222	0xbddcd57c	-0.107829064
223	0x3a44d211	0.0007508109
224	0x3cb37474	0.021906115
225	0xbcac71f8	-0.021050438
226	0xbcb231af	-0.021752207
227	0x3cdf99c2	0.027294997
228	0xbcd7623b	-0.026291957
229	0x3d64d613	0.05586822
230	0xbd21ac13	-0.039470743
231	0xbdd90849	-0.105972834
232	0xbe1026d2	-0.14077309
233	0xbdcfc7d8	-0.10145539
234	0xbd8611d1	-0.06546367
235	0xbd49dd2e	-0.0492832
236	0xbdc3378e	-0.095320806
237	0xbd94c89d	-0.072648264
238	0x3cc5ea0a	0.02415945
239	0x3d8a637f	0.067572586
240	0x3b80c9d9	0.003930312
241	0xbdb15642	-0.086590305
242	0xb7d61d54	-2.5524445e-05
243	0xbd133378	-0.035937756
244	0xbbb645de	-0.005562528
245	0xbd674270	-0.056459844
246	0x3db1e45d	0.08686135
247	0xbdcba726	-0.099439904
248	0xbd8944b8	-0.0670256
249	0xbd14ee73	-0.036360215
250	0xbdacef14	-0.08444038
251	0xbdce5f60	-0.10076785
252	0x3da9a97a	0.08284278
253	0x3d08e0df	0.03341758
254	0x3da95779	0.08268637
255	0x3d61b596	0.055104814

net.0.bias f4 [128]
0	0x3cca2f6d	0.024680817
1	0xbe0e8137	-0.13916479
2	0x3c3f4d90	0.011676207
3	0xbcc7eba9	-0.024404364
4	0x3e01033c	0.1259889
5	0xbd43f9aa	-0.04784552
6	0xbcbe4b03	-0.023229128
7	0xbdf85e95	-0.12127415
8	0x3d7ee72b	0.062232178
9	0x3e1aca52	0.15116242
10	0xbdee7e3f	-0.11645173
11	0xbb849f4d	-0.0040473104
12	0x3d3b672a	0.04575268
13	0xbdf3924a	-0.11893137
14	0x3d7f0ad7	0.062266197
15	0x3b89c24c	0.00420407
16	0x3d5a0074	0.05322309
17	0xbd53b1ac	-0.051683113
18	0xbc978676	-0.018496733
19	0xbde75cbb	-0.11296984
20	0xbdc4698c	-0.09590444
21	0xbe1c79ae	-0.15280792
22	0x3d8256d6	0.06364219
23	0x3cf353b5	0.029703
24	0x3d16ab8e	0.0367847
25	0x3d732cb2	0.059368797
26	0x3d0d6487	0.0345197
27	0xbd17c80f	-0.037056025
28	0x3c8fb02e	0.017540064
29	0xbd74c152	-0.059754677
30	0xbdf26bfe	-0.11837004
31	0xbd12ed52	-0.035870858
32	0x3e0092c0	0.1255598
33	0xbc7d5cf0	-0.015464053
34	0xbc72e70b	-0.014825593
35	0xbd585724	-0.05281748
36	0xbcc50a3d	-0.024052734
37	0xbe0ebf5e	-0.13940188
38	0x3db3802e	0.08764683
39	0x3d9b828c	0.07593259
40	0xbd672c74	-0.05643888
41	0xbd84c26d	-0.06482396
42	0xbba5bc4c	-0.005057847
43	0xbdeb5774	-0.1149129
44	0xbe17c175	-0.14819892
45	0xbdff30f5	-0.1246051
46	0xbe0ed95c	-0.13950104
47	0x3dbf8fa0	0.09353566
48	0x3e771284	0.24128157
49	0xbdd1ffaa	-0.10253842
50	0x3d28d709	0.0412207
51	0xbd820b96	-0.06349866
52	0x3d492200	0.04910469
53	0xbdc79cbd	-0.09746692
54	0xbc035244	-0.008015219
55	0xbccba761	-0.024860086
56	0xbe0ad21a	-0.1355671
57	0x3d920fb9	0.07131905
58	0x3db06d46	0.08614592
59	0x3d8d7ff1	0.069091685
60	0x3d50d8f1	0.05098814
61	0xbd094169	-0.033509646
62	0xbd12b682	-0.035818584
63	0xbc38ee08	-0.01128722
64	0x3e1f0da9	0.15532555
65	0xbdac018d	-0.08398733
66	0xbd8ef123	-0.06979587
67	0x3d25857e	0.04041051
68	0xbe20b4d8	-0.15693986
69	0xbdcc0e16	-0.09963624
70	0x3e41e457	0.18934761
71	0x3db53534	0.08848038
72	0xbde1e092	-0.110291615
73	0x3d741203	0.05958749
74	0x3b84aae8	0.004048694
75	0xbc8f7ccf	-0.017515568
76	0x3da58ec9	0.08083875
77	0x3d5c00c4	0.053711668
78	0x3e5a9f37	0.21349798
79	0x3e33e69b	0.17568438
80	0x3d9de429	0.07709534
81	0x3d21b066	0.039474867
82	0x3c66cffa	0.014087671
83	0xbdff3989	-0.12462146
84	0x3b50818d	0.00318155
85	0xbd6cf434	-0.057850078
86	0x3cec245e	0.028825935
87	0xbcf5ebc8	-0.030019656
88	0xbbf0eade	-0.007352217
89	0xbd9b3a6c	-0.075795025
90	0xbdab3231	-0.083591826
91	0x3d2734f3	0.04082198
92	0xbc99ef37	-0.018790824
93	0xbddfafc6	-0.10922198
94	0x3dd80afb	0.10548969
95	0x3e35c66e	0.17751476
96	0x3dd68beb	0.10475906
97	0x3d388713	0.04505069
98	0xbd444587	-0.04791787
99	0xbdebfa78	-0.115223825
100	0xbcf7df03	-0.030257707
101	0xbd6a8df6	-0.05726429
102	0x3d936a70	0.07198036
103	0x3cc96c24	0.024587698
104	0xbd7985c8	-0.0609186
105	0x3c275552	0.010213213
106	0x3e1aab92	0.15104511
107	0x3ddf2af0	0.108968616
108	0xbdb88fa3	-0.090117715
109	0x3dd05162	0.101717725
110	0xbc39d6e7	-0.011342741
111	0xbc99d5b0	-0.018778652
112	0x3c9633ef	0.01833531
113	0x3b9f37c7	0.004858944
114	0xbdd8343b	-0.10556837
115	0xbd22ba1b	-0.039728265
116	0xbda488d5	-0.08033911
117	0x3d94a40c	0.07257852
118	0x3d7b1ae0	0.061304927
119	0xbdddef02	-0.10836603
120	0xbc43e2c8	-0.011955924
121	0xbdc69f28	-0.096983254
122	0xbdc2a72c	-0.09504542
123	0x3db57327	0.08859854
124	0x3df0d56c	0.11759457
125	0x3de8b18e	0.11361991
126	0x3cf67a0d	0.030087495
127	0x3d95587c	0.07292268

net.2.weight f4 [5, 128]
0	0xbf06d42f	-0.52667516
1	0xbd7aaa08	-0.06119731
2	0xbd087547	-0.03331497
3	0x3f2857c4	0.6575892
4	0xbe7082dd	-0.2348742
5	0x3f0901c0	0.53518295
6	0xbd5db138	-0.054124087
7	0x3d19e760	0.037574172
8	0x3ebe5e7a	0.37181455
9	0x3f657744	0.8963511
10	0xbc3c953f	-0.011510192
11	0xbc9720df	-0.018448291
12	0xbd287395	-0.041125853
13	0xbd5d83c8	-0.054080755
14	0x3de93c38	0.11388439
15	0x3f16bee8	0.5888505
16	0x3f39dd83	0.72603625
17	0xbd309452	-0.0431102
18	0x3eebdb04	0.46065533
19	0xbf0f5dc2	-0.5600244
20	0x3d8ac255	0.06775347
21	0xbd5b7b85	-0.053584594
22	0xbd66e364	-0.0563692
23	0x3ecac2d3	0.39601764
24	0xbce7123d	-0.028206939
25	0x3f4f1a9e	0.8089999
26	0x3e8ab9ea	0.27094966
27	0xbde77c66	-0.11303024
28	0x3f059327	0.5217766
29	0xbc89673d	-0.01677286
30	0x3d5093eb	0.050922316
31	0x3cb44a18	0.022007987
32	0xbd269e9a	-0.040678598
33	0x3edd8147	0.43262693
34	0x3d943155	0.07235972
35	0x3f0327d2	0.51232636
36	0x3f839118	1.0278654
37	0x3ac397d9	0.0014922573
38	0x3f047665	0.51743156
39	0x3eed25c5	0.46317878
40	0xbc00c82c	-0.007860225
41	0xbd065944	-0.032799974
42	0xbd77d0fc	-0.060502037
43	0x3fb3c182	1.4043429
44	0x3d331ffc	0.043731675
45	0xbd638b03	-0.055552494
46	0xbc5a6bfa	-0.013331408
47	0x3eedac03	0.46420297
48	0xbed4622a	-0.41481143
49	0xbd3717b0	-0.044700325
50	0x3eda839b	0.42678532
51	0x3cd31c99	0.025770472
52	0x3f098d03	0.5373079
53	0x3f981f6d	1.188459
54	0xbb219025	-0.0024652567
55	0x3f2b1cbd	0.66840726
56	0x3ca3fa4d	0.020016814
57	0x3ea6c333	0.325708
58	0x3f137ea7	0.5761513
59	0x3e8f7276	0.28017014
60	0x3f02b6d5	0.5106023
61	0xbcdb1e2a	-0.026747782
62	0x3e83add6	0.25718564
63	0x3eadf7e7	0.33978197
64	0xbed5965c	-0.41716278
65	0x3f27a3b0	0.6548414
66	0x3f800e8a	1.0004437
67	0x3ee3d233	0.44496307
68	0xbe4bc76f	-0.19900297
69	0xbcfa700d	-0.030571008
70	0xbea2981a	-0.3175667
71	0x3eb61501	0.355629
72	0x3c1964e1	0.00936243
73	0x3d694f4a	0.05696038
74	0xbdd34479	-0.103157945
75	0x3df53ddc	0.11974689
76	0xbbfa5fea	-0.0076408284
77	0x3eff0325	0.49807087
78	0xbed34af8	-0.41268134
79	0x3d949ff9	0.07257075
80	0x3e3eea92	0.18644169
81	0x3f37f91a	0.71864474
82	0x3b60dfa2	0.0034312983
83	0x3d1a3bc4	0.037654653
84	0x3d870a26	0.065937325
85	0x3db9cae9	0.09071905
86	0x3f231a80	0.6371231
87	0x3f13d504	0.5774691
88	0x3f0c2f69	0.5475984
89	0xbc144e0d	-0.009051812
90	0x3d342e7b	0.04398964
91	0x3e91792a	0.28412753
92	0x3f24aee8	0.64329386
93	0xbc787503	-0.0151646165
94	0x3e39b192	0.18134144
95	0x3f11958a	0.56868804
96	0x3e76996a	0.2408196
97	0x3d6cdcc6	0.057827733
98	0xbd2285a8	-0.039678246
99	0xbd84e3c7	-0.064887576
100	0xbeedd8ea	-0.46454555
101	0x3e6b5dd3	0.2298501
102	0x3f41bf32	0.75682366
103	0x3f083c3c	0.5321691
104	0xbd180508	-0.037114173
105	0x3ef534b4	0.47891772
106	0x3f710e6e	0.9416264
107	0x3f47d997	0.7806639
108	0xb9ea185b	-0.00044650104
109	0xbeb71f96	-0.35766286
110	0xbb1a3372	-0.00235292
111	0x3c0c402d	0.008560223
112	0x3f033616	0.51254404
113	0x3ef4d3ab	0.4781774
114	0x3da250d6	0.079255745
115	0xbc235761	-0.009969563
116	0x3f566a29	0.8375574
117	0xbe5c6d1a	-0.21525994
118	0x3f1ac5f6	0.60458314
119	0xbdbb691c	-0.091509074
120	0x3d294df7	0.04133412
121	0x3daccec7	0.08437877
122	0x3cec94dc	0.028879575
123	0x3ea54df2	0.3228603
124	0x3e1d3452	0.1535199
125	0x3f4bffa7	0.7968697
126	0xbebca0df	-0.36841485
127	0xbcfb3c0e	-0.030668285
128	0x3e2a578b	0.16634957
129	0xbd6165c6	-0.0550287
130	0x3d90189b	0.07035943
131	0xbde85bcb	-0.11345633
132	0x3e99e44b	0.30056986
133	0xbe450e02	-0.19243625
134	0xbd1cb946	-0.038262628
135	0x3e07986a	0.13241735
136	0xbed1ad82	-0.40952688
137	0xbf19523f	-0.5989112
138	0xbca2c2ef	-0.019868342
139	0xbbadef4c	-0.0053080674
140	0xbc3e4b96	-0.011614701
141	0x3d8fb3c3	0.07016709
142	0x3ea87b37	0.32906505
143	0xbd88d3c1	-0.06681014
144	0xbda64b59	-0.0811984
145	0x3d5da48b	0.054112
146	0xbbfff5f7	-0.0078113037
147	0x3e387dd7	0.18016754
148	0x3d3e25d7	0.046422806
149	0x3d718504	0.058964744
150	0x3da21387	0.07913881
151	0xbe9b2cb3	-0.3030754
152	0x3ca6b564	0.020350166
153	0xbde6619a	-0.11249085
154	0xbe8cb3f5	-0.27481046
155	0x3e3a7dd9	0.1821207
156	0xbe52db95	-0.20591576
157	0x3d363890	0.044487536
158	0x3d38cc7a	0.04511688
159	0xbdc7dce9	-0.09758932
160	0xbec4d63e	-0.38444704
161	0x3cb5efeb	0.022209128
162	0xbec65ac9	-0.3874114
163	0x3da9e841	0.08296252
164	0xbe915e61	-0.28392318
165	0xbd96c2d6	-0.07361381
166	0xbd22165a	-0.039572097
167	0xbe159a1a	-0.14609566
168	0xbddd7af8	-0.1081447
169	0x3cd1731d	0.025567586
170	0xbc47effd	-0.012203214
171	0xbee92a80	-0.45540237
172	0x3d8356f4	0.06413069
173	0xba608b14	-0.0008565646
174	0x3b989cc6	0.0046573607
175	0x3e0f857a	0.14015761
176	0x3eda3363	0.4261733
177	0x3d0767d2	0.033057995
178	0xbe00d90b	-0.12582795
179	0xbc6afd8e	-0.014342679
180	0xbd95a224	-0.073063165
181	0xbe8d67e2	-0.2761832
182	0xbda23568	-0.07920343
183	0xbe2a75e7	-0.16646539
184	0xbd2a59bc	-0.041589484
185	0xbe68a1db	-0.22717993
186	0x3a1459fc	0.00056591607
187	0x3c9418b9	0.018078195
188	0xbcf5f2da	-0.030023027
189	0xbeb22516	-0.3479392
190	0xbe0e97b1	-0.13925053
191	0xbef140d2	-0.47119766
192	0x3e967a6e	0.2939028
193	0xbd73ef22	-0.059554227
194	0xbe2756a3	-0.16341643
195	0x3dd7c291	0.105351575
196	0x3df01569	0.11722834
197	0xbe11e5f4	-0.14247876
198	0x3e89ce4a	0.269152
199	0xbd3b1871	-0.045677606
200	0x3d79c22f	0.060976204
201	0x3dde141f	0.108436815
202	0x3e95f2a8	0.29286695
203	0xbe213222	-0.1574178
204	0xbd8e4363	-0.06946447
205	0x3e05404a	0.13012806
206	0x3eb02899	0.34405974
207	0x3dd3b54f	0.10337316
208	0xbe0e39f3	-0.13889293
209	0xbddabcdf	-0.106805556
210	0x3d87d766	0.06632881
211	0x3a7b0096	0.00095749774
212	0xbe0fdf53	-0.14050035
213	0xbdb9245e	-0.090401396
214	0xbdde50dc	-0.108552665
215	0xbde9f694	-0.11423984
216	0xbe93dd43	-0.28879747
217	0xba77b406	-0.0009449128
218	0x3d289152	0.041154213
219	0xbe153475	-0.14570792
220	0xbd6ed0a9	-0.058304463
221	0x3be008a3	0.006836967
222	0xbec62d3a	-0.3870638
223	0xbe41562f	-0.18880533
224	0xbe8b8ad8	-0.27254367
225	0xbe5d022c	-0.2158286
226	0x3d786d0f	0.06065088
227	0x3b8ae4dc	0.004238708
228	0x3ebdd8fe	0.37079614
229	0xbe92c497	-0.2866561
230	0xbf09f0fb	-0.5388333
231	0xbd63cdf3	-0.05561633
232	0x3e148087	0.14502154
233	0xbdbe95c3	-0.093059085
234	0xbe932d45	-0.28745475
235	0xbedf53a9	-0.43618515
236	0xbd8dd2ca	-0.069249704
237	0x3e92338f	0.2855496
238	0xbd3e5dc7	-0.04647615
239	0xbd9c0bcc	-0.076194376
240	0x3e15cdd7	0.14629303
241	0xbdde0173	-0.1084012
242	0x3d83092f	0.06398236
243	0xbdac2adf	-0.084066145
244	0xbe4325c6	-0.19057378
245	0xbe29db86	-0.16587648
246	0xbe1d03af	-0.15333436
247	0x3e3b1e0c	0.1827318
248	0x3cba7358	0.022760078
249	0x3d17abf3	0.037029218
250	0x3d7a5365	0.061114687
251	0xbecd386f	-0.40082118
252	0xbe424d16	-0.18974718
253	0xbe2683e1	-0.16261245
254	0x3e611d2a	0.21983781
255	0x3e84399b	0.258252

net.2.bias f4 [5]
0	0xbe510874	-0.20413381
1	0x3e45eff0	0.1932981
2	0xbde6e962	-0.11274983
3	0x3cea6988	0.028614774
4	0x3dadc87b	0.08485504
