checkpoints/frogger_policy_0.98.pt (torch, 51797 bytes, 4 tensors)

net.0.weight f4 [128, 90]
00000000: 5f58 74bd 181a 0abd f025 ccbd dc28 973d
00000010: 648b 18bb e53c 3fbe 9c52 1fbe 2c8c 8ebd
00000020: bb72 833e 5f79 35be bd35 97be ceac a3be
00000030: 0fd8 0bbf f27c d4be 8786 72bd cd3a 123e
00000040: 0874 89be c83d debe 96af dfbd ea93 0abe
00000050: 078c 6ebe 76a5 393f 5baa 25bd 38e5 b7be
00000060: f7b3 61be 5af6 f83d fd2f 04bf b8fa 9a3e
00000070: d503 82be c6c3 08bd b7ad b63d 0b06 ad3d
00000080: a1e8 cbbd 2494 14bd e523 ce3d dfc6 733d
00000090: 0323 13bf cc20 2f3e 9ebb 113f b913 93bc
000000a0: 92be 2a3d 7580 b53e 2850 85be 0d14 c93d
000000b0: 25da d43d 61fe c03e ff6d 32be e3f6 343d
000000c0: a296 febe 3625 473e 88c8 10be 298b 023d
000000d0: 00b9 0d3d 3236 cfbe 04ef 9f3e 929f bebd
000000e0: 2da7 5abd 9f8a 813c ef24 32bd 17cf 913d
000000f0: 601d c9bc 43b0 09bc b550 36bc 3be6 dd3d
00000100: 1b23 c93d d541 ac3d c7f5 9abd 803b ba3c
00000110: afb4 b53d 9f9f b73d bae9 5c3d ff49 c63d
00000120: bc4f 94bd 5024 d13c 1505 9dbc 9f65 7d3d
00000130: 8061 afbd 5e0b 01bd 935e db3c 763d 8f3d
00000140: 6a1f ecbc 6d1e 9e3d 22c2 8d3d c1ac adbc
00000150: 615b 143d 2d7d a23d 9a3b 8a3c 7157 9cbd
00000160: ade4 a83d ff6b 673d 7fa2 003d bfa9 9abd
00000170: 582c 3fbd 9cc7 4c3b 222a 233d 5695 eebd
00000180: 25d2 a5be 90d9 0cbf aab2 06be b28f dcbd
00000190: a421 a6be 0392 33be d246 a6be b6da 3fbe
000001a0: 059b 6d3e 9c4d ad3e 0006 a5be 76dd 79be
000001b0: 4056 3cbe 2659 3fbe cd8c 91be 11b2 293f
000001c0: 632d 0fbe a1e7 5dbf 6aad 8bbe a11e 16be
000001d0: 521f 84be 74a5 ea3e 5171 c2be 41d7 d2bc
000001e0: b0f9 d4bd 1084 39bd 533d cc3d 6818 a8bd
000001f0: 502f 8ebd 99d0 84bd ceb9 adbd b778 acbd
00000200: 5516 293f 1954 2abe 99ff 053e c84c 163d
00000210: 33db 9a3e 593d 0bbe 8ae1 0e3e 774c 503f
00000220: ad38 ecbd a23d cfbd 8138 b9bd 2447 f7bd
00000230: 37f8 c83e 99e1 1ebe ddd3 9c3d 5230 09be
00000240: d515 bdbd 83ec bf3d 0d5c 9c3d 1ebe d5bd
00000250: 124a 213b ca91 ad3d c81e 923d f6b0 123e
00000260: ad15 4e3c 395d f43c cee4 853d 9166 4a3d
00000270: 7e45 d2bd a9bf 6b3d 8dd7 9cbd 1afa a53c
00000280: 5cdd cd3d 060e e4bc 3301 ef3c f81b 74bd
00000290: 6135 ebbc b88f 923d 97f1 e3bc b94a 923d
000002a0: 2bf2 c83d 1009 c8bd 5bb6 9a3d d36b 69bd
000002b0: 52b3 063c 22ff be3d 8c6c b23d cdab d63c
000002c0: 1eb8 213d 0335 ca3d 2f4d c33d 69b8 81bd
000002d0: 36bd 81bd 9d2f c0bd 88c8 d4bd 29a3 2fbb
000002e0: f63d 253d 25af 843d d662 bdbd e955 80bd
000002f0: ba6f 84bc 82c9 b33d 8b48 3a3d 52de 94bc
00000300: d668 b23d 525d 7abd 3da9 c93b 4368 b3bd
00000310: c60a 21bd 4aa2 73bd 12b5 67bd 7ac3 04bd
00000320: 754c 3a3d 0e27 6d3d 92ec febc a38e 9c3c
00000330: 821a 94bd 00c9 2e3d d148 b53d 0969 003d
00000340: 95d0 94bd 8c15 6dba 3e65 acbd fa1f 8a3d
00000350: 9c89 3abd 54a1 a5bd 8961 663d b8b1 50bd
00000360: ee85 0abe c7e4 bcbd 868e 8b3c 4f87 223d
00000370: 5d3a aebd caae 15bd 823f 803d 4c38 1dbd
00000380: 6480 913c 1db7 afbb 4ef1 bb3b c8f1 9f3d
00000390: 38e5 093d 5438 a5bd bfc0 b5bd a709 793d
000003a0: 2ccc 03bd 3281 5bbd 0c99 bcbb b552 923d
000003b0: 968f 063c b6d6 a9bc 7803 e9bc c31e bf39
000003c0: 9618 93bd ba01 a1bd 31b4 e6bd 6d5d 99bd
000003d0: b86d 10bd e605 b23d 9f9d 773d 2697 c2bd
000003e0: dedc c03d d4a6 d03d dc50 8f3d da74 aa3d
000003f0: a25f b03d e5b4 13bd 1148 b3bd a5c9 793d
-0.05965459 -0.03371629 -0.099681735 0.0738084 -0.0023276443 -0.18675573 -0.15558857 -0.069603294
0.2567347 -0.1772208 -0.29533187 -0.31967777 -0.54626554 -0.41501576 -0.059210327 0.14280243
-0.26846337 -0.4340651 -0.10922162 -0.13532987 -0.23295604 0.725181 -0.040445667 -0.35917068
-0.22041307 0.12156363 -0.51635724 0.30269408 -0.2539355 -0.03338983 0.08919852 0.08448418
-0.0995648 -0.03627409 0.1006544 0.05951583 -0.574753 0.17102355 0.56926906 -0.01795374
0.04168565 0.35449567 -0.26037717 0.098182775 0.1039317 0.37694076 -0.17424773 0.044180762
-0.497243 0.19447789 -0.14138997 0.031870995 0.034600258 -0.40471035 0.31237042 -0.09307779
-0.053382087 0.01581317 -0.043492254 0.071195774 -0.02455014 -0.0084038405 -0.0111276405 0.108349286
0.09821149 0.08410994 -0.075664096 0.02273345 0.08872353 0.08965992 0.053933837 0.096820824
-0.072417706 0.02553001 -0.019167462 0.06186449 -0.085635185 -0.03150498 0.026778495 0.069941446
-0.028823573 0.07720647 0.069217935 -0.02120054 0.03621996 0.07934032 0.016874123 -0.076338656
0.082467414 0.056499477 0.03140497 -0.07551908 -0.04667315 0.0031246906 0.039835103 -0.11649577
-0.3238689 -0.55019474 -0.13154092 -0.10769595 -0.3244754 -0.17536168 -0.32475907 -0.18735775
0.23203667 0.33848274 -0.3223114 -0.24400887 -0.18392277 -0.18686351 -0.28427735 0.6628733
-0.13982157 -0.8668156 -0.27280742 -0.14660122 -0.25805146 0.45829356 -0.3797708 -0.025737407
-0.103991866 -0.04529196 0.09972634 -0.0820778 -0.06942618 -0.06485099 -0.08482705 -0.08421462
0.660497 -0.16633643 0.13085784 0.036694318 0.3024536 -0.13597621 0.13953224 0.81366676
-0.115342475 -0.101191774 -0.090439804 -0.12074116 0.39251873 -0.15515746 0.07657597 -0.13397339
-0.0923268 0.09371283 0.07634745 -0.104366526 0.00246108 0.08475073 0.07134777 0.14325318
0.01257841 0.029829608 0.06537782 0.04941422 -0.10267161 0.05755583 -0.076583005 0.02026086
0.100519866 -0.027838718 0.029175377 -0.059596986 -0.028711976 0.071563184 -0.02782516 0.071431585
0.09811815 -0.097673535 0.07554313 -0.056987595 0.008221464 0.093260065 0.0871211 0.026204968
0.03948223 0.098733924 0.09536206 -0.063340016 -0.06334917 -0.093840815 -0.10389811 -0.0026800132
0.040342294 0.06478719 -0.09247367 -0.06266386 -0.016166557 0.08778669 0.04547934 -0.018172417
0.08711402 -0.061124153 0.006154208 -0.08760121 -0.039316915 -0.059480943 -0.056569166 -0.032412983
0.04548307 0.057898574 -0.031118665 0.019110983 -0.072316185 0.042672157 0.08851779 0.03135017
-0.07266346 -0.0009044043 -0.08417748 0.0674438 -0.04554139 -0.080874115 0.05624536 -0.050950736
-0.13527653 -0.09223323 0.017035734 0.03967982 -0.08507226 -0.036543645 0.06262113 -0.038383767
0.017761417 -0.005362405 0.005735553 0.07809788 0.033665866 -0.08067384 -0.08874654 0.06080022
-0.032177135 -0.053590007 -0.0057555493 0.07144681 0.0082129445 -0.020732265 -0.028444037 0.00036453278
-0.07182424 -0.078616574 -0.112648375 -0.07488523 -0.035260886 0.08692531 0.060453054 -0.095014855
0.09417127 0.1018807 0.069978446 0.08323069 0.086119905 -0.036061186 -0.0875398 0.06098332

net.0.bias f4 [128]
00000000: 1a93 cfbc 331a 25bd 8a55 b3bc f90b 053e
00000010: ea77 80bd 6737 66bd 94f3 0a3e 4133 abbd
00000020: d793 71bd 1414 e33d f9df eb3d 5b4b cf3d
00000030: 8e85 8bbd b6d9 1fbd cca2 4bbd 2783 9fbd
00000040: 3724 a33a 5b1f d13d d6f4 523d df0e 95bd
00000050: 7935 13bc 7a93 e1bc 17ab e63d fa81 04be
00000060: c2b7 5fbd 49c0 d83d b36a 893d fe18 f73c
00000070: 0769 e93d 27df 63bd d0bd 233d 7a5b 4dbd
00000080: 45ae 613d 04f4 a4bd fecd ec3d 159c db3d
00000090: 26ca e9bc 8f88 e53d c8ee a83c 8f08 b4bd
000000a0: 8173 40bd ed64 7a3b b657 d43c 7617 13bc
000000b0: b94e 0a3c 4524 083e b832 ee3c 9312 2a3e
000000c0: a3c7 1bbd ac51 84bd dab2 93bb f08d 3dba
000000d0: 590b 85bd e174 203e 8bbf 0abe 9c0b 8f3b
000000e0: 8484 bfbd 7231 46bd 8d2b 4fbc 4435 fbbd
000000f0: 0dae f93c e984 09be 5b24 433c 23e8 153e
00000100: 75ae c93d 3ec4 3ebe 1fe8 cf3d 6e38 b93d
00000110: a825 cbbc b8a1 6cbd a6ac f03c 938b 603d
00000120: d381 bcbc 1dc0 97bc a53b 4b3b 479c 8b3d
00000130: 99a3 fc3d 52a9 cfbd 9280 90bd fb85 20bc
00000140: 5acf fe3d 171c 803d e60e a53c 41be bdbd
00000150: fa75 07bd cbd3 fbbd a9a2 eb3d 5b78 283b
00000160: 095f 263d 9ed7 f33c 7155 373d 5a75 4ebd
00000170: 20f9 47bd 5e01 aa3d 188d 03bd f1b3 9bbb
00000180: 228d 063b e543 9cbd 0705 3e3e ffe6 b2bd
00000190: 1631 923c 3fb2 cb3d 914b f33c 0e7b 1b3e
000001a0: 25b4 213c 99d9 eb3d bb0b c7bd bd76 15bc
000001b0: 0029 873d 8e87 55bd fa1c 4cbd dad9 afbd
000001c0: 2a90 2bbd 1d68 af3d 5bce 263d ceeb af3d
000001d0: 4b9f 933c b9c7 c0bd aad7 8d3d 9c1b 0dbd
000001e0: 5a50 8fb7 db2a e13c 88bb f43d 4639 113d
000001f0: 3bd2 2a3e 82fa 4ebd da37 e13c 15b0 de3d
-0.025338698 -0.04030819 -0.021891374 0.12992848 -0.06272872 -0.05620518 0.1356948 -0.08359385
-0.05897888 0.11087814 0.11517329 0.10121795 -0.06812583 -0.039025985 -0.049715802 -0.07788687
0.0012446706 0.10211059 0.051503025 -0.07278227 -0.008984917 -0.027536143 0.112631015 -0.12940207
-0.054618604 0.105835505 0.067098044 0.030163284 0.113969855 -0.055632737 0.03997594 -0.050136067
0.055097837 -0.08054355 0.115627274 0.1072313 -0.028538775 0.11207687 0.020621672 -0.08790695
-0.046985153 0.003820713 0.02592073 -0.0089777615 0.0084416205 0.13295086 0.029076919 0.16608648
-0.038032185 -0.0646089 -0.0045074048 -0.0007230928 -0.06496305 0.15669586 -0.1354963 0.0043653976
-0.09351447 -0.048387 -0.012644661 -0.12266019 0.030478502 -0.13429607 0.011910523 0.14639334
0.09847728 -0.18629548 0.101516955 0.09043966 -0.02479823 -0.057771415 0.0293792 0.05482061
-0.023011124 -0.018524224 0.0031010893 0.06816917 0.12335891 -0.10139717 -0.07055773 -0.009797568
0.12441893 0.06255358 0.020148706 -0.09264804 -0.033071496 -0.12296256 0.11505634 0.0025706503
0.040617976 0.0297659 0.044759218 -0.050404884 -0.04882157 0.08301042 -0.03211698 -0.0047516753
0.00205309 -0.07630137 0.18556605 -0.08735465 0.017845672 0.09946107 0.029699119 0.1518366
0.00986961 0.11516113 -0.09719034 -0.009122548 0.06599617 -0.05213123 -0.04983232 -0.08586474
-0.041885532 0.0856478 0.04072414 0.08589898 0.018020293 -0.09413094 0.069259 -0.03445016
-1.7084345e-05 0.027486255 0.11949831 0.03545501 0.16681759 -0.05053187 0.027492452 0.10873429

net.2.weight f4 [5, 128]
00000000: b5d9 15bf 083e 81be de1b 9bbc 030a 823f
00000010: 81ad 8dbe 236e 31ba 4517 813f eb09 f4bd
00000020: 9143 9b3e c6e3 89be af0b 06be 9641 de3e
00000030: ee52 14bc bfd6 51bc eebd 9fbe 2b09 823d
00000040: 9e97 253d 0fe2 4c3f 15e2 8e3e 2d5d 54bd
00000050: 63e7 82be d161 47be 99a8 28bf 05d0 8cbe
00000060: c55e 103d f4b8 ccbe 68b6 d5be 4ae5 b63e
00000070: e5ea 0ebe 0af3 a73e eee0 e3bd d735 623c
00000080: e2eb 803f 871c 233d dafe d83c 98da 523f
00000090: ed18 4f3d f56a 703c 72d6 253f 23f9 4abc
000000a0: 8768 a8bc 3825 a03d 74cf 91be dcb5 a13b
000000b0: b06b b93e b0ab bb3e f6a4 d7bc c99c 263f
000000c0: 1c73 933b b62a 35bc 04f2 debe baf7 24bd
000000d0: 60ce b63c 3bef 4b3f 59dc 1fbb c581 963d
000000e0: 497b e73d 5e9e bd3c 2f1f fabc f7c1 bf3c
000000f0: 88b3 f83a 3778 3d3e 0c88 0c3f 0f7c 823c
00000100: 62b0 103f 2a90 67bc 27b7 953f 2ece 0c3f
00000110: c24d ea3e 70f1 2e3f b987 e93e e8ca 9f3e
00000120: 187e ffbb 307b 283f bce2 c9be e130 0d3f
00000130: 87a8 acbe 3430 e83d 88ea f9bc 544d c63e
00000140: 9ccb e9bd 0a51 0ebe 0e86 27bf a676 ca3e
00000150: d646 dabd a0cd ae3c 037d 7c3d a8f0 f43e
00000160: bc85 c6b9 2e80 e23e 4e9c f33c b47c 4f3d
00000170: 569f 84bc 646f 753f e58b 71bd c5ca e33e
00000180: 669b 723f cf8b abbd 1c29 e0be 5453 293f
00000190: 6e89 d53e 957c d43e 2c07 643c a018 3b3a
000001a0: fb5d 083f 1476 f33e 8792 163d 6df9 2ebd
000001b0: 48ff 0cbf 5aae cabc 88c5 1bbd 5f03 b5bd
000001c0: fb81 53bd 0e67 993f 1446 a53e 0f2d 99be
000001d0: d24e 87bc d46b c7bc 5c7e 02bf 112e 833c
000001e0: aa26 c83f 0db5 9b3f da63 303f 947a 393e
000001f0: 2003 a83e 57df b63e dc81 e4bd ba6c e13d
00000200: 993d 7d3e 14e3 5a3e 8ed1 863c 25c1 c0be
00000210: 663d cf3d 3045 5bbc 5551 38be 7bb9 9cbc
00000220: 1922 55be 7eec 2c3e aad5 3c3e 322b f7bd
00000230: 9a02 f83c 9e4a 113d 06dd 533e b25b f73d
00000240: 3ca8 873d ae67 26be 6252 6ebe f87c ab3d
00000250: ddc9 6b3e ddcb 393e 0800 373d 7218 2f3e
00000260: 3e64 6f3d ed30 343e c839 8a3e 6bf5 85be
00000270: fb7e 60bd a709 463d e7a5 a43c 77b4 47bd
00000280: f552 82be 3400 4b3d a1e2 193e a79c aabd
00000290: a655 343d 9607 173e 4c50 bebd 2c48 8d3d
000002a0: 0163 13bd 4072 2b3e 8e52 933d fc22 2f3d
000002b0: 4268 dbbd 5a43 9dbe 21b9 053e 01fd 13be
000002c0: 6174 bcbd c4d2 6ebd 3a95 4f3e f4b3 7fbd
000002d0: 388e 2abc c594 82be a26e 2d3d bf72 97bc
000002e0: 5124 afbc f87e 9e3d 8bec 113d bd84 293d
000002f0: 4576 a33d a883 ff3d f95b adbe 5630 0fbc
00000300: 6537 023d cda2 873d 7b04 4abf 096e 16bd
00000310: 75da 1ebe 33fe 3dbe c056 eabe 914c abbe
00000320: 37cf 653e 058d 51be 0454 3c3e 8e70 22be
00000330: e400 743d 4521 313e e30f 093d 6d24 30be
00000340: abe0 653e 61fd af3d 411e ccbc cd7b 44be
00000350: 9c7f 04be 88f1 f6bc 5a95 e33d fde5 f9bd
00000360: 694e 06bc 704b a7be e2d2 1abd 6e1b cf3c
00000370: ee35 793d a893 04be bca1 2c3d e3b6 88be
00000380: b509 01be e582 4e3d f035 2d3e f7ea d63c
00000390: dc64 33be bbb0 9cbe 4e68 ec3b 5d3a 013e
000003a0: adf8 e2bd 88d8 a73d 89c9 143d 0cbb 783d
000003b0: 5733 9f3e 3c7f f4bc 6921 a4bd 5ad4 3a3d
000003c0: 7f50 863d c40c 68be 03c3 b13d 0ec3 603e
000003d0: 6360 9fbd 39c2 443d b401 423d 8765 be3c
000003e0: 2c0b 08be a043 67bd 3bcd 363e 355c 853c
000003f0: df69 98be 1142 7fbe f83c 183e c188 b9bd
-0.5853532 -0.2524264 -0.018934187 1.0159305 -0.27671435 -0.0006768426 1.0085226 -0.11915954
0.30324987 -0.2693159 -0.13090394 0.43409413 -0.009052975 -0.012807547 -0.31199592 0.06349405
0.040427797 0.8003244 0.27906862 -0.05184667 -0.2556716 -0.19470908 -0.6588226 -0.27502456
0.03524663 -0.39984858 -0.41740727 0.3572181 -0.13956793 0.32802612 -0.11126886 0.013806782
1.0071986 0.039822128 0.02648871 0.823648 0.05056088 0.014673938 0.6478034 -0.0123885
-0.020557655 0.07819599 -0.28478587 0.0049350094 0.36214972 0.36654425 -0.026323777 0.65082985
0.004499806 -0.011057546 -0.43544018 -0.040275313 0.022315204 0.7966191 -0.0024392812 0.0734897
0.11302812 0.023146804 -0.030532448 0.02340792 0.0018974403 0.1850289 0.5489509 0.015928296
0.5651914 -0.0141334925 1.1696519 0.55002105 0.4576245 0.68337154 0.4561136 0.31209493
-0.007797014 0.6581297 -0.39430797 0.5515271 -0.33722326 0.11337319 -0.030507341 0.38730872
-0.114157885 -0.13898101 -0.65438926 0.39543647 -0.10658042 0.021338284 0.061642658 0.47839856
-0.00037865143 0.44238418 0.029737618 0.050656036 -0.016189259 0.95873094 -0.058971304 0.44490638
0.9476837 -0.08376276 -0.43781364 0.66142774 0.41706413 0.415013 0.0139177255 0.00071371533
0.532684 0.47551024 0.036760833 -0.04271834 -0.5507703 -0.02474134 -0.038030177 -0.088385336
-0.05163763 1.1984575 0.32280028 -0.2991719 -0.016517077 -0.024343409 -0.5097406 0.016013177
1.5636799 1.2164627 0.6890236 0.18113166 0.32814884 0.3571727 -0.11157581 0.11007066
0.24730529 0.21375686 0.016457345 -0.37647358 0.10119133 -0.013383195 -0.17999776 -0.019131413
-0.20813788 0.1688709 0.18440881 -0.12068786 0.030274678 0.03547155 0.20689783 0.12078036
0.06623885 -0.16250488 -0.23273614 0.08373445 0.23026223 0.18144174 0.044677764 0.17099169
0.058445208 0.17596789 0.2699721 -0.26163802 -0.054808598 0.04834905 0.02009864 -0.04875609
-0.25453916 0.04956074 0.15027858 -0.0833066 0.044026993 0.14748988 -0.09292659 0.06898531
-0.03598309 0.16742802 0.071934804 0.042757973 -0.10713245 -0.30715448 0.13058902 -0.14451982
-0.09201885 -0.05830647 0.20271769 -0.062427476 -0.010409884 -0.25504127 0.042341836 -0.018487332
-0.021379622 0.07739061 0.035625976 0.041386355 0.079815425 0.12476283 -0.33859232 -0.0087395515
0.03179111 0.06622849 -0.78913087 -0.03672603 -0.15513022 -0.18554 -0.4576931 -0.33456853
0.22442327 -0.20463951 0.18391424 -0.15863249 0.059571162 0.17297848 0.033462416 -0.17201395
0.22448985 0.0859325 -0.02491677 -0.19187851 -0.12939304 -0.030144468 0.11112471 -0.1220207
-0.008197405 -0.32674742 -0.03779877 0.025281634 0.060842447 -0.12946951 0.04214643 -0.26702031
-0.12601359 0.0504178 0.16915107 0.026235087 -0.17518944 -0.30603585 0.0072145825 0.1261992
-0.110825874 0.08195597 0.03632501 0.060725257 0.31093857 -0.029845826 -0.08014185 0.04561267
0.06558322 -0.2266112 0.08679774 0.21949407 -0.07782056 0.048036788 0.047364905 0.023241771
-0.13285512 -0.056460977 0.17851727 0.01627932 -0.29768273 -0.24927546 0.14867008 -0.09059287

net.2.bias f4 [5]
00000000: aafc ddbc 7448 023d 4be6 3e3c 3f10 03be
00000010: 4f78 4c3e
-0.027098019 0.031807378 0.011651586 -0.12799166 0.19967769
