checkpoints/frogger_policy_baseline.pt (torch, 51747 bytes, 4 tensors)

net.0.weight f4 [128, 90]
0.018792085 -0.025510358 -0.06849034 0.009680425 0.05610393 -0.31680897 -1.0144591 -0.4527374
-0.012912901 -0.0011677615 -0.57338977 -0.5941347 -1.0177112 0.04680838 0.12845838 0.4150775
-0.14244752 -0.7232045 -0.038937803 0.080565944 -0.18472269 1.2138163 -0.56372344 0.09703492
-0.023677507 0.022545805 -0.11842197 0.064496 0.21935315 0.031376198 -0.008666431 0.06979956
-0.033780865 -0.05676573 0.1040469 -0.000931354 -0.26349074 0.09563861 0.33796474 -0.2878229
-0.6911406 0.3337161 0.2030292 0.0661959 0.20233163 0.2106044 -0.20009412 -0.01977206
-0.37765664 0.07392416 0.133954 0.04866189 0.16161948 -0.65134996 0.16573931 -0.06849539
-0.052585177 -0.100587614 -0.07722788 0.104079105 0.042945664 0.16407897 0.02171483 0.15844928
0.084588334 -0.08426883 0.0066824225 0.077076666 -0.002959702 -0.10025804 -0.018891757 0.0464676
0.06387485 0.046010055 0.049903605 -0.024146281 0.1023293 -0.043422576 -0.006181438 -0.06535952
0.047051243 0.05857714 0.06315505 -0.095344596 0.02690639 0.103160925 -0.10128668 -0.080096334
0.050642285 0.09706993 0.085943595 0.0036883403 0.022385139 -0.094219625 -0.0076055285 0.3083999
0.8013968 0.7115536 0.15528753 -0.0153767625 0.6518307 0.68793803 0.6209267 0.13240616
-0.00049276906 0.025249569 0.48922262 0.67071015 0.0050108735 -0.09087925 0.03879561 0.095381126
0.7925637 0.08937339 -0.06449934 -0.07462302 0.40708807 -0.33223066 -0.013594661 -0.008299259
-0.071115 -0.013946991 -0.01684414 -0.056107435 -0.043345675 0.043544576 0.05007636 0.28360328
-0.06119273 -0.03425571 -0.41774347 0.25520208 0.17593545 -0.057271846 -0.094868876 -0.080694646
-0.15005368 0.20195301 -0.070714496 0.07732554 -0.008449061 0.24604955 0.084344015 -0.4580678
0.029300833 -0.06854528 -0.08253687 -0.058193516 -0.04162116 -0.018920055 0.14645027 -0.035894305
0.114869654 0.06167291 0.048270408 0.04152806 -0.043620083 -0.020584228 -0.105022736 -0.0115204295
0.04683755 -0.055439655 0.09911505 0.09640726 0.07143899 0.05433854 -0.09052358 -0.049626194
-0.023814607 -0.03710784 -0.100206815 -0.10408662 -0.07354771 0.08256491 0.02179382 0.06410407
-0.10196321 -0.054139953 -0.05667331 -0.009941793 -0.060690913 -0.0064873765 -0.07663374 0.037933964
-0.06341083 0.054884423 0.0031694667 0.066471644 -0.06745673 0.04259732 -0.026712198 0.10145519
-0.09092602 0.035609283 0.026505359 0.0031993312 0.019270793 2.0815062e-06 0.07024244 -0.007022012
-0.08004884 0.1041883 0.06851619 -0.10203027 -0.07632305 -0.10124868 0.0482257 -0.03125196
0.05484613 0.0025545163 -0.082379505 -0.07139882 -0.012673589 0.098268144 -0.017394647 0.017330421
-0.08880191 0.06507648 -0.10343987 -0.01873287 -0.020162128 0.019766437 -0.121051386 -0.040771544
0.022414435 -0.06681257 -0.13862811 -0.00034802052 0.021165859 -0.081544325 -0.055493426 0.007779548
0.020883976 0.032828886 0.038824182 -0.022973053 -0.081192195 -0.08499708 -0.012279854 -0.08576383
-0.021181114 -0.07274194 -0.035192408 -0.028420364 0.009830512 -0.031739105 0.023613995 0.06720438
-0.059217513 0.1018625 -0.017977912 -0.10225929 -0.03139283 0.01803369 -0.046135724 0.060653403
00000000: dcf1 993c 19fb d0bc aa44 8cbd a59a 1e3c
00000010: 3ccd 653d c934 a2be ccd9 81bf 32cd e7be
00000020: a290 53bc 930f 99ba acc9 12bf 3619 18bf
00000030: 5c44 82bf 25ba 3f3d 988a 033e 0a85 d43e
00000040: c3dd 11be ee23 39bf 3f7d 1fbd c2ff a43d
00000050: f227 3dbe 555e 9b3f 2e50 10bf 3eba c63d
00000060: 55f7 c1bc fbb1 b83c 3887 f2bd 7b16 843d
00000070: 1d9e 603e 5484 003d a5fd 0dbc 12f3 8e3d
00000080: ce5d 0abd 2f83 68bd 8b16 d53d 1c26 74ba
00000090: 42e8 86be 2dde c33d b709 ad3e 865d 93be
000000a0: 97ee 30bf d6dc aa3e e3e6 4f3e b791 873d
000000b0: 0630 4f3e aea8 573e 79e5 4cbe 04f9 a1bc
000000c0: 365c c1be 8d65 973d 3d2b 093e b151 473d
000000d0: 947f 253e dfbe 26bf 91b7 293e 5047 8cbd
000000e0: 8e63 57bd e100 cebd a729 9ebd 6d27 d53d
000000f0: cbe7 2f3d 5104 283e 4de3 b13c 8740 223e
00000100: a63c ad3d 2395 acbd 39f8 da3b 5fda 9d3d
00000110: 8ff7 41bb 1654 cdbd e3c2 9abc cf54 3e3d
00000120: d1d0 823d 0a75 3c3d b967 4c3d 6cce c5bc
00000130: 0692 d13d dfdb 31bd a98d cabb 36db 85bd
00000140: ceb8 403d 95ee 6f3d 6f57 813d 0744 c3bd
00000150: ca6a dc3c 0946 d33d 646f cfbd 8c09 a4bd
00000160: 496e 4f3d 99cc c63d 3203 b03d 15b8 713b
00000170: 0a61 b73c 38f6 c0bd cc37 f9bb 97e6 9d3e
00000180: 5728 4d3f 6028 363f b203 1f3e d1ee 7bbc
00000190: 60de 263f b51c 303f 0df5 1e3f 7b95 073e
000001a0: 2c2d 01ba 2fd8 ce3c 637b fa3e a9b3 2b3f
000001b0: 4132 a43b e61e babd 25e8 1e3d 2e57 c33d
000001c0: 74e5 4a3f 6509 b73d 3b18 84bd f4d3 98bd
000001d0: d96d d03e 231a aabe 24bc 5ebc 9df9 07bc
000001e0: bea4 91bd ec81 64bc b9fc 89bc e9d0 65bd
000001f0: 3c8b 31bd cc5b 323d df1c 4d3d 7334 913e
00000200: 3aa5 7abd b74f 0cbd 79e2 d5be d9a9 823e
00000210: 6c28 343e e295 6abd 9d4a c2bd 3c43 a5bd
00000220: aca7 19be c5cc 4e3e c3d2 90bd da5c 9e3d
00000230: ee6d 0abc 6af4 7b3e 8ebc ac3d dd87 eabe
00000240: 4d08 f03c 7861 8cbd 1709 a9bd 535c 6ebd
00000250: f37a 2abd 3bfe 9abc 0ff7 153e e805 13bd
00000260: c840 eb3d bc9c 7c3d 31b7 453d 5419 2a3d
00000270: f9aa 32bd 41a0 a8bc 2916 d7bd 2fc0 3cbc
00000280: bbd8 3f3d b114 63bd d5fc ca3d 2b71 c53d
00000290: 9b4e 923d 1792 5e3d 6d64 b9bd d644 4bbd
000002a0: da16 c3bc 64fe 17bd 3b39 cdbd 5e2b d5bd
000002b0: 2fa0 96bd cb17 a93d f488 b23c ff48 833d
000002c0: 16d2 d0bd dbc1 5dbd 4622 68bd e7e2 22bc
000002d0: 0997 78bd 0f94 d4bb 26f2 9cbd a560 1b3d
000002e0: 8add 81bd 7dce 603d d4b6 4f3b 4922 883d
000002f0: c126 8abd 877a 2e3d 8ad3 dabc bdc7 cf3d
00000300: 6c37 babd 0adb 113d c421 d93c dfab 513b
00000310: c8dd 9d3c 01b0 0b36 45db 8f3d e818 e6bb
00000320: a5f0 a3bd ad60 d53d 3752 8c3d 3ff5 d0bd
00000330: 424f 9cbd 785b cfbd 5088 453d 0e02 00bd
00000340: 56a6 603d ac69 273b 96b6 a8bd 8b39 92bd
00000350: e3a4 4fbc cf40 c93d 387f 8ebc 87f8 8d3c
00000360: c7dd b5bd d146 853d 48d8 d3bd ad75 99bc
00000370: 0c2b a5bc 39ed a13c cae9 f7bd 1000 27bd
00000380: 7a9e b73c 07d5 88bd 87f4 0dbe 8676 b6b9
00000390: 0664 ad3c b600 a7bd 134d 63bd 94eb fe3b
000003a0: df14 ab3c 9577 063d 1b06 1f3d fc31 bcbc
000003b0: 1848 a6bd f312 aebd 7131 49bc f2a4 afbd
000003c0: 0484 adbc baf9 94bd ea25 10bd d3d1 e8bc
000003d0: 2810 213c dd00 02bd 2372 c13c 73a2 893d
000003e0: 108e 72bd 499d d03d 6a46 93bc 526d d1bd
000003f0: c595 00bd 64bb 933c d0f8 3cbd b46f 783d

net.0.bias f4 [128]
0.026261857 0.060204126 -0.13915224 -0.10137398 -0.028406208 0.0062870067 0.1139795 0.09789235
-0.122481056 0.080781154 0.18227138 0.15623727 0.036950212 0.03509308 0.0064685605 -0.025687234
-0.08171162 -0.059305847 -0.09339717 -0.10213624 0.05645824 0.12183878 0.011932157 0.008184158
-0.038757596 0.014946271 0.08651812 0.17428169 0.06464262 -0.103870094 -0.037598353 0.2424233
0.071249366 0.12970906 -0.03433428 -0.10375028 -0.03800972 -0.00019663184 -0.011435263 0.009662671
0.08010679 0.13022181 -0.08912418 -0.048446607 -0.028638694 0.049030904 0.17271939 -0.091763444
0.099586084 0.050369997 -0.07865865 -0.058062807 0.002305594 0.07950947 -0.028262643 0.11015108
-0.11728094 -0.07819501 0.026617192 -0.04591867 -0.0108515145 -0.0779297 -0.10841682 -0.05073166
-0.10107086 -0.019221602 -0.12692027 0.048608653 0.045899652 0.062410146 0.052266445 0.018074969
-0.067183934 0.11280524 0.07196483 0.006512576 0.00074370997 0.03769684 -0.07127431 -0.04668079
0.043590184 0.08030048 -0.07448997 -0.0064369706 -0.13994904 -0.10388471 -0.09825549 0.13811399
-0.017593749 0.059575588 -0.046435796 -0.01692297 -0.022039652 -0.028093034 -0.06266636 0.02962788
-0.011152824 0.23956618 -0.046570294 -0.0036249666 0.12224327 -0.09770884 0.061346564 0.00683269
0.06689678 -0.044844467 0.12985915 -0.030662026 -0.1213585 0.080540195 -0.0094206305 -0.01945442
0.06097123 -0.046081144 -0.05350408 0.032723263 0.00012628912 -0.03452173 -0.03180425 0.13525398
0.13345154 -0.027157761 -0.035129867 -0.003287621 0.25975615 -0.0563856 0.041961126 -0.08161304
00000000: 1b23 d73c 9a98 763d ed7d 0ebe 299d cfbd
00000010: 23b4 e8bc 3c03 ce3b 166e e93d c97b c83d
00000020: 59d7 fabd 9770 a53d 59a5 3a3e aafc 1f3e
00000030: 1b59 173d c3bd 0f3d 38f6 d33b 096e d2bc
00000040: 6c58 a7bd b0ea 72bd 0447 bfbd ce2c d1bd
00000050: c140 673d 9c86 f93d 187f 433c d916 063c
00000060: 49c0 1ebd 34e1 743c 6930 b13d e676 323e
00000070: 5a63 843d d8b9 d4bd bb00 1abd d03d 783e
00000080: 30eb 913d 74d2 043e 1aa2 0cbd 077b d4bd
00000090: 15b0 1bbd f52e 4eb9 f85a 3bbc 2e50 1e3c
000000a0: 070f a43d de58 053e bd86 b6bd f36f 46bd
000000b0: b29b eabc a1d4 483d 5add 303e 79ee bbbd
000000c0: caf3 cb3d c550 4e3d c917 a1bd 44d3 6dbd
000000d0: 7319 173b dcd5 a23d 0f87 e7bc e496 e13d
000000e0: fd30 f0bd b524 a0bd 4c0c da3c 3715 3cbd
000000f0: 8dca 31bc 9b99 9fbd a309 debd 00cc 4fbd
00000100: 3dfe cebd 9f76 9dbc 63f7 01be de19 473d
00000110: 4601 3c3d c8a1 7f3d 5715 563d f511 943c
00000120: bb97 89bd 6f06 e73d 4c62 933d 7267 d53b
00000130: 88f5 423a 0068 1a3d 44f8 91bd 5b34 3fbd
00000140: 9f8b 323d 9474 a43d 338e 98bd 39ed d2bb
00000150: cd4e 0fbe 82c1 d4bd 2d3a c9bd c16d 0d3e
00000160: c420 90bc 8805 743d 7633 3ebd 0aa2 8abc
00000170: 808c b4bc 5d23 e6bc 3857 80bd 2bb6 f23c
00000180: 56ba 36bc d650 753e 7ec0 3ebd d990 6dbb
00000190: ae5a fa3d 931b c8bd 8946 7b3d c2e4 df3b
000001a0: 2e01 893d d5ae 37bd ccf9 043e ee2e fbbc
000001b0: ce8a f8bd 42f2 a43d fd58 1abc e05e 9fbc
000001c0: f8bc 793d 95bf 3cbd 1827 5bbd d408 063d
000001d0: 7a6c 0439 a866 0dbd 2c45 02bd 0580 0a3e
000001e0: 85a7 083e f479 debc 56e4 0fbd 2175 57bb
000001f0: c2fe 843e 96f4 66bd 6edf 2b3d bd24 a7bd

net.2.weight f4 [5, 128]
-0.31048858 0.2673492 0.04001924 0.058803044 0.47697884 0.16983077 0.07493076 0.4254866
-0.072578445 0.42384708 0.3194627 0.20205349 -0.032670435 0.443788 0.34474847 0.13089281
0.072596185 0.0077831675 0.55052656 0.6919994 0.41624922 0.5344732 -0.017384341 0.19705209
0.4055626 -0.02620486 0.17351456 -0.37341943 0.6229732 0.7760184 0.45009094 -0.51839864
0.22455412 -0.31387374 -0.49164724 0.08185379 0.49008963 0.40851542 -0.030080976 0.37995672
-0.20254768 0.46658698 -0.06048314 0.42233682 0.3036528 0.7211995 -0.23577675 0.06815577
0.3058073 -0.42823133 -0.06342659 -0.06449802 0.6302301 -0.4505257 -0.57394964 -0.34959614
-0.005502271 -0.288741 0.6630217 0.24585067 0.059747834 0.23282427 0.08070802 0.8106051
0.012501126 0.041738074 0.028351685 -0.26143944 0.41936013 0.6015351 -0.082026914 -0.039784174
0.022531126 0.31210676 0.5228897 0.42042902 0.0012851431 0.44900185 -0.032129873 0.34670827
-0.20628317 0.4440818 0.5383511 0.035654627 0.006019493 0.02963305 -0.004525649 0.22980765
0.81839323 0.03706981 0.2033404 0.5066801 -0.050720163 0.43174812 0.13444263 1.1678258
0.50551695 -0.4899754 0.83983105 0.41940153 0.40454718 0.9485808 0.5891046 0.69593716
0.41611487 0.46944705 0.65658057 0.004144205 -0.056917783 0.6456182 0.9122264 0.41528693
0.49067515 0.031815685 0.2639891 0.4110489 0.70499665 0.27121925 0.53286713 0.3876333
-0.25832924 0.38498 -0.055774894 0.6194262 -0.30829516 0.47532478 0.3033116 -0.26254234
-0.1631691 0.1417339 -0.02730551 0.018658428 0.17990793 -0.17032139 -0.10794182 0.0888782
0.061417624 -0.11224087 -0.16408657 -0.12465663 0.044117395 0.15346952 -0.023590079 0.0067589316
-0.047540788 0.034729324 0.12390904 -0.065664135 0.14706944 0.06272457 0.073152594 0.2612444
0.21387245 0.07231166 -0.08167064 -0.20451266 0.0145101305 0.16669792 0.05324403 -0.021708375
-0.16750894 0.1674117 0.11822669 0.00797529 -0.01873386 -0.27122992 -0.061354082 -0.2155574
0.054953847 -0.049193945 0.102988236 0.23232864 -0.03574453 0.035638 0.06654769 0.031876486
0.04226761 0.061075132 0.019483918 -0.004665989 0.023559699 -0.012773921 0.06153066 0.15631652
-0.055575795 0.17275414 -0.37432462 0.14495185 0.07448096 0.004119449 0.0100271925 0.18810977
-0.00023968967 0.011647064 -0.013066197 -0.058511138 0.15010361 -0.35914207 -0.06124511 -0.07004155
0.038031816 0.05536523 0.09527906 -0.42706278 0.016103245 0.026096452 0.06699641 0.13830565
-0.024561856 -0.2654169 0.06004429 0.062154584 -0.06807295 0.054037377 -0.047996078 -0.16360518
-0.034843106 0.0092898365 -0.16661595 -0.08521608 -0.030086314 0.027868249 -0.25103214 -0.61130595
-0.37154502 0.10840609 0.05306192 0.18686776 -0.019185763 -0.06806589 -0.22923891 -0.446977
-0.054554302 -0.1694594 -0.32225436 -0.046697043 -0.007972305 -0.39510205 -0.023864957 -6.3617175e-05
-0.2948494 -0.018901674 -0.044393264 -0.10341987 0.08635942 -0.027982837 -0.32689625 -0.23399125
0.15694028 -0.18470234 -0.094150275 0.17225282 0.06427033 -0.03863698 -0.11269648 0.025576578
00000000: 5cf8 9ebe ffe1 883e 37eb 233d 76db 703d
00000010: 9236 f43e 1ee8 2d3e 4c75 993d 61d9 d93e
00000020: 02a4 94bd 7c02 d93e 9d90 a33e 1ce7 4e3e
00000030: 6fd1 05bd 2e38 e33e df82 b03e c408 063e
00000040: 4fad 943d f109 ff3b 4fef 0c3f df26 313f
00000050: 9e1e d53e 3cd3 083f 9b69 8ebc 06c8 493e
00000060: e7a5 cf3e 93ab d6bc cdad 313e d530 bfbe
00000070: 2c7b 1f3f 24a9 463f 5272 e63e c6b5 04bf
00000080: 84f1 653e 0fb4 a0be 30b9 fbbe f6a2 a73d
00000090: 07ed fa3e ef28 d13e 616c f6bc b089 c23e
000000a0: a968 4fbe 7de4 ee3e 2bbd 77bd 883c d83e
000000b0: 6178 9b3e 88a0 383f 766f 71be 4195 8b3d
000000c0: c692 9c3e 2341 dbbe cde5 81bd 8a17 84bd
000000d0: c356 213f 4eab e6be 5dee 12bf 44fe b2be
000000e0: 654c b4bb dcd5 93be cabb 293f 47c0 7b3e
000000f0: 25ba 743d 7c69 6e3e 3f4a a53d d183 4f3f
00000100: 86d1 4c3c 8bf5 2a3d cb41 e83c 64db 85be
00000110: 5fb6 d63e 34fe 193f bafd a7bd bbf4 22bd
00000120: 3293 b83c 75cc 9f3e 19dc 053f 7942 d73e
00000130: 3f72 a83a 92e3 e53e 9d9a 03bd bf83 b13e
00000140: e53b 53be b15e e33e 61d1 093f 960a 123d
00000150: 2b3f c53b 03c1 f23c e54b 94bb b252 6b3e
00000160: 3882 513f 83d6 173d 7738 503e c9b5 013f
00000170: f2bf 4fbd 170e dd3e 54ab 093e 517b 953f
00000180: 8f69 013f 0ede fabe 2bff 563f ccbb d63e
00000190: cf20 cf3e 31d6 723f 8fcf 163f f028 323f
000001a0: 020d d53e 5d5b f03e aa15 283f 1ccc 873b
000001b0: 9f22 69bd 3c47 253f ab87 693f 7da0 d43e
000001c0: c639 fb3e 2a51 023d 9429 873e 0075 d23e
000001d0: a97a 343f 40dd 8a3e fb69 083f df77 c63e
000001e0: bb43 84be 191c c53e 3774 64bd b792 1e3f
000001f0: ddd8 9dbe c55d f33e a84b 9b3e f36b 86be
00000200: cd15 27be b122 113e ceaf dfbc 8fd9 983c
00000210: c939 383e bb68 2ebe 9a10 ddbd c605 b63d
00000220: 0c91 7b3d 8bde e5bd 4f06 28be fa4b ffbd
00000230: 71b4 343d 1d27 1d3e fb3f c1bc 077a dd3b
00000240: 21ba 42bd 5640 0e3d 06c4 fd3d eb7a 86bd
00000250: 5f99 163e bd75 803d 07d1 953d d3c1 853e
00000260: 6101 5b3e 2318 943d f042 a7bd c46b 51be
00000270: e6bb 6d3c dcb2 2a3e 6916 5a3d c3d5 b1bc
00000280: 7787 2bbe f96d 2b3e d620 f23d caaa 023c
00000290: c177 99bc a6de 8abe 6b4e 7bbd 14bb 5cbe
000002a0: 4917 613d 977f 49bd 7feb d23d 8fe7 6d3e
000002b0: db68 12bd 27f9 113d 284a 883d eb90 023d
000002c0: cd20 2d3d eb29 7a3d bd9c 9f3c 27e5 98bb
000002d0: 4500 c13c b549 51bc 9307 7c3d 7011 203e
000002e0: 72a3 63bd 76e6 303e 7aa7 bfbe 426e 143e
000002f0: 7989 983d 71fc 863b 1849 243c d99f 403e
00000300: 3555 7bb9 54d3 3e3c 9a13 56bc 60a9 6fbd
00000310: c3b4 193e 78e1 b7be 27dc 7abd f271 8fbd
00000320: 40c7 1b3d a7c6 623d ab21 c33d f9a7 dabe
00000330: f4ea 833c 3ac8 d53c 6a35 893d ff9f 0d3e
00000340: f235 c9bc b9e4 87be 00f1 753d ce95 7e3d
00000350: d569 8bbd 4c56 5d3d 8997 44bd 1e88 27be
00000360: a5b7 0ebd 6634 183c 5f9d 2abe c585 aebd
00000370: 9377 f6bc f44b e43c 4987 80be 8c7e 1cbf
00000380: 263b bebe 0304 de3d 7557 593d 435a 3f3e
00000390: 762b 9dbc 2166 8bbd 9bbd 6abe 2bda e4be
000003a0: 5574 5fbd c486 2dbe 86fe a4be 6645 3fbd
000003b0: 459e 02bc d14a cabe 7180 c3bc 366a 85b8
000003c0: 80f6 96be afd7 9abc b6d5 35bd cccd d3bd
000003d0: 35dd b03d 433c e5bc f25e a7be 679b 6fbe
000003e0: f4b4 203e 9c22 3dbe dcd1 c0bd 0b63 303e
000003f0: 2aa0 833d cf41 1ebd 69cd e6bd f985 d13c

net.2.bias f4 [5]
-0.12049902 0.035067447 0.03154412 -0.27755556 0.15529442
00000000: 31c8 f6bd e2a2 0f3d 6834 013d c31b 8ebe
00000010: 8005 1f3e
