checkpoints/frogger_policy_0.90.pt (torch, 51797 bytes, 4 tensors)

net.0.weight f4 [128, 90]
0	0x3cdfc1e5	0.027314136
1	0x3d7a4611	0.061101977
2	0xbd0821b6	-0.033235274
3	0x3d8727b1	0.065993674
4	0x3d97df6f	0.074156635
5	0xbda557c2	-0.08073379
6	0x3e507020	0.20355272
7	0x3da0d493	0.07853045
8	0x3d874c21	0.06606317
9	0x3dc50559	0.096201606
10	0x3f09a638	0.53769255
11	0xbdbefd97	-0.09325712
12	0xbe7760e2	-0.24158052
13	0xbd1582ec	-0.03650181
14	0x3d93eb84	0.072226554
15	0xbeec74fb	-0.46183
16	0xbec1dbf4	-0.37863123
17	0xbe178876	-0.1479815
18	0xbd72879b	-0.059211355
19	0xbd818c8b	-0.063256346
20	0xbe69dc9e	-0.22838065
21	0xbf892c5c	-1.0716662
22	0x3cb06248	0.02153124
23	0xbe748880	-0.23880196
24	0x3c537800	0.012907028
25	0xbe29bc01	-0.16575624
26	0xbe9d0cc6	-0.30673808
27	0x3ef3bd86	0.47605532
28	0x3c3a4882	0.011369826
29	0x3dab3cbd	0.08361194
30	0xbcb313fd	-0.021860117
31	0xbd16a072	-0.036774106
32	0x3cc30246	0.023804795
33	0xbca61e1a	-0.020278025
34	0x3db8ec0b	0.090293966
35	0x3cc4911a	0.023994971
36	0x3e83dac7	0.2575285
37	0xbe6295ee	-0.22127506
38	0x3d80a87d	0.062821366
39	0x3e2e71d1	0.17035605
40	0x3f7ecb3c	0.9952886
41	0xbda00d60	-0.07815051
42	0xbe2f66a3	-0.17128997
43	0xbc7df4eb	-0.0155002875
44	0xbdbb742a	-0.09153016
45	0x3d7b401a	0.06134043
46	0x3e210804	0.15725714
47	0xbdcc337b	-0.099707566
48	0x3e7ee6ab	0.2489268
49	0xbdf379ea	-0.11888488
50	0xbe0acea5	-0.13555391
51	0xbc94f8af	-0.018184988
52	0xbe28a522	-0.16469243
53	0x3f657e18	0.8964553
54	0xbdaa1718	-0.08305186
55	0xbb3839ca	-0.0028110617
56	0xbd46942c	-0.04848115
57	0xbd88db7b	-0.066824876
58	0xbac5aac5	-0.00150808
59	0x3d810d5d	0.06301377
60	0x3d6fe9d3	0.0585726
61	0x3cb26acb	0.021779438
62	0xba1b1ef4	-0.0005917393
63	0x3dbda33b	0.09259649
64	0x3d846595	0.06464688
65	0xbd437ab4	-0.04772444
66	0x3daf8a6c	0.08571324
67	0xbdccce8b	-0.100003324
68	0xbd8e2d8f	-0.06942283
69	0xbd55eae0	-0.052225947
70	0xbdb26891	-0.08711351
71	0x3b15f05c	0.002287886
72	0x3dd6ecf0	0.10494411
73	0xbda15dcc	-0.078792185
74	0x3b63a45a	0.0034735412
75	0x3db97770	0.09055984
76	0x3dbaf9d9	0.09129686
77	0x3dacc7ba	0.08436532
78	0x3d321e0e	0.043485694
79	0xbcddce55	-0.027075926
80	0xbdcbcde5	-0.09951381
81	0x3d9e3278	0.0772447
82	0xbdc0bd27	-0.09411078
83	0xbd36bb6e	-0.04461234
84	0xbd5ecc29	-0.05439392
85	0xbd4de518	-0.05026731
86	0x3d1a5884	0.03768207
87	0x3d3dbb4f	0.04632121
88	0xbd186f8c	-0.037215754
89	0xbd890a20	-0.06691384
90	0x3d7dbe45	0.061949033
91	0xbdc3a094	-0.09552112
92	0xbd0467c8	-0.032325536
93	0xbd5ec28e	-0.05438476
94	0x3c3ceefc	0.011531588
95	0x3dd1774c	0.10227832
96	0xbd520d99	-0.0512825
97	0xbba10cb1	-0.004914843
98	0xbcfab4d3	-0.030603802
99	0xbd50eca5	-0.05100693
100	0x3db33782	0.08750822
101	0x3cf01206	0.02930547
102	0xbd60f530	-0.05492133
103	0xbd9c52c5	-0.076329745
104	0xbdae13cd	-0.084998704
105	0xbd91fea7	-0.07128649
106	0x3e354cd5	0.1770509
107	0xbcb42d75	-0.021994332
108	0xbdcf8b32	-0.10133971
109	0x3d381eb3	0.044951152
110	0x3cb2c9b7	0.0218247
111	0x3d0c6f1a	0.034285642
112	0x3d3c0965	0.045907397
113	0xbdd8bb68	-0.1058262
114	0x3daf0443	0.08545735
115	0xbd8fd3a9	-0.07022793
116	0xbd96944d	-0.07352505
117	0xbe0315f5	-0.12801345
118	0x3c808554	0.015688576
119	0x3d580ff0	0.052749574
120	0x3d83eec3	0.064420246
121	0xbd847db0	-0.064692855
122	0xbd8fdff5	-0.07025138
123	0x3c420df6	0.011844149
124	0xbdab1e57	-0.08355396
125	0xbaa8e3b4	-0.0012885244
126	0xbde97daf	-0.11400925
127	0xbd83633e	-0.06415413
128	0xbda2711a	-0.07931729
129	0xbdf67e10	-0.12035763
130	0xbdc267b5	-0.09492437
131	0xbdbc02d8	-0.0918023
132	0x3c023f65	0.007949685
133	0xbdca88db	-0.09889384
134	0xbdcf8a2b	-0.10133775
135	0x3c2c4ca9	0.010516324
136	0xbda76532	-0.08173598
137	0x3c1aa757	0.009439311
138	0x3d6954e5	0.056965727
139	0xbdaad79d	-0.08341906
140	0xbd8f975f	-0.070112936
141	0x3daad94e	0.08342229
142	0xbb5d7234	-0.0033789994
143	0xbd9c9d4b	-0.07647189
144	0xbcbc95f9	-0.023020731
145	0x3cd2f3e7	0.025751067
146	0xbdb27b42	-0.08714916
147	0x3d8f47b7	0.069961004
148	0xbd48eecc	-0.04905586
149	0x3c770864	0.015077684
150	0xbdfe6f72	-0.124236
151	0x3d30bbf6	0.043148004
152	0x3a60fd2c	0.00085826474
153	0xbdfd8e80	-0.12380695
154	0xbd96837c	-0.073492974
155	0xbdc98378	-0.09839529
156	0x3db27889	0.087143965
157	0xbdd255e7	-0.10270291
158	0x3d691fb1	0.05691499
159	0xbc45de50	-0.012076929
160	0x3b69c5af	0.0035670807
161	0x3db0b86c	0.08628926
162	0xbc9386ed	-0.018008674
163	0x3ca4b434	0.020105459
164	0x3d222bd1	0.039592568
165	0xbc4975b1	-0.012296126
166	0x3d8fd438	0.070228994
167	0xbce70d09	-0.028204458
168	0xbdc16956	-0.09443919
169	0x3bdc925e	0.0067313155
170	0x3dc086f2	0.09400739
171	0x3d4a81a1	0.04944003
172	0x3da01c62	0.078179136
173	0x3d684d92	0.0567146
174	0x3d9234a4	0.07138947
175	0x3dce57ef	0.10075366
176	0x3d26477c	0.040595517
177	0xbd94dbc6	-0.07268481
178	0xbd8fa2ed	-0.070134975
179	0xbd9fc5b9	-0.078013845
180	0x3c908a0c	0.01764395
181	0x3d65c468	0.05609551
182	0x3dad5dee	0.08465181
183	0xbd27c01d	-0.040954698
184	0xbd6a360d	-0.057180453
185	0x3dc1fad9	0.094716735
186	0xbcbbbd5a	-0.022917438
187	0x3c2e9d24	0.010657582
188	0x3dd64e0f	0.10464107
189	0x3c268917	0.010164521
190	0x3d2dae3a	0.042402484
191	0x3dbd7fd0	0.09252894
192	0xbdc0d8f6	-0.09416382
193	0xbd0433ec	-0.03227608
194	0x3cc838b3	0.024441099
195	0x3d9999ac	0.07500014
196	0xbd64df89	-0.055877242
197	0x3d8e905b	0.06961127
198	0xbdaf9a70	-0.085743785
199	0xbd8cf01b	-0.06881734
200	0xbd1c7452	-0.03819687
201	0x3c8d6bb1	0.017263265
202	0x3db357d7	0.087569885
203	0x3d859088	0.06521708
204	0xbd24699a	-0.040139772
205	0xbdc09425	-0.09403256
206	0x3cadf016	0.021232646
207	0x3d22198b	0.03957514
208	0xbd760f81	-0.06007338
209	0x3d101e2d	0.035185028
210	0xbdc3ca77	-0.095601015
211	0x3da0ceb9	0.07851929
212	0x3d260238	0.04052946
213	0x3d37aaa8	0.044840485
214	0x3da4fa77	0.08055585
215	0x3c8d9866	0.017284583
216	0xbd176e40	-0.036970377
217	0xbd1093df	-0.03529727
218	0xbd80343c	-0.06259963
219	0xbd5e7853	-0.05431397
220	0xbc7d3f66	-0.01545701
221	0xbdbcae67	-0.09212952
222	0x3c6b56f5	0.014363994
223	0xbda23fb9	-0.079223104
224	0x3d3ec6ad	0.04657619
225	0x3d17755d	0.03697716
226	0xbd5d2019	-0.05398569
227	0xbd882caa	-0.06649144
228	0x3d30f4b4	0.043202117
229	0xbda9ab93	-0.08284678
230	0xbd63679a	-0.055518724
231	0xbc80515d	-0.015663797
232	0xbdb03260	-0.08603358
233	0xbcfac81c	-0.030612998
234	0xbd1c5141	-0.038163427
235	0x3d69133a	0.0569031
236	0x3dce1baa	0.1006387
237	0x3c326e1a	0.010890508
238	0xbd57e224	-0.0527059
239	0xbd53fe35	-0.051756103
240	0x3d528d09	0.051404033
241	0xbe02b013	-0.1276248
242	0xbcebab06	-0.028768074
243	0xbb2d8d42	-0.0026481901
244	0x3d583367	0.052783396
245	0xbdadd896	-0.08488576
246	0x3d991a7a	0.07475753
247	0x3d7fbec5	0.06243779
248	0x3d9aa033	0.07550087
249	0xbc2ca2f0	-0.010536894
250	0x3dbae2c7	0.091252856
251	0x3d4f44f7	0.05060288
252	0x3cdcc634	0.02694998
253	0x3d9e58cf	0.07731783
254	0xbd620fdf	-0.055190917
255	0xbd46466b	-0.048407

net.0.bias f4 [128]
0	0x3a3abe4a	0.0007123692
1	0x3bbf96fb	0.0058468557
2	0xbddab765	-0.10679511
3	0xbdcdf15f	-0.100558035
4	0xbcba1441	-0.022714736
5	0xbe054c55	-0.130174
6	0x3cc321ae	0.02381977
7	0x3d2b1c17	0.041774835
8	0xbd41b779	-0.047294114
9	0xbe17301a	-0.14764443
10	0xbdd5dc55	-0.104424156
11	0x3cd32b7e	0.025777575
12	0xbbd25bef	-0.0064196507
13	0x3de27b64	0.11058691
14	0xbc0291fe	-0.007969378
15	0xbe41f36e	-0.18940517
16	0xbdf0bac9	-0.117543764
17	0xbcf844ed	-0.030306304
18	0x3d39f018	0.045394987
19	0xbd6a27ea	-0.05716697
20	0x3d380abf	0.044932123
21	0xbdde7235	-0.10861627
22	0x3e09b821	0.13449146
23	0x3a41e692	0.00073967234
24	0xbd62068c	-0.055182025
25	0xbd5b1e81	-0.053495888
26	0xbde86891	-0.113480695
27	0xbcfafd08	-0.030638233
28	0x3cca2f8c	0.024680875
29	0xbdae01a0	-0.08496404
30	0x3ceadd2e	0.02866992
31	0x3d98e8b3	0.07466259
32	0x3b06ad4e	0.0020550075
33	0x3e020400	0.12696838
34	0x3dcda37e	0.10040949
35	0x3d911899	0.0708477
36	0xbce19ab8	-0.027539596
37	0xbc1263f7	-0.008934966
38	0xbd95ce3e	-0.07314728
39	0xbd96e1df	-0.073673
40	0x3e20faba	0.15720645
41	0x3e017e79	0.12645902
42	0xbdb8dd4c	-0.09026584
43	0x3e64a159	0.22327174
44	0xbc6db006	-0.014507299
45	0x3e1993d2	0.14997795
46	0xbd5687f7	-0.05237576
47	0xbdf75757	-0.12077206
48	0x3dac70aa	0.084199265
49	0x3cc6463a	0.024203409
50	0x3ddf5e28	0.10906631
51	0x3d0c8bd7	0.03431305
52	0x3d052447	0.0325053
53	0xbe064b98	-0.13114774
54	0xbe4023fc	-0.18763727
55	0x3e053f02	0.13012317
56	0x3c9ef7e0	0.019405305
57	0xbcf74ae9	-0.030187087
58	0xbe1c3f5a	-0.15258542
59	0xbdf57598	-0.1198532
60	0xbe1779e9	-0.14792599
61	0x3cb86c6f	0.022512643
62	0xbe11bfd2	-0.1423333
63	0xbd9250fa	-0.07144351
64	0xbdf88295	-0.121342815
65	0x3d5cc71b	0.05390082
66	0xbc9d5097	-0.019203467
67	0xbcaa7a29	-0.020810204
68	0x3d884d16	0.06655328
69	0xbd146932	-0.036233135
70	0x3e43eb19	0.19132651
71	0xbdd94f93	-0.10610881
72	0x3e0aaa61	0.13541557
73	0xbd7fcf04	-0.062453285
74	0x3d7a65eb	0.061132353
75	0x3e18a043	0.14904885
76	0xbc801836	-0.015636545
77	0x3ba8093e	0.005128055
78	0x3d50508c	0.050858065
79	0x3db1705e	0.086640105
80	0xbd356fdd	-0.044296134
81	0x3e27398b	0.16330545
82	0xbda2e78e	-0.07954322
83	0x3dd2e402	0.10297395
84	0xbe32ac20	-0.17448473
85	0xbd450070	-0.04809612
86	0x3c886601	0.016650202
87	0x3dc1c86f	0.09462058
88	0x3d077ca1	0.03307784
89	0xbe1296b0	-0.14315295
90	0x3d275824	0.04085554
91	0xbd112d2d	-0.035443474
92	0x3d05935d	0.03261124
93	0xbd8fe66e	-0.07026373
94	0x3bde1c22	0.006778256
95	0xbda9364a	-0.08262308
96	0x3d0e0b67	0.034678843
97	0x3e2fd75d	0.17171998
98	0xbbcf6c9f	-0.0063300873
99	0xbdf3de4b	-0.119076334
100	0x3ddf9fbc	0.10919139
101	0x3dfd432c	0.12366328
102	0xbd82534b	-0.06363543
103	0x3c3c2a22	0.011484655
104	0xbe346d1a	-0.17619744
105	0x3cf92728	0.030414179
106	0xbd882380	-0.06647396
107	0xbe071b43	-0.13193993
108	0x3d36032c	0.04443662
109	0x3da2221c	0.07916662
110	0xbd9b938a	-0.075965
111	0x3dbc5c97	0.091973476
112	0x3e025140	0.12726307
113	0xbdf9da52	-0.121998444
114	0xbdd4439f	-0.1036446
115	0x3c66dc61	0.014090628
116	0x3d2bc454	0.04193528
117	0xbdba188a	-0.09086712
118	0xbc305651	-0.010762767
119	0x3d6a8bd9	0.057262275
120	0xbe114294	-0.14185554
121	0xbbec2c89	-0.0072074574
122	0x3dd7809a	0.10522576
123	0x3dc30b71	0.09523667
124	0x3e0564b6	0.130267
125	0x3e14438f	0.14478897
126	0x3de04e9a	0.10952492
127	0xbdd0f29b	-0.10202523

net.2.weight f4 [5, 128]
0	0xbe3fbc02	-0.18724063
1	0xbd26e59d	-0.04074632
2	0xbcd11396	-0.025522035
3	0x3d3aa3cf	0.045566376
4	0x3f060f62	0.5236722
5	0x3d054c92	0.032543726
6	0xbed9cfdc	-0.42541397
7	0x3efe0c3a	0.49618703
8	0x3d7e54e4	0.062092677
9	0xbd297bb0	-0.041377723
10	0xbc09cb35	-0.008410265
11	0xbee25367	-0.44204256
12	0x3f250055	0.6445363
13	0x3f6b44e9	0.91902024
14	0x3fc545e7	1.5411958
15	0xbd1d7317	-0.038439836
16	0x3d601a6d	0.0547127
17	0x3e313b34	0.1730774
18	0xbb1ae8c0	-0.0023637265
19	0xbe3fdec0	-0.18737316
20	0x3f2d586a	0.67713034
21	0x3fb13b76	1.3846271
22	0xbe35d607	-0.17757426
23	0x3cbb8b72	0.022893641
24	0x3f025f69	0.50926834
25	0x3cda647c	0.026659243
26	0x3cb09297	0.021554274
27	0x3c26dfcb	0.010185192
28	0x3f674162	0.9033414
29	0x3d57ddc2	0.05270172
30	0x3f1d7d72	0.6151954
31	0x3f1d2422	0.6138326
32	0x3f0f37fc	0.559448
33	0x3eee4da1	0.465436
34	0x3f506282	0.8140031
35	0x3f4e2a6f	0.805335
36	0xbeb2c5c5	-0.3491651
37	0x3f04da7b	0.51895875
38	0x38df2a6f	0.000106413725
39	0xbbeecc8a	-0.0072875666
40	0xbed458da	-0.41474038
41	0x3e445ace	0.19175264
42	0xb8284465	-4.011802e-05
43	0x3e2c3e72	0.16820696
44	0x3c46d980	0.012136817
45	0x3f8429b2	1.0325224
46	0x3ce2fe48	0.027709141
47	0x3e892571	0.26786378
48	0x3fa0f81e	1.2575719
49	0x3e9e4549	0.30912235
50	0x3e88955b	0.2667645
51	0xbc5410f4	-0.012943495
52	0xbdb00367	-0.08594399
53	0x3cdd889f	0.027042685
54	0x3cd4fd64	0.025999732
55	0x3f2c6ead	0.6735638
56	0xbee0913b	-0.43860802
57	0x3d10c118	0.0353404
58	0xbe0b536b	-0.1360604
59	0x3ec0cea4	0.37657654
60	0xbc9af013	-0.018913304
61	0x3e883b5f	0.26607797
62	0xbd1fa5a3	-0.038976323
63	0xbc9338df	-0.017971454
64	0x3b63db94	0.003476833
65	0xbce4ef62	-0.027946178
66	0xbcf04c1c	-0.029333167
67	0xbb4450fa	-0.0029955492
68	0x3f87a74c	1.059793
69	0x3ea10e65	0.31456295
70	0x3e4c9f38	0.19982612
71	0x3f08654b	0.5327956
72	0xbec4dfcd	-0.38451996
73	0xbd151d1f	-0.036404725
74	0xbe1c2e7e	-0.1525211
75	0x3e5c6805	0.21524055
76	0x3f059d72	0.5219337
77	0xbc1059e7	-0.008810497
78	0x3f35a537	0.7095522
79	0xbe58d258	-0.2117399
80	0x3f284aab	0.65738934
81	0xbe8fff71	-0.28124574
82	0xbccb33ec	-0.024805032
83	0x3ec108e9	0.3770211
84	0xbcfe6755	-0.031055132
85	0x3f2324b1	0.6372786
86	0x3f4503a4	0.7695868
87	0x3deb215a	0.11480971
88	0x3ecf5672	0.4049564
89	0x3d901b4a	0.07036455
90	0x3e51b207	0.20478068
91	0x3d35a929	0.044350777
92	0xbc87dc68	-0.01658459
93	0x3d75aa35	0.059976775
94	0x3ee8a283	0.45436487
95	0xbd6eba0e	-0.058282904
96	0x3f054162	0.5205289
97	0x3f3978c2	0.72449887
98	0x3f394c18	0.72381735
99	0xbce8b513	-0.028406655
100	0xbeccc868	-0.39996648
101	0xbd8a7800	-0.067611694
102	0xbc31e560	-0.01085791
103	0x3f64ffe8	0.8945298
104	0xbc654348	-0.013993092
105	0x3e3ca9a4	0.18424088
106	0x3c12a755	0.008951028
107	0x3f383092	0.7194911
108	0xbc03d0ee	-0.008045418
109	0xbd5acc34	-0.0534174
110	0x3c320ff1	0.010868059
111	0x3f4bf938	0.7967715
112	0x3e765492	0.24055699
113	0xbd292c1d	-0.041301835
114	0xbcde4aa7	-0.027135206
115	0xbd3c57ab	-0.045982044
116	0x3ea358cc	0.31903684
117	0xbd0f33c3	-0.034961473
118	0x3d000dd2	0.03126318
119	0xbd0ad314	-0.033892706
120	0x3cd03bc4	0.025419123
121	0x3d9cd7c0	0.076583385
122	0xbeea6f46	-0.4578802
123	0x3f4979dc	0.7870157
124	0x3ec6e205	0.38844314
125	0x3e8d9f0a	0.276604
126	0x3f5df42a	0.8670069
127	0xbd3f7599	-0.04674301
128	0x3ee33840	0.44378853
129	0xbdc784d9	-0.097421356
130	0xbd25febd	-0.04052614
131	0xbd9b49a8	-0.07582408
132	0xbd95a325	-0.07306508
133	0xbd0c1923	-0.03420366
134	0x3ed46850	0.41485834
135	0x3e1a78fb	0.15085213
136	0x3b84d6af	0.0040539126
137	0x3d9fa179	0.0779447
138	0x3d82cc02	0.06386568
139	0x3ec19975	0.3781239
140	0x3be88c35	0.007096792
141	0x3e6334b8	0.2218808
142	0xbf2b318e	-0.6687249
143	0xbd60f0c9	-0.05491713
144	0x3d56b011	0.052414004
145	0x3eb8b930	0.36078787
146	0x3c7ac7f4	0.015306462
147	0x3ea5e6ff	0.324028
148	0xbd91508b	-0.070954405
149	0xbe0815fc	-0.13289636
150	0x3d5bfea2	0.053709634
151	0x3d5d3bab	0.054011982
152	0xbde572d2	-0.11203541
153	0x3d1fc599	0.039006803
154	0xbdb3adbd	-0.08773372
155	0x3c77bec6	0.0151211675
156	0xbe88c19c	-0.26710212
157	0x3d5b6d77	0.05357119
158	0xbd9b60c1	-0.07586814
159	0xbd7b8c3b	-0.06141303
160	0xbe8c0d42	-0.27353865
161	0xbda8bb73	-0.08238878
162	0xbe31d6f5	-0.17367156
163	0x3d825003	0.06362917
164	0x3e96b4a9	0.29434708
165	0x3dd9834e	0.106207475
166	0x3d4dd327	0.0502502
167	0x3c03c2a8	0.008042015
168	0x3ec270a3	0.3797656
169	0xbcb0704c	-0.021537922
170	0xbd71949f	-0.058979627
171	0xbe27ee6a	-0.16399541
172	0xbd1fa8ad	-0.03897922
173	0xbf1b2b95	-0.60613376
174	0xbc366247	-0.01113183
175	0x3e40f8e6	0.18844947
176	0xbf1c95b0	-0.61165905
177	0xbe2d9089	-0.16949667
178	0xbd5d2c6b	-0.05399744
179	0x3ca845c6	0.020541083
180	0xbc763410	-0.015027061
181	0xbd943493	-0.0723659
182	0xbdf765c3	-0.120799564
183	0xbecd8cd8	-0.40146518
184	0x3e9da467	0.30789492
185	0x3d87b599	0.06626434
186	0xbc0cde5f	-0.008597939
187	0xbd5afb5e	-0.05346238
188	0xbcf3dc87	-0.029768242
189	0xbd3bf63f	-0.045889135
190	0xbd910401	-0.07080842
191	0x3cbfd013	0.023414647
192	0x3d7b8557	0.06140646
193	0xbc9845e3	-0.018588012
194	0xbcde37d4	-0.02712623
195	0x3d0eaf26	0.034835003
196	0xbecff4ee	-0.40616554
197	0xbe550707	-0.20803462
198	0xbccc0b4a	-0.024907727
199	0xbe034ea0	-0.12822962
200	0x3ea0b2a2	0.31386286
201	0x3d886d4e	0.06661473
202	0x3d4978d2	0.04918749
203	0xbd8f3f5d	-0.069945075
204	0x3e12e109	0.14343657
205	0x3d735c7e	0.05941438
206	0x3d616f8f	0.05503803
207	0x3da1f027	0.079071335
208	0xbd25105c	-0.040298805
209	0x3ec0fca8	0.3769276
210	0x3c9bc217	0.019013448
211	0xbe721746	-0.2364169
212	0xbcfe4e7b	-0.031043282
213	0xbe70c594	-0.2351287
214	0xbd892ac3	-0.06697609
215	0xbc94e208	-0.018174186
216	0x3d1a01f3	0.037599515
217	0x3ccc542a	0.024942476
218	0xbed16b10	-0.40901995
219	0x3d334dfd	0.043775547
220	0xbdb784c8	-0.08960873
221	0xbd8a0db8	-0.06740898
222	0xbe89205a	-0.26782495
223	0xbc2af7a0	-0.010435015
224	0xbc9d0cec	-0.0191712
225	0xbeebf27e	-0.46083444
226	0xbccee2d2	-0.02525464
227	0x3c85b0df	0.01631969
228	0x3e853ca8	0.2602284
229	0x3e565312	0.20930126
230	0xbda1e804	-0.079055816
231	0xbeea7cb7	-0.45798275
232	0xbd356027	-0.04428115
233	0x3e2b16ce	0.16707918
234	0x3d09ae0c	0.03361325
235	0x3c9d7e08	0.019225135
236	0xbce37a1b	-0.027768185
237	0x3e344931	0.17606045
238	0x3cfc6145	0.0308081
239	0xbe08b227	-0.1334921
240	0xbe55eff1	-0.20892312
241	0xbd6b0407	-0.057376888
242	0x3d85962d	0.065227844
243	0xbdd140da	-0.102174476
244	0x3e712407	0.235489
245	0xbd4cc1c2	-0.04998947
246	0x3edcf877	0.43158314
247	0x3eaafcb1	0.33395913
248	0xbd132f2d	-0.035933662
249	0xbd336c13	-0.04380424
250	0x3ea63c3c	0.3246783
251	0xbd73ba9b	-0.059504133
252	0x3d61f4a7	0.05516496
253	0x3d4610a6	0.04835572
254	0xbef2d50f	-0.47428176
255	0x3dbb9361	0.0915897

net.2.bias f4 [5]
0	0xbd71981a	-0.058982946
1	0x3e4d89d4	0.20072109
2	0x3d35a821	0.044349793
3	0xbdfed255	-0.124424614
4	0x3e385f6d	0.18005152
