checkpoints/frogger_policy_0.83.pt (torch, 51797 bytes, 4 tensors)

net.0.weight f4 [128, 90]
000000 5c 81 02 bc 49 1f 61 3d b3 e7 1d 3d 72 c2 88 bc
       -0.007965412 0.054961476 0.038551044 -0.016694281
000010 01 c1 bf bd e5 63 15 3f 45 f9 2d 3f a8 70 81 3f
       -0.093629844 0.5835555 0.6795848 1.0112505
000020 ea 56 32 3e 61 2b b9 bc e2 40 cd 3e 41 5f 4b 3f
       0.17415968 -0.022603692 0.40088564 0.7944222
000030 c2 64 89 3f e1 31 4c be 72 b6 8a bd 5c 46 d1 bb
       1.0733874 -0.19940902 -0.0677308 -0.0063865613
000040 7a 5a 0d 3f f7 fa 6a 3f 47 19 e1 3c 23 21 cf 3d
       0.5521618 0.9178919 0.027477873 0.10113742
000050 c1 97 54 3e fb f0 41 be ce 2f 1d 3f 14 f5 a0 3d
       0.20761015 -0.18939583 0.6140107 0.07859245
000060 e6 00 0c be 31 9d ab 3b 66 e1 7e 3e 1f e5 77 bf
       -0.13672218 0.0052372445 0.2489067 -0.96833986
000070 e2 ef 97 be dd fd 26 3d b8 46 d6 3d af 83 9e bd
       -0.29675204 0.040769447 0.10462707 -0.077399604
000080 9d b2 b7 bd b3 d8 09 bc 5f d5 02 bd 24 31 15 3e
       -0.08969615 -0.0084134815 -0.031941768 0.14569527
000090 2c b0 4e bd 0e 23 89 3e b7 1d 91 be f6 c1 c7 3d
       -0.05046098 0.26784557 -0.28342983 0.09753792
0000a0 5b ba da bd 26 b1 1b 3e 9d 63 9d 3d 16 fe 41 3e
       -0.10680076 0.15204296 0.07685015 0.18944582
0000b0 57 ec 1d 3e 3a 9f 40 be da 8d 83 3d 5b b7 88 3d
       0.15422188 -0.1881074 0.064235404 0.06675597
0000c0 b7 8d 5c 3e 1a ea ee 3d 8d 43 29 3e a7 9a 5e 3e
       0.21538435 0.11665745 0.16529675 0.21738683
0000d0 92 3a 13 bd b4 f5 48 be fb fc 1c 3e 25 9f 4d 3d
       -0.03594453 -0.19624978 0.1533088 0.0502006
0000e0 b8 27 5d 3d 66 8e e5 3b 16 2b a7 bd 04 0f db bc
       0.053992957 0.0070055006 -0.08162515 -0.026740558
0000f0 10 67 b6 bc c7 9b 87 3d 30 bd fc bc bd b0 f4 3d
       -0.02226594 0.06621509 -0.03085193 0.11947773
000100 5e 79 d6 bc 0d 8a c4 bd 50 72 be bc 89 7d d4 3d
       -0.02618092 -0.095966436 -0.023247868 0.103755064
000110 ce 33 80 ba da 34 af bc 8b a2 4a bd 48 53 bb bd
       -0.0009781064 -0.021387506 -0.04947142 -0.09146744
000120 fe b4 b8 3d fa 9f d2 bd 01 27 b1 3d 77 ec b6 bd
       0.090188965 -0.10284419 0.086500175 -0.08931821
000130 ec 6d 24 bd ce 7d 54 bd 23 f9 af bd 41 0a e8 bc
       -0.040143892 -0.05187779 -0.08592441 -0.028325202
000140 34 3a 9d bd 25 30 51 3d a2 c3 7e bd ed 5f ab bd
       -0.07677117 0.051071305 -0.06219829 -0.08367906
000150 26 f5 b5 3d ac 2b 5c 3d e8 6c 27 3d 07 9e ce bd
       0.08884649 0.053752586 0.040875345 -0.10088735
000160 5f aa cd 3c af 33 3e bd 55 c4 9e bd 17 1e 04 bc
       0.025105653 -0.046436008 -0.07752291 -0.008063815
000170 89 ce 94 3d d1 29 bb bd aa 24 87 bc 19 d5 54 be
       0.07265956 -0.09138835 -0.016496975 -0.20784415
000180 10 41 d8 be fc c7 e2 be 1e 28 6b 3d 40 88 ab 3d
       -0.4223714 -0.442932 0.057411306 0.08375597
000190 4d fb f6 be 1f 34 a8 be 15 fd 2b bf ac 62 83 3d
       -0.48238602 -0.32852265 -0.6718305 0.064153045
0001a0 54 4e c6 3b 1a 44 24 be 41 4d c3 be 2e 3d ca be
       0.006051818 -0.16041604 -0.38144878 -0.394998
0001b0 cb 4c 9d 3c 94 5c bf 3d 36 e5 a5 be 1d d4 cf 3e
       0.019201657 0.0934383 -0.32401437 0.40591517
0001c0 fb ae 22 3d 0b f0 80 3e 25 14 78 3d 16 65 12 be
       0.039717656 0.25183138 0.060566086 -0.14296374
0001d0 a8 2a b8 be 1c b3 30 bd 5c 86 83 3e da a6 17 be
       -0.35970044 -0.043139562 0.25688446 -0.14809743
0001e0 73 49 09 bc 09 2e b6 bc 14 37 30 bd cb ff 8e bb
       -0.008379328 -0.022238748 -0.043021277 -0.004363989
0001f0 b8 ba b3 bd 29 a3 8f bd 75 4c 3c be 56 bc 5d 3e
       -0.08775848 -0.07013542 -0.18388541 0.21653876
000200 28 86 ad bd 03 0e 86 3d 4f b6 86 3e f4 b4 81 be
       -0.08472854 0.06545641 0.26310965 -0.2533337
000210 2d 52 ca bd 61 43 50 be af 5d fa 3c 8d 05 03 3b
       -0.09878955 -0.20338203 0.03056225 0.0019992322
000220 c7 8b 81 bd fe e6 80 bd 7d f6 aa bb 67 ea 82 be
       -0.063254885 -0.06294058 -0.005217372 -0.2556946
000230 cb 91 d5 bd 28 ef 12 be e0 02 69 be 0c a5 fb 3c
       -0.104281984 -0.14349043 -0.22755003 0.030718349
000240 f7 f5 80 3e 2b e1 97 bd 15 b6 b3 ba 46 ab f9 3c
       0.25187656 -0.07415994 -0.0013710881 0.030477177
000250 f4 05 81 bd 30 ae ee bc 0b d7 62 3d 37 2f 27 bd
       -0.062999636 -0.029135793 0.055380862 -0.040816512
000260 9a 8e c9 3d 5a 21 95 bd cf 5d 3c bd a7 d6 d0 bd
       0.09841652 -0.07281752 -0.0459879 -0.10197192
000270 fd fb a1 bd 19 16 ac bd e4 47 bb 3d d5 7c d1 3c
       -0.07909391 -0.08402652 0.091445714 0.02557222
000280 5b 61 1c 3d 9c 0e 75 bd 6b ef 05 3c c7 10 8d bd
       0.038178783 -0.059828386 0.0081747575 -0.06887966
000290 54 fe bc bd d9 3c ae bc f4 84 47 bc 02 fa ad bd
       -0.09228197 -0.021269249 -0.012177695 -0.08494951
0002a0 55 ef 36 bd 6f ad 02 bd f7 ab 8a 3c 69 dd c7 3d
       -0.04466184 -0.03190368 0.016927702 0.097590275
0002b0 99 b6 cf bd f7 41 87 3c 41 06 5e bd 15 40 28 3d
       -0.101422496 0.016510947 -0.054205183 0.04107674
0002c0 d5 7d 35 3d b9 b7 96 3d 36 b3 12 3d 57 fb c6 3c
       0.044309456 0.07359261 0.03581544 0.02428977
0002d0 a0 73 ca 39 19 c9 8c 3d f9 f0 bc bd 70 30 bf 3d
       0.0003861459 0.06874294 -0.092256494 0.093354106
0002e0 9f e6 d2 bd 43 23 b8 ba 42 84 ad 3d 11 b3 da bd
       -0.10297894 -0.0014048595 0.08472492 -0.106786855
0002f0 9c be 73 bd 31 2f 02 bc 83 fa da 3d ed ca 86 3d
       -0.05950795 -0.007945822 0.106923126 0.06581674
000300 71 cf b7 3a 7c 2c 60 3c fe 45 87 bd dc 69 16 be
       0.0014023614 0.013682481 -0.06605147 -0.1468882
000310 7a 5e b8 bd c7 25 87 bd 8d bf 45 3d 27 6e 75 bd
       -0.09002395 -0.06599002 0.04827838 -0.059919503
000320 a2 93 26 bd e0 50 73 bd fa c6 30 bd 2a e8 76 3d
       -0.040668137 -0.0594033 -0.04315851 0.060280003
000330 f7 67 22 3c 29 59 cc bd 25 e6 15 3c 8b 28 4c bd
       0.009912482 -0.099779435 0.009149109 -0.049843352
000340 66 b0 34 bb 49 ec a7 3d 64 b4 3e 3d 36 3e 04 bd
       -0.0027570962 0.08199365 0.046558753 -0.03228589
000350 81 bc b7 3d 81 92 c9 bd 24 db 5d bc ea 9a fc bd
       0.08971501 -0.098423965 -0.013541017 -0.12334235
000360 c1 0c bb bd f3 35 37 bb d7 45 7a 3d 4c 95 bc bd
       -0.09133292 -0.002795574 0.06110176 -0.092081636
000370 6a d3 aa bd 46 09 76 bd e7 ec bd 3d f2 2c 21 be
       -0.08341105 -0.060067438 0.09273701 -0.15739802
000380 a2 27 b5 3d 0c 92 49 3d dd 23 ae bd 1a ff c4 bd
       0.0884545 0.049211547 -0.08502934 -0.09618969
000390 22 45 80 bc 4f 41 c1 bc 38 8f e5 3c b4 e8 02 be
       -0.015657965 -0.023590712 0.028022394 -0.12784082
0003a0 2f 06 73 bd 64 5a 49 bd f9 e5 0d 3d 8d 94 11 bc
       -0.05933207 -0.04915847 0.034643147 -0.008885515
0003b0 03 b0 0c bd be 87 69 bd 18 31 99 bd e8 31 d9 3b
       -0.034347545 -0.05701422 -0.07480067 0.0066282637
0003c0 63 6c f3 bd b2 50 e4 bd c8 ef fa bd 86 5b f7 bd
       -0.118859075 -0.11148204 -0.12252766 -0.120780036
0003d0 ef 0e 9d 3b 65 3a a9 3d bb 9f c7 bd 65 48 09 bd
       0.00479304 0.08263091 -0.09747263 -0.033516306
0003e0 ed 9b d3 3a 2a 3a 62 bd e4 00 ae bd c4 97 a0 3d
       0.0016144492 -0.05523125 -0.084962636 0.07841447
0003f0 16 63 68 bd 2d 65 b0 3d 3f 4f 09 3b 08 62 6f bd
       -0.05673512 0.08613048 0.0020951775 -0.0584431

net.0.bias f4 [128]
000000 14 1a 2f 3d b3 c7 6f bd 80 e2 91 bd 5a b1 ab bd
       0.04274948 -0.058540057 -0.071232796 -0.083834365
000010 84 3e 6c 3e 4a 1e c6 bc be 8f 07 be 48 48 f4 bd
       0.23070723 -0.024184365 -0.13238427 -0.11927849
000020 a7 f2 f5 bd 1c 47 6f 3d 54 76 8c bc 68 b3 8a 3d
       -0.12009173 0.058417425 -0.017146267 0.067725
000030 85 18 ef bd ac d8 a7 3d 31 82 4e bd c6 3f 34 bd
       -0.116745986 0.08195624 -0.05041713 -0.04400613
000040 69 40 34 be b8 77 22 bd 06 21 89 bd 73 1f a9 3d
       -0.17602696 -0.039664954 -0.06695752 0.082579516
000050 c2 cc 39 3e 58 d1 7a 3d 46 ab cb bd 6f 99 8b bd
       0.18144515 0.061234802 -0.09944777 -0.068163745
000060 a7 fb be bd cb b7 ae 3b 25 33 77 bd 41 44 0e 3e
       -0.093253426 0.0053319684 -0.06035151 0.13893224
000070 c7 6f 89 bc b2 71 d1 3b dc 52 eb bd d1 26 83 bc
       -0.016776932 0.0063917274 -0.114904135 -0.01600972
000080 0f 3e dc bd ef 3f 86 bd 5c 75 f5 3d b1 43 e6 3c
       -0.10754024 -0.06555163 0.11985275 0.02810845
000090 53 27 9e bd 5b 42 ad 3d 67 62 c8 3d e6 03 17 be
       -0.07722344 0.08459922 0.09784394 -0.14747581
0000a0 bc bb a0 3c 74 87 f6 bc 3b 3b 2f 3e 99 98 1e 3d
       0.019620769 -0.030093886 0.17112438 0.038719747
0000b0 ac 1c d8 3d 81 78 65 bd f4 42 c4 bd 32 20 bd bd
       0.10552344 -0.056023125 -0.09583083 -0.092346564
0000c0 84 3c 79 3c a4 2a f2 3c 07 e8 92 bd 7e 96 8e bd
       0.015212182 0.029561348 -0.07173162 -0.06962298
0000d0 85 79 b0 3d 58 ca 84 bd 7d 61 af 3d 3b bb 43 bd
       0.08616928 -0.064839065 0.08563516 -0.04778598
0000e0 bf 26 a3 3b 08 69 92 bd 0f 45 93 bd 20 70 d7 bd
       0.004978984 -0.07148939 -0.07190906 -0.10519433
0000f0 5a f5 c9 3d 36 8d 75 3d 10 16 12 bd 92 17 ae bd
       0.0986125 0.059949122 -0.03566557 -0.085005894
000100 48 71 20 bd e6 43 11 bd 0d ca 03 be 78 4b ba bd
       -0.039170533 -0.035465144 -0.12870045 -0.09096426
000110 73 40 f8 bd 20 70 50 bd 23 23 2b bd e9 01 22 3d
       -0.12121668 -0.05088818 -0.041781556 0.039552603
000120 46 41 6c 3d df 65 59 bd 46 f2 49 bd b8 33 85 3d
       0.057679437 -0.053075667 -0.049303316 0.06504005
000130 23 6d 34 be 17 36 8e bd 17 c2 a6 bc 8c b8 9f 3d
       -0.17619757 -0.069439106 -0.020356221 0.077988714
000140 f0 e0 d0 3d 42 a5 b8 3d 4b 2a 04 3e a2 7d cb 3c
       0.101991534 0.090158954 0.12906758 0.02484018
000150 63 0a 12 be 10 4b d1 bd f8 47 40 3d 28 35 19 be
       -0.14261775 -0.10219395 0.046943635 -0.14961684
000160 07 ab d1 3d cd 59 bd 3d 6b 9f 34 be b4 dd 83 3d
       0.10237699 0.09245644 -0.17638938 0.06438771
000170 ed 76 e7 bd d9 c3 35 bb 46 83 4d 3e 96 fc ac bd
       -0.1130198 -0.0027735143 0.20069608 -0.084466144
000180 07 f0 43 3e ee d2 bc bc e8 83 14 be 06 8e f7 bc
       0.19134532 -0.023049798 -0.14503443 -0.03021909
000190 09 cf ca bd 02 94 2c 3c af 5d c4 bd 8d 62 b4 3d
       -0.0990277 0.010533335 -0.09588181 0.088078596
0001a0 0f bd 16 3e c8 ea 35 bc fa 97 3b 3e 47 20 fb bc
       0.14720558 -0.0111033395 0.18319693 -0.03065504
0001b0 4e 9c bb 3d 87 c6 9b 3d 27 21 0c 3d 6a 6c 1d 3d
       0.09160672 0.076062255 0.034211304 0.03843347
0001c0 d3 32 fa 3c 06 5f 59 bb 4e 62 79 bd 07 54 03 3e
       0.030541813 -0.003316821 -0.060884766 0.12825023
0001d0 51 fd 99 bd 8b 46 3b bd 60 9b 86 3d a5 b0 9f bd
       -0.075190194 -0.045721572 0.06572604 -0.07797364
0001e0 51 2d b6 bd dd 8b 09 3e b4 77 1c bd c4 fe 00 3d
       -0.08895362 0.1343226 -0.038200095 0.031492963
0001f0 8c 6d 8b 3d 72 52 a5 bd 61 59 a6 3d 0c de 8a 3b
       0.06808004 -0.08072366 0.081225164 0.004237896

net.2.weight f4 [5, 128]
000000 45 1a 20 3f 9b 4d bd bd a9 46 cc bc fd 0a 8f bd
       0.62540084 -0.09243318 -0.024936037 -0.06984518
000010 18 dd b1 be 32 7e 22 bc 1e a2 1c 3e e4 a3 e1 bc
       -0.34738994 -0.009917783 0.15296218 -0.02754397
000020 a5 54 5d 3d aa 77 64 bd 51 8b 92 be 50 a9 a3 3e
       0.0540358 -0.055778183 -0.28621915 0.31965113
000030 bb 80 b8 3e ff 4d b7 3c 60 93 76 be 83 ad 0d be
       0.36035714 0.022376059 -0.24079657 -0.1383572
000040 32 70 1f bc d7 4a da be dd 85 01 3d 50 4e 93 3e
       -0.009731339 -0.42635223 0.031621803 0.28770685
000050 63 3f 0e 3e 04 d5 87 be 4a 26 3c bd 6e af cc bc
       0.13891368 -0.26529706 -0.045934953 -0.024985995
000060 13 8c 81 3f ae 6c f4 3e 7a 69 24 3c f2 d4 29 3f
       1.0120872 0.47739166 0.010034913 0.66340554
000070 15 3a 00 3e 5b e9 94 be 30 a8 3b 3d 37 3e 59 3d
       0.12522157 -0.29084286 0.045814693 0.05303785
000080 b0 a4 02 bd ef e4 d7 3e 40 0a 04 be 1f 8a 2c 3e
       -0.03189534 0.4216685 -0.12894535 0.16849564
000090 96 7d 50 bd 4c 54 a5 3d 3c 11 4e 3f 71 26 d7 bc
       -0.050901018 0.08072719 0.8049505 -0.026263447
0000a0 c4 c1 3d 3f 95 2c e3 be 57 0c 61 3f 0c 66 d4 bb
       0.7412379 -0.4436995 0.87909454 -0.0064818915
0000b0 64 c6 51 3f 96 ee 2c 3d 6e 06 b9 bc 8d f6 98 3f
       0.81943345 0.04221972 -0.022586074 1.1950241
0000c0 5a 77 2f bd 78 87 6a bd 92 a7 75 3d 49 7c 8a 3d
       -0.042838432 -0.0572581 0.05997426 0.06761987
0000d0 33 8e 18 3e 8b e4 aa bd 41 64 a2 be 6f e7 80 3d
       0.14897995 -0.08344372 -0.31717113 0.062941425
0000e0 60 30 48 bd f6 7e af 3f 59 67 50 3f ec b1 e3 3b
       -0.04887426 1.371062 0.81407696 0.0069487
0000f0 7c 19 1c 3f f5 cd 81 bc b1 dc 1e 3d 4e 31 22 3f
       0.60976386 -0.015845278 0.038784686 0.63356483
000100 4e a9 5c 3f 37 1e d3 3e 94 ae 45 bc 43 fc 20 3e
       0.8619584 0.4123399 -0.012065548 0.1572123
000110 c3 95 f6 bc 73 f5 d5 3e d4 92 ee 3e 96 4e b3 be
       -0.030100709 0.41788825 0.46596396 -0.35020894
000120 30 8f 2b bf 88 05 8b bb 83 1b a0 bd 00 4d 54 3e
       -0.6701536 -0.0042426027 -0.078177474 0.20732498
000130 22 ee 65 3d 84 90 ec be 3d 89 7c 3e bd 40 26 3f
       0.056135304 -0.46204007 0.24661727 0.6494253
000140 9d 8a 04 3f 52 74 aa bd 55 da 2f 3f 24 9a 75 be
       0.5177401 -0.083229676 0.68692523 -0.23984581
000150 c2 79 e5 3c de 78 84 3c 0e b4 02 3f 51 39 0b 3d
       0.02801216 0.016170915 0.5105599 0.033990208
000160 bd 91 4b 3f d4 b9 65 3e db e2 16 bb 0a 14 21 3f
       0.79519254 0.22434169 -0.00230234 0.629212
000170 3d 64 11 be 0b 22 84 bc 4c 73 96 be 85 b8 cb 3d
       -0.14198394 -0.016129514 -0.2938484 0.09947304
000180 08 ed 4b bc 28 86 84 bd 85 b1 83 bc ab df fc bd
       -0.012446649 -0.06470901 -0.016075859 -0.12347349
000190 d6 e9 8f 3b 10 a0 f6 bd 6b 75 5c 3f 94 e8 36 3d
       0.004391889 -0.12042248 0.86116666 0.044655398
0001a0 ed 61 25 3d 20 78 69 3f 97 1e ac 3e 27 f7 3c bd
       0.040376592 0.9119892 0.33617088 -0.04613414
0001b0 d5 e5 f3 be f5 4f fa be 96 01 e7 bd dd 26 d2 3e
       -0.47636285 -0.48889127 -0.11279599 0.41045275
0001c0 71 48 87 be 37 7a 37 3f e1 9a b6 3d 66 39 98 3f
       -0.26422456 0.7167086 0.089162596 1.1892517
0001d0 07 0d a0 bc b2 0e 1b 3d d3 b8 0c 3f e8 94 b4 3e
       -0.019537462 0.03785581 0.5496952 0.35269856
0001e0 25 a9 2b bd fe cc cb 3e f3 27 3a 3f a4 2d 1a 3f
       -0.041909356 0.39804834 0.7271721 0.6022589
0001f0 0f 6f f9 3e 2f 09 2c 3e f2 44 d1 3e 0a f3 70 3f
       0.48717543 0.16800378 0.40872914 0.9412085
000200 82 e7 78 be f1 07 a3 3d 67 70 89 3d c5 6a 9d bd
       -0.24307063 0.07960499 0.06710892 -0.0768638
000210 72 24 12 3e d2 15 31 bd 88 a6 35 3e ac 65 b7 bd
       0.14271715 -0.0432337 0.17739308 -0.08954939
000220 de c4 57 bd 53 ba 13 3d 16 99 b5 3d 20 e6 f0 3c
       -0.05267798 0.036066364 0.088670895 0.029406607
000230 62 0b a1 3c 14 6a a3 3e a4 8c 9a 3e ed 6d 15 bc
       0.019658748 0.3191687 0.30185425 -0.009120447
000240 0e b0 3f bd 18 9c bc 3e 52 e7 b4 bc be 41 fa 3d
       -0.04679876 0.3683784 -0.022082958 0.122195706
000250 4b 08 27 bf 0d 21 e4 3d e3 7a 87 bd 2a 29 6c 3b
       -0.6524703 0.111391164 -0.06615236 0.0036035278
000260 ed eb e6 be 9d 35 ba 3c a0 f7 91 bd ee 22 33 bf
       -0.45101872 0.022730643 -0.07127309 -0.69975173
000270 68 32 56 3c de 55 c8 3e 3a 89 21 bd 74 f0 4d bd
       0.013073541 0.3912801 -0.03943751 -0.050278142
000280 44 0d 1e bc b4 41 bc bd e8 fa 56 3d f6 45 c4 ba
       -0.009646717 -0.091922194 0.052485377 -0.0014974463
000290 50 d1 52 3c a5 ec cc bd 10 c9 cb be af ce 14 bd
       0.012867287 -0.10006074 -0.39801836 -0.03632992
0002a0 3f 1e ee bd d3 b6 92 3e 97 90 23 bf 51 d2 63 3c
       -0.11626863 0.2865511 -0.638925 0.013905124
0002b0 5f 95 13 bf 0c c8 e7 3c cc 5d 5e bd c0 4f 11 bf
       -0.576498 0.028293632 -0.05428867 -0.56762314
0002c0 4a d6 23 bd 12 2f cf bd c2 da 8c 3d 17 6f 1a 3c
       -0.039999284 -0.101164 0.06877662 0.0094259
0002d0 ae c3 0f 3e 78 5a b6 bc e6 c2 96 3e 83 ec e3 bc
       0.1403949 -0.022259936 0.2944557 -0.027822739
0002e0 69 cd a6 bc ea 8f 83 be a2 23 fd bd 70 3f 4a 3d
       -0.02036162 -0.25695735 -0.12360312 0.049376905
0002f0 37 b6 eb bd 8a 52 c0 3c 60 6e 1f ba 15 ee 3b 3c
       -0.11509364 0.023476858 -0.0006081816 0.011470337
000300 3f b0 27 be 2d 2a 8c be fb 29 ab bc 60 16 88 bd
       -0.16375826 -0.27375928 -0.020894041 -0.06644893
000310 03 e8 3b 3d 01 35 a2 be e4 b9 7b bd ff e4 55 3e
       0.04587556 -0.31681064 -0.061456576 0.20888136
000320 7b 32 7f 3e 71 e1 96 3d 4a 65 9f bd 86 08 99 3d
       0.249216 0.07367218 -0.07782991 0.07472329
000330 61 0d d3 ba 44 68 ad 3e 05 5a fa be f3 dc c0 3d
       -0.001610201 0.3386861 -0.48896804 0.09417143
000340 38 dc 11 be 68 60 34 3e b6 3a 2c bf 0b 21 19 3e
       -0.14244163 0.17614901 -0.67277086 0.14954011
000350 c5 0f 17 3d 37 87 89 bd 82 8c ad be bd 60 40 bb
       0.036880273 -0.06715243 -0.3389626 -0.0029354536
000360 0b 26 ee be 7a e9 f8 bd 08 de cc 3b 65 4e 3f be
       -0.465134 -0.12153907 0.006252054 -0.18682249
000370 ee 0d a0 3e 64 d2 99 bd 2e 9b 96 3e e6 cc 33 3c
       0.31260628 -0.07510832 0.29415268 0.010974145
000380 4c 41 52 bd 4e 4a 7e bc d4 1a 6d bd 30 b1 01 3e
       -0.051331803 -0.015520645 -0.057886913 0.12665248
000390 68 5a 8c 3d fa 8d 71 3e 46 e4 21 be 6e 2d a9 bd
       0.06853181 0.23589316 -0.15809736 -0.08260618
0003a0 f5 2f 30 be 75 55 a7 bd 2e d3 ef bd b3 4c 8c 3d
       -0.17205794 -0.081705965 -0.11710201 0.06850567
0003b0 14 b0 b7 bc 18 70 bd 3e 6b ad cc 3b d6 ae 1c 3d
       -0.022422828 0.36999583 0.006246259 0.038252674
0003c0 0b ff 98 3e d1 54 2a be e7 c0 96 3b e3 f9 3f bf
       0.29882082 -0.16633917 0.0046006325 -0.7499067
0003d0 4a cf 06 bb 23 d0 74 3d c1 66 dc be 05 37 ea bd
       -0.0020570331 0.059768807 -0.43047145 -0.114362754
0003e0 56 8d c8 bc 19 fb d4 bd 62 aa 43 3e 71 08 6b bd
       -0.024481457 -0.103994556 0.19107965 -0.057381097
0003f0 20 f5 36 3a ce 6c a9 bd 28 69 c3 3a fd 76 fc be
       0.00069792755 -0.08272706 0.0014908658 -0.4930953

net.2.bias f4 [5]
000000 bf ba 4c bd 29 2b d6 3d c1 41 f8 3d e1 c0 f4 be
       -0.049982782 0.10457451 0.121219166 -0.47803405
000010 ad ea 0d 3e
       0.13859053
