checkpoints/frogger_policy_0.97.pt (torch, 51797 bytes, 4 tensors)

net.0.weight f4 [128, 90]
000000 0d 94 98 bd 9e 46 08 bd b0 06 cd bd e6 36 44 3d
       -0.074501134 -0.03327047 -0.10011041 0.047903918
000010 e0 2d af bd db e2 56 bd 1b 81 16 be fe 61 69 bb
       -0.08553672 -0.05246244 -0.14697687 -0.0035611386
000020 fb 35 4d bd b0 df 2c be 9b 07 fa 3c fe 4e b2 bd
       -0.050100308 -0.16882205 0.030521205 -0.08706473
000030 fa 94 00 bf 72 c0 13 be 02 1c 4e bd 87 b8 54 3d
       -0.5022732 -0.14428881 -0.05031968 0.05193379
000040 5b c7 8d be 51 ef fe bd a5 30 2e be 9d 71 1d 3e
       -0.2769116 -0.1244799 -0.17010744 0.15375371
000050 c9 04 f8 b7 34 ff c3 be 59 e5 8b be a6 5c 83 bd
       -2.9566132e-05 -0.38280642 -0.27323416 -0.06414156
000060 4f 3a e9 bd 62 2c 57 3e b0 37 48 3e a5 9c 18 3f
       -0.113880746 0.21013024 0.19552493 0.5961402
000070 1b c1 98 be 97 a5 9b bd 0c 09 81 bd 2d ca 80 bd
       -0.29834828 -0.07599943 -0.06300554 -0.06288562
000080 ce c8 cd 3b f5 4d 7f bd b3 03 3d bb ab f3 4a 3c
       0.0062800413 -0.062330205 -0.0028841316 0.0123871965
000090 2d 6f 36 3e f3 e1 33 3d aa a8 fb bd d2 42 26 3e
       0.17815848 0.043916654 -0.122880295 0.16236427
0000a0 dd 2e 15 3f d5 8d 9d 3d 5b 79 76 bf b0 f3 a9 3d
       0.5827463 0.07693068 -0.96278924 0.08298433
0000b0 32 ed 12 3e 99 1f a5 be 77 38 b8 bd af ef 80 3d
       0.14348295 -0.3225067 -0.08995145 0.06295716
0000c0 8f 77 41 3e 42 d8 4e 3e 57 8f 21 bf 69 2b a2 3d
       0.18893264 0.20199683 -0.63109344 0.07918436
0000d0 4a bf d3 3d 26 a8 cf 3e 54 95 07 3e 90 81 af 3d
       0.1033922 0.40557975 0.13240558 0.08569634
0000e0 dc 0d 33 3d 6c 65 fe 3b 72 26 35 bd da 2a 0b 3b
       0.04371439 0.0077635553 -0.044226117 0.0021235258
0000f0 e9 f0 37 bb 3e 80 08 3e 81 10 03 3d 19 0d d5 bc
       -0.0028067178 0.1333017 0.03199816 -0.026007222
000100 d8 fc f2 bc 2e b7 0d bd d4 8d cf bd ed 0b 8e 3d
       -0.02966158 -0.034598522 -0.101344734 0.069358684
000110 4e 2d 0d bd 6a de 53 3d 12 23 ac bd b3 25 48 3d
       -0.034467034 0.051725782 -0.08405127 0.048864078
000120 15 4e 52 3d e3 06 5a bd 42 97 3a bc 46 c7 36 bd
       0.051343996 -0.053229224 -0.011388602 -0.044623636
000130 ca c9 56 bd 87 97 cf bd e6 fe 43 3d e8 d1 98 bd
       -0.052438535 -0.101363234 0.047850512 -0.074619114
000140 74 82 22 3c 3b 01 ab bc dd 3f 9c 3a 77 c4 bc 3d
       0.009918798 -0.02087461 0.0011920888 0.0921716
000150 60 10 b9 bc 19 93 f0 bc b2 66 11 3d 24 06 11 bc
       -0.022590816 -0.029367017 0.03549833 -0.008851562
000160 c5 aa a6 bc cf 13 99 3d 24 ba 52 3d 88 df 72 bd
       -0.020345101 0.07474481 0.05144705 -0.059295207
000170 fa cc bd 3d ce 74 d6 3c 48 2d bb bc 38 61 d3 bd
       0.09267612 0.026178744 -0.02284874 -0.103212774
000180 b8 10 68 bd ee 76 ac 3c 5e 40 66 3e c9 73 3b 3e
       -0.05665657 0.021052804 0.22485492 0.18305887
000190 7b 14 57 be d2 4a 7a bd 54 76 d5 be 6a 9b d3 be
       -0.21003906 -0.06110651 -0.4169184 -0.4132951
0001a0 f0 51 03 3e 78 94 0b 3d a7 ac 56 3e 4a 26 92 be
       0.12824225 0.034077138 0.20964299 -0.28544837
0001b0 49 f4 ad 3e 56 72 4b bd 99 e9 49 3e cb 59 6c 3f
       0.33975437 -0.049669586 0.19718017 0.92324513
0001c0 82 e4 81 bc 42 fd e1 3d 76 f1 bd bc 93 ef 82 3c
       -0.015856031 0.11034633 -0.023186427 0.015983379
0001d0 c4 8d 04 bf 2f 9e 15 be 4e a0 e7 be 71 bf 0f 3b
       -0.5177882 -0.14611124 -0.4523949 0.0021934176
0001e0 70 a1 8f bc c5 f4 76 bd e5 bb 67 3d f0 60 31 3c
       -0.017533034 -0.060292024 0.056575675 0.010826334
0001f0 db 32 8d 3d ba a8 c1 3d 03 69 a3 be 58 28 51 3e
       0.068944655 0.0945601 -0.31916055 0.20425546
000200 cd 25 58 bd 3f 96 26 be 65 5b 27 bf e2 d4 72 3e
       -0.052770425 -0.16268252 -0.6537383 0.23714021
000210 da 0e 9f 3d 58 b8 b7 3d 6d e2 17 3e 92 e7 39 3c
       0.077665046 0.08970708 0.14832468 0.011346715
000220 8d b2 82 be 51 57 ec 3e 05 1a c5 be 50 70 56 3d
       -0.25526848 0.46160367 -0.38496414 0.052353203
000230 70 b5 b7 3d eb bb ab 3d 89 83 7b 3e 57 b8 4a bf
       0.08970153 0.08385452 0.24561895 -0.7918753
000240 99 a5 52 3e fc 64 10 3d bb 15 9d bd db c9 d9 bc
       0.20570983 0.035252556 -0.076701604 -0.02658551
000250 bd 63 3a bd ce b8 bc 3d 1c 88 06 3e 9e f6 14 bc
       -0.045505274 0.09214936 0.13137859 -0.009092001
000260 d4 5b 13 3e c6 f7 99 bc a7 17 ad 3d 72 84 b4 3d
       0.14390498 -0.018794905 0.08451777 0.088143244
000270 1a 6a 7e bd f5 68 00 bd e7 04 d2 3d f8 f9 e5 bc
       -0.062112905 -0.031350095 0.10254841 -0.028073296
000280 10 2d 36 3c e2 e8 c3 3c 01 22 92 3d ab 78 13 bd
       0.011119142 0.023914758 0.07135392 -0.03600375
000290 5a 57 df bc b7 bf ae bc a2 6c 8d 3d 1b 7e b9 3d
       -0.027263332 -0.021331651 0.06905486 0.09057256
0002a0 31 5e a2 bc 18 ca 57 3c ac 01 d2 bb 52 23 22 3c
       -0.019820305 0.0131707415 -0.0064088907 0.009896116
0002b0 45 d6 b4 bb 10 86 5e 3d ce e2 4a bd d0 b3 9a 3d
       -0.005518707 0.05432707 -0.049532704 0.07553828
0002c0 65 a0 96 3d d0 e2 55 3d cd 2d cf bd 57 d1 d5 3a
       0.073548116 0.05221826 -0.10116158 0.0016312998
0002d0 fd e3 b1 bd 2a 6e 1d 3d 46 0e b6 bd 98 c1 1d 3d
       -0.086860634 0.03843514 -0.08889441 0.038514704
0002e0 ea 4b 85 bd 54 67 07 be ae ce 97 bd f3 e2 9a 3e
       -0.0650862 -0.1322301 -0.07412468 0.30251274
0002f0 39 da 38 3e ab 55 a8 3d 2b 48 ad be db be 94 bd
       0.18051995 0.08219465 -0.33844122 -0.07262965
000300 9d 75 74 3e a9 67 fe bd 98 cb 81 3d 48 1a 49 3e
       0.23872991 -0.12422115 0.063376606 0.19638932
000310 79 c0 a5 3e 5e 3f 51 3d 81 4a c1 bd 26 50 8e bb
       0.32373407 0.051085822 -0.094380386 -0.0043430505
000320 94 76 1f ba 4c c0 ea 3e b1 92 de be a0 95 8a be
       -0.0006083038 0.45849836 -0.43471292 -0.2706728
000330 a0 ea a5 bc 9f 5b 52 3d fc c7 03 bf e7 32 b5 bd
       -0.02025348 0.051356908 -0.51477027 -0.088475995
000340 d4 cc 63 be de 7a aa bd f0 64 ad 3d c4 54 63 3d
       -0.22246104 -0.08324216 0.08466518 0.05550076
000350 e3 91 53 3d 65 32 d8 bb 1f e3 0e bb 50 78 14 3d
       0.0516528 -0.0065978044 -0.0021802855 0.03624755
000360 57 39 3c bd 84 97 a5 3b e9 02 20 3e bc 42 dc 3d
       -0.04595312 0.0050534625 0.1562611 0.10754916
000370 23 ce d2 bd d5 f4 4f be 45 ff 15 3f 4b 3f ac 3c
       -0.10293224 -0.2030824 0.58592635 0.021026274
000380 75 f9 07 bd 1a 88 79 3e f9 ce c2 3d fd 5b 48 bd
       -0.033196885 0.24368325 0.09512133 -0.04891585
000390 00 4d 5e bd 98 96 9e bc 36 2f 1a 3f 70 a2 57 be
       -0.05427265 -0.019358918 0.6022829 -0.21058059
0003a0 04 af 96 bc eb 4f 25 3e 09 4f 28 be 9b d9 34 3d
       -0.018394 0.16143768 -0.164364 0.044152837
0003b0 b3 cc 01 3d db 26 ed bc f4 4b 64 3b 6f 7a 93 3d
       0.031689357 -0.028949192 0.003483531 0.07201087
0003c0 89 8a a1 3c 67 cd f5 3d 91 5b 49 3d c7 04 88 3d
       0.019719379 0.12002068 0.04915959 0.06641536
0003d0 4d f6 57 3d b5 a9 d7 3c 5b cd c8 3c 88 77 54 bd
       0.052725125 0.02632604 0.024511984 -0.051871806
0003e0 48 3e 8c bd 1c 70 bd bd 18 07 d5 bd 90 89 cc 3d
       -0.06847817 -0.09249899 -0.10401744 0.099871755
0003f0 e5 c3 27 bc e6 b3 0a bc ee 13 3d 39 88 fa a3 bd
       -0.010239576 -0.008465743 0.00018031869 -0.080067694

net.0.bias f4 [128]
000000 3b e4 f7 3c 93 7f b6 3d c1 87 12 bd a4 2e 2e 3e
       0.030260196 0.089110516 -0.035773996 0.1700998
000010 31 11 46 3e d8 d8 8e bd 45 73 56 bd f2 e0 bb 3c
       0.19342496 -0.069749534 -0.052356023 0.02293441
000020 58 cb 5e bd 48 d4 de 3d d8 28 26 3e e3 9d b9 3d
       -0.054393142 0.10880333 0.16226518 0.090633176
000030 6d 2d 92 bd 40 0c 83 3c ca 0f d2 3d 63 c4 66 3d
       -0.071375705 0.015997052 0.10256918 0.056339633
000040 24 0c 32 3c b2 6b 04 be 9f 41 ac 3d 6d 9e a2 bd
       0.010867152 -0.12931708 0.08410954 -0.079403736
000050 ca bf 7d bd a2 27 48 bb e4 23 02 3e 46 f2 12 3e
       -0.061950482 -0.00305412 0.12709004 0.14350232
000060 52 08 8c bd d3 63 43 bd 3f 74 cb bc 1d 53 ff 3c
       -0.068375245 -0.04770262 -0.024835704 0.031167561
000070 2a dd b7 3d 2c 50 0b be 7c 87 30 3e a2 b2 0d 3e
       0.089777306 -0.13604802 0.17239183 0.13837674
000080 ba e6 a8 bd 99 7c 84 3d 51 40 a4 bc f8 47 e7 3d
       -0.082471326 0.064690776 -0.0200502 0.11293024
000090 58 5b ba 3d 6c 76 ce 3d 3d a5 e0 bd ab 3c 2e 3d
       0.09099454 0.10081181 -0.10969017 0.042538326
0000a0 3b dd a5 3c 12 8c 50 3d 12 31 48 bd 1d ac 76 3d
       0.020247092 0.05091483 -0.048874922 0.060222734
0000b0 84 1b 95 3b ab eb 05 3e f9 bb c4 bd 49 9e 6f 3d
       0.0045503993 0.13078181 -0.096061654 0.058500562
0000c0 6c 50 b2 bd fd 6b 5e bd 80 dc 0f 3d d5 e1 c8 3c
       -0.087067455 -0.054302204 0.035122395 0.024521748
0000d0 7f f7 29 be 6a 99 e5 3d 66 c4 f6 3d b8 5f ac 3d
       -0.16598319 0.11210902 0.12049179 0.084166944
0000e0 b8 dd 86 bd eb 78 24 3c e8 d4 ef 3d e5 d7 d0 bd
       -0.06585258 0.010038595 0.117105305 -0.101974286
0000f0 fc b0 f8 3b 33 06 28 3e 7b 81 43 3d 33 7b 02 3d
       0.0075894576 0.16408615 0.047730904 0.031855773
000100 0f 25 39 bd 2d 1c 25 3d ab cf b8 3d 00 59 2e 3d
       -0.045201357 0.040310074 0.090239845 0.042565346
000110 13 fa af 3d 11 88 7a bd f3 af ab bc 9e 52 16 3e
       0.0859262 -0.06116492 -0.020957923 0.14679953
000120 3d 60 1f 3d 04 ac f7 3c f7 50 12 3e 08 0f a3 bd
       0.03891014 0.03023339 0.14288698 -0.07961851
000130 cd 55 f0 3d 10 f6 40 bd 59 15 9c bd 9a 88 a5 3c
       0.11735115 -0.047109663 -0.07621259 0.020206738
000140 2b 20 25 be 70 1e a9 bd 74 24 91 bc 58 bf f7 3c
       -0.16125552 -0.082577586 -0.017717578 0.030242607
000150 10 84 1c 3e 38 2d 34 3d dc 7f e9 3d 38 11 b7 3d
       0.15284753 0.043988436 0.1140134 0.08938831
000160 46 2e 7b bd 87 b5 2e bd 1e c6 e3 bc 12 7a b4 bb
       -0.061323427 -0.042653587 -0.02780443 -0.005507716
000170 21 4b ff 3d 51 f9 41 bd 53 f4 04 be 04 54 a2 3b
       0.124655016 -0.047356907 -0.12983827 0.004953863
000180 ea 2a 92 3d a6 c9 e4 bc 8d 5e 56 3e 76 70 d9 bd
       0.071370915 -0.027928185 0.20934506 -0.10617153
000190 3a 00 1a bd 74 70 28 bd ce ef d8 ba f2 1d ec bb
       -0.037597872 -0.04112287 -0.001655096 -0.007205718
0001a0 c6 16 0e be 7f 04 82 3d c8 85 e9 bc 57 05 99 3d
       -0.13875875 0.06348514 -0.028506175 0.074717216
0001b0 fa 09 bf bc ef 88 8c 3d e5 b8 5b 3d 07 38 b5 bd
       -0.023320187 0.068620555 0.053643126 -0.08848577
0001c0 74 54 da bd ef 1a da 3d 4e 8e 0c 3a ac 85 2d 3e
       -0.106606394 0.106496684 0.0005361781 0.16945523
0001d0 24 a2 cf 3d 09 0b 08 be e3 0d 8c 3d de b4 cd bc
       0.10138348 -0.1328546 0.06838586 -0.025110658
0001e0 23 ec 7b bd 7a b1 75 3b d0 f4 67 bc 69 4d 28 3c
       -0.061504494 0.0037489817 -0.014157489 0.010272362
0001f0 06 94 de 3d e0 a8 da 3c 0c 24 07 3e 6d de 68 3d
       0.10868077 0.026691854 0.13197345 0.056852747

net.2.weight f4 [5, 128]
000000 9e 0d c9 be 4c 1a af bd 70 47 ab bc c2 58 a8 be
       -0.39268202 -0.085499376 -0.020908087 -0.32880217
000010 9f 84 f0 3e a2 b6 75 bd 8f 31 8e bd d9 f6 61 bd
       0.46976182 -0.059988625 -0.06943046 -0.055167053
000020 12 69 43 3f 48 5b 3e 3f a1 ef 71 be 53 60 da bd
       0.763322 0.74358034 -0.23626567 -0.10662904
000030 0d dc ab bc de 54 30 3f 57 75 b9 be cf 3d 38 3f
       -0.020978952 0.688795 -0.36222336 0.7196931
000040 9e 41 6d bd 76 12 7f 3c d1 0d a8 3e de 0a ae be
       -0.057923906 0.015568366 0.3282304 -0.33992666
000050 1c 9f 30 bd 00 f7 9d be fc 63 fe 3e 16 72 8a bc
       -0.04312049 -0.3085251 0.49685657 -0.016900104
000060 f5 84 f1 3c 20 2e 8e 3f 32 f6 65 be 6e b1 94 3b
       0.029482344 1.1107826 -0.22457197 0.004537753
000070 35 a6 02 3f 74 62 4c be 5f 01 27 3f 67 e9 0e bf
       0.5103486 -0.19959432 0.6523647 -0.55824894
000080 55 d7 1f bd 6d 0c a2 3e 80 1e e4 be 21 f3 63 3f
       -0.039023716 0.31650105 -0.4455452 0.8904286
000090 0f ce 03 3f 71 a1 89 3f 24 8e 1f 3e 98 f3 35 3f
       0.51486295 1.0752393 0.15581566 0.7107482
0000a0 88 ec 91 bc 7c c2 83 3e 4a 20 91 3b 8f 07 4d 3f
       -0.017812982 0.25734317 0.004428898 0.8008966
0000b0 3c fd 05 3f 03 5c 1f 3f 31 86 18 3f 38 5d 56 3e
       0.5233953 0.62249774 0.5957976 0.20933998
0000c0 42 ae 86 bc d4 cb 07 3f 93 74 e6 3e 5d a8 29 3f
       -0.016440514 0.5304539 0.45010814 0.66272527
0000d0 2f 24 61 3d bd 9f a8 3e 80 24 32 3f 04 9d e4 3c
       0.054966148 0.3293437 0.69586945 0.027906902
0000e0 d5 29 0b bd 82 90 9a 3e 57 06 2a 3f 50 3e 9a bc
       -0.03397544 0.30188376 0.66415924 -0.018828541
0000f0 dd 09 cc be e3 0f 9b 3e ca ee 84 be 7f e2 62 be
       -0.39851275 0.30285558 -0.25963432 -0.22156714
000100 4b 6e 01 3f 24 bf 94 bd 3b cc 8b 3e 47 98 05 bf
       0.5055892 -0.0726302 0.27304253 -0.5218548
000110 ad 73 0d 3f e0 19 47 be fe d1 86 bd 16 57 08 3f
       0.5525463 -0.19443464 -0.065830216 0.5325788
000120 c7 ad c6 3e 57 56 01 3f 7c 28 b9 3e 54 d3 5b bc
       0.38804457 0.5052237 0.361637 -0.013417084
000130 af 02 39 3f 65 a7 bb 3e 78 5e 54 3b 20 18 cf 3e
       0.7226972 0.3665115 0.003240494 0.40448093
000140 cb c8 2a bd 94 fa e9 bb 16 da 68 3f 4b 0b 1d be
       -0.041695397 -0.007140467 0.9095777 -0.15336339
000150 2a a2 f1 3e 7e 4e 94 3f ec 5f 48 3e 33 1e 2b 3f
       0.47194034 1.1586454 0.19567841 0.66842955
000160 3d 5a d8 3e f0 97 fe 3c 28 a3 80 3e 43 ea 79 3e
       0.42256346 0.031078309 0.25124478 0.2440577
000170 85 e4 ee 3e 65 03 ef bb 4c 1f 92 39 6e 84 23 3d
       0.46658722 -0.007294106 0.00027870608 0.039921217
000180 0d 64 96 be 9b d4 bb be 3f 60 16 be 79 8d af be
       -0.29373208 -0.36685643 -0.14685152 -0.34287623
000190 0a 22 d9 be 87 ae 19 3c e5 c0 f2 3c 82 89 e8 3e
       -0.42408782 0.0093799895 0.029632995 0.4541741
0001a0 6a 04 cd bc b6 91 b3 be 99 c5 7a 3f 30 2f 13 3f
       -0.025026519 -0.35072106 0.9795776 0.5749388
0001b0 c8 a9 0d 3d 7c cb 03 3f 5b a1 f6 be 6e c8 b6 be
       0.034585744 0.5148237 -0.4816998 -0.3569979
0001c0 1f 12 8e bc b2 4f 09 bf 8e e3 e8 bd 4d 73 86 3f
       -0.017342625 -0.5363723 -0.113715276 1.0503937
0001d0 68 7b 17 3f 53 33 af b9 3d 3f 1a 3d 28 6d 32 3f
       0.5917268 -0.0003341684 0.037657965 0.6969781
0001e0 25 0d d8 be 2e 12 eb 3e 92 0f 70 3f 34 61 b7 3e
       -0.42197528 0.45912308 0.9377376 0.35816348
0001f0 b8 d0 3a 3f 1c d0 90 3e 42 90 d5 bd c5 33 3c 3e
       0.7297473 0.28283775 -0.104279056 0.18379124
000200 b5 50 9e 3e e7 70 26 be c0 6c 12 3e 00 27 83 3e
       0.3092095 -0.16254006 0.14299297 0.25615692
000210 db e6 fd be 19 4c 18 bd 4d 3a 68 3d f5 1f 97 bd
       -0.4959019 -0.037181947 0.056696225 -0.07379142
000220 dc f1 a2 be e5 9e 0f bf 04 be 67 3e ab 53 29 3d
       -0.3182515 -0.5610183 0.22631079 0.041339558
000230 5a 5c 1e bd 2a d2 21 be a6 6c 64 3e eb aa 5d bb
       -0.038662292 -0.15802827 0.22307071 -0.00338238
000240 b7 8a a4 3e d0 4c 34 3d 47 14 56 be 99 91 92 3e
       0.3213708 0.044018567 -0.20906173 0.28626707
000250 46 ce 53 3a 4f 34 8d 3e c8 4b b7 3c 5c 32 52 3e
       0.00080797484 0.2757897 0.022375003 0.20527023
000260 ff 49 16 3d a5 21 79 ba a7 a2 4d 3e b8 b6 fc 3c
       0.036691662 -0.00095036096 0.20081578 0.030848846
000270 28 af 7d be 03 f9 d1 3e 94 c1 98 be e8 ee ad 3e
       -0.24773848 0.41010293 -0.29835188 0.33971334
000280 86 97 20 3b b5 e9 f0 bd 62 93 93 3e ff 43 19 bf
       0.0024504378 -0.11763326 0.28823382 -0.5986938
000290 f2 2a a9 be 6c c8 22 bf eb 32 35 3e f2 0f 31 bd
       -0.33040577 -0.6358707 0.17695205 -0.043228097
0002a0 ae 4a 49 bd d4 fa 9b bc dc 0b 42 3a e4 2c 4b be
       -0.049143486 -0.019040503 0.000740228 -0.19841343
0002b0 8d ce 6f bd 90 df 3e be 80 1b 06 be ad f1 d2 bd
       -0.05854659 -0.1863997 -0.13096428 -0.10300002
0002c0 d6 6e 70 bd cf 61 76 be ad 06 7b be bf 9d 83 be
       -0.05869945 -0.24060749 -0.24514265 -0.25706288
0002d0 23 9c 3e 3d a3 73 03 3d 3b 25 09 bf 57 57 42 3e
       0.046535622 0.0320927 -0.53572434 0.1897863
0002e0 12 a4 9f 3c 86 8e 72 be c7 e4 7e be 94 c3 f2 bd
       0.019487415 -0.23687181 -0.24891959 -0.1185371
0002f0 e7 8f a3 3e 14 6f 91 be c3 b3 c2 3e 40 ae 65 3d
       0.31945726 -0.28405058 0.38027772 0.05607438
000300 40 62 16 3e d4 5a 09 bc 6a c5 b2 be c1 54 62 3e
       0.14685917 -0.0083834715 -0.3491624 0.22102644
000310 a3 1f 2d be 41 5b c3 3e 11 9c 5c bd ac 85 3b be
       -0.169066 0.3815556 -0.053859774 -0.1831271
000320 2d 1e 83 3e 49 8c 00 be 3e ef 25 be f0 bd 1f 3d
       0.2560896 -0.12553515 -0.16204545 0.038999498
000330 91 36 db bd 85 af ad bd 38 34 66 3d ad 39 6e bd
       -0.10703767 -0.08480743 0.056202143 -0.058160473
000340 fc a6 80 3d 20 6c 91 bd 4f db 81 be 77 c0 d1 3e
       0.0628185 -0.07100701 -0.25362632 0.40967152
000350 18 6b f0 bd 6b eb 92 be 85 07 04 3d b0 47 5e 3d
       -0.117391765 -0.28695235 0.032233734 0.054267585
000360 ad c4 ac 3e a6 06 4d 3d df 2b 03 be 73 7c 62 3d
       0.33743802 0.05005517 -0.12809704 0.055294465
000370 b2 06 0f bd 18 85 f7 bd 11 28 11 3d 40 7a 86 be
       -0.034918495 -0.120859325 0.0354386 -0.26265144
000380 68 e2 26 3d ff 5f a0 3e 9d 41 9a 3e ee e9 b1 3e
       0.04074326 0.3132324 0.30128184 0.34748787
000390 cf d7 fc bd 96 41 ab 3c 9a 76 2a 3d 37 f1 22 bc
       -0.1234585 0.020905297 0.041617014 -0.009945205
0003a0 14 37 13 bd 1d be 5d 3e 8a f5 d5 3d 82 19 68 be
       -0.0359412 0.21654554 0.104472235 -0.2266598
0003b0 4e 53 8b 3c b3 9b c6 bd 5b a1 ad 3e 37 16 29 3e
       0.017007496 -0.09697666 0.33912167 0.1651238
0003c0 e3 b8 21 3d 9e 0e af 3e 88 93 9d 3e 9d 5b aa be
       0.039482962 0.3419084 0.3077662 -0.3327302
0003d0 9c 53 0e 3e 01 95 cc 3c c3 05 66 3b 34 2a 39 be
       0.13899082 0.024973394 0.003509865 -0.18082505
0003e0 c6 63 aa 3e 86 8b 77 be f5 89 88 bc 47 5a 00 be
       0.33279246 -0.24174318 -0.016667346 -0.12534438
0003f0 18 37 5a be e1 c9 22 be 7b 44 23 3e 52 d2 18 3d
       -0.21310079 -0.15897323 0.15944092 0.037309952

net.2.bias f4 [5]
000000 bc a0 2f bd c9 85 8e 3e 61 2a 8f 3d ce e3 6a bd
       -0.042877898 0.27836445 0.06990505 -0.057346158
000010 20 a7 00 3e
       0.12563753
