checkpoints/frogger_policy_0.89.pt (torch, 51797 bytes, 4 tensors)

net.0.weight f4 [128, 90]
0.05814632 -0.084429964 -0.08722327 -0.049738344 0.008659105 -0.017780986 -0.648543 0.23625642
0.23237851 0.1469713 -0.26626801 0.04098888 -0.23887916 -0.049256694 0.0036526818 0.08707385
-0.21378909 -0.053599413 -0.019278038 -0.093038015 0.12324731 0.57539546 -0.15518023 -0.27195495
0.1653495 -0.029057529 0.06616253 -0.23033275 0.31000996 0.09448451 0.029291797 0.0011346758
0.077717155 -0.010032015 0.088346824 0.20118631 -0.50674874 0.19677548 0.45471713 0.1466747
-0.30950367 0.20484798 0.1516878 0.0948087 0.038153276 0.26904854 0.047601003 0.19267458
-0.6787523 0.16275696 0.41095582 -0.01237671 0.063691095 -0.4931065 0.17944682 -0.004810777
-0.059219386 -0.03713478 0.065300465 0.015081302 0.22669388 0.14559726 0.13308705 0.09129601
0.08767263 -0.0010667075 0.030300464 0.09992405 0.105305776 0.008673543 -0.042868715 0.07130452
-0.042485636 -0.09300128 0.07818229 -0.044776928 0.07110947 -0.09783615 -0.03575903 -0.05564474
0.043096833 0.081064224 -0.061950553 0.06720819 -0.0032567943 0.09417261 0.066910334 -0.03466449
-0.07387584 -0.09195504 0.079417124 0.001064961 0.014359111 -0.041424606 -0.08115087 -0.1743981
0.33906978 -0.14360401 0.095833175 0.040480044 0.16191803 -0.21934314 0.040327232 0.002073343
-0.09695542 -0.1611522 -0.033975128 0.11740838 -0.09732883 0.12856662 -0.017986234 -0.33794013
0.064940855 0.2091482 -0.044675853 0.026405603 -0.21124013 0.1844576 -0.25051188 -0.11892477
0.04102831 -0.066011116 0.032500077 0.013162712 -0.03520658 -0.107230134 0.3852886 -0.110288024
0.24714547 0.032523394 0.30783394 -0.0028268527 0.13467841 0.036845997 0.037902065 0.11205968
0.11857167 -0.1070312 0.42279157 -0.17754886 0.4809642 0.06514782 0.017399216 0.21906398
-0.08476194 -0.06670941 0.08019644 -0.100813255 0.016180644 -0.041403346 0.09667821 0.24669595
0.06576979 0.13961272 0.12186287 0.018710483 0.099480815 -0.06195186 0.09963565 0.022286322
0.037356418 -0.012901294 0.013207521 -0.09390852 0.050315123 -0.04937993 0.056691393 0.04909564
-0.0031369673 -0.028226862 -0.09426484 -0.09019574 -0.06961272 -0.056474723 -0.08813863 0.069203064
0.08171302 0.052201245 0.02900462 0.024567612 -0.023816368 0.102323115 -0.046792474 0.028260525
0.06782638 -0.07358431 -0.0021282549 0.056360956 0.0033941157 0.005238939 -0.009906842 0.0021712761
-0.012144433 0.034413688 -0.018744644 0.08842266 -0.076352485 -0.07601686 -0.02097675 -0.08681138
-0.08704794 -0.08543315 0.0074708415 -0.054254927 -0.006661734 0.051409468 0.07861672 -0.033390965
-0.017484019 0.0054684533 -0.07585766 -0.021336803 0.05088983 -0.07999768 -0.03997124 -0.006344374
-0.06375888 0.009103624 -0.04557923 0.02367238 -0.044064324 0.022129312 0.0392732 -0.11153963
0.034213264 -0.08928944 -0.12111525 0.01867373 -0.015252543 0.009103918 0.026402691 0.077578984
0.003647846 -0.029041084 0.024787903 -0.058225244 0.07700381 -0.015274087 -0.06831408 -0.01924405
-0.094775215 -0.09822811 -0.07959279 -0.124847665 -0.03326358 -0.0014211752 0.012168345 0.08158878
0.07702966 -0.021263596 0.05331143 0.02023128 0.09774664 0.10378717 -0.01531622 -0.03776385
00000000: d62a 6e3d 9ee9 acbd 1da2 b2bd 6fba 4bbd
00000010: ebde 0d3c 6ea9 91bc ea06 26bf 34ed 713e
00000020: a2f4 6d3e a57f 163e 4854 88be f5e3 273d
00000030: bd9c 74be 63c1 49bd d561 6f3b c653 b23d
00000040: 87eb 5abe 0f8b 5bbd faec 9dbc b78a bebd
00000050: 1669 fc3d 1e4d 133f 91e7 1ebe ae3d 8bbe
00000060: 6151 293e 0e0a eebc 3880 873d 59dc 6bbe
00000070: a0b9 9e3e 1881 c13d 5af5 ef3c 67b9 943a
00000080: 2c2a 9f3d 525d 24bc 2eef b43d c903 4e3e
00000090: 49ba 01bf 837f 493e afd0 e83e e431 163e
000000a0: 4477 9ebe abc3 513e 0c54 1b3e 102b c23d
000000b0: 9c46 1c3d bbc0 893e 45f9 423d 7c4c 453e
000000c0: b6c2 2dbf c3a9 263e cd68 d23e afc7 4abc
000000d0: 7a70 823d 7578 fcbe e8c0 373e b9a3 9dbb
000000e0: 0790 72bd a41a 18bd 40bc 853d 9117 773c
000000f0: 7122 683e 7317 153e f947 083e 67f9 ba3d
00000100: b58d b33d c4d0 8bba ae38 f83c fba4 cc3d
00000110: 8eaa d73d 7a1b 0e3c 1b97 2fbd 1b08 923d
00000120: 6b05 2ebd 7577 bebd 091e a03d 0368 37bd
00000130: d8a1 913d 525e c8bd 1078 12bd bdeb 63bd
00000140: 4e86 303d 0005 a63d ddbf 7dbd 73a4 893d
00000150: f16f 55bb 92dd c03d 4908 893d 5afc 0dbd
00000160: 374c 97bd ed52 bcbd 72a5 a23d 2996 8b3a
00000170: 7a42 6b3c d9ac 29bd 6d32 a6bd 6a95 32be
00000180: 8e9a ad3e ee0c 13be 2f44 c43d 67ce 253d
00000190: d7cd 253e 7d9b 60be 2b2e 253d ece0 073b
000001a0: 9090 c6bd 1505 25be 8129 0bbd ce73 f03d
000001b0: 5654 c7bd f8a6 033e de57 93bc 7d06 adbe
000001c0: b6ff 843d f22a 563e 07fe 36bd 9050 d83c
000001d0: 554f 58be 74e2 3c3e 1843 80be d48e f3bd
000001e0: 4d0d 283d d630 87bd cd1e 053d 6aa8 573c
000001f0: c634 10bd 799b dbbd 8c44 c53e b0de e1bd
00000200: b413 7d3e 4037 053d 699c 9d3e b842 39bb
00000210: 23e9 093e d4eb 163d 323f 1b3d 8c7f e53d
00000220: b4d5 f23d 2c33 dbbd 2378 d83e 5ecf 35be
00000230: f140 f63e 386c 853d cd88 8e3c 4f52 603e
00000240: ab97 adbd f19e 88bd 083e a43d 2e77 cebd
00000250: 458d 843c 8e96 29bd 3aff c53d dd9d 7c3e
00000260: 50b2 863d a3f6 0e3e 3e93 f93d ba46 993c
00000270: 99bc cb3d 3cc1 7dbd c70d cc3d ce91 b63c
00000280: 0b03 193d f35f 53bc 5c64 583c 1c53 c0bd
00000290: 3b17 4e3d 9c42 4abd 3c35 683d 8318 493d
000002a0: 9495 4dbb 053c e7bc ed0d c1bd 8bb8 b8bd
000002b0: 1d91 8ebd 0a52 67bd 0782 b4bd 56ba 8d3d
000002c0: 2859 a73d f9d0 553d 199b ed3c 0442 c93c
000002d0: 8b1a c3bc c88e d13d 77a9 3fbd 9e82 e73c
000002e0: 8fe8 8a3d 5fb3 96bd 317a 0bbb bfda 663d
000002f0: d06f 5e3b 68ab ab3b 4f50 22bc f84b 0e3b
00000300: 72f9 46bc 5ef5 0c3d 5e8e 99bc f116 b53d
00000310: b15e 9cbd baae 9bbd 6fd7 abbc 2aca b1bd
00000320: 3146 b2bd 93f7 aebd f6cd f43b 6a3a 5ebd
00000330: ad4a dabb bc92 523d ce01 a13d f7c4 08bd
00000340: a53a 8fbc b630 b33b 435b 9bbd 85ca aebc
00000350: db71 503d d3d5 a3bd e2b8 23bd 77e4 cfbb
00000360: 0494 82bd 5e27 153c 49b1 3abd 94ec c13c
00000370: cb7c 34bd 8848 b53c efdc 203d e46e e4bd
00000380: 3523 0c3d 62dd b6bd 460b f8bd a6f9 983c
00000390: cde5 79bc 9a28 153c 754a d83c bbe1 9e3d
000003a0: b310 6f3b 91e7 edbc 0010 cb3c 987d 6ebd
000003b0: 2cb4 9d3d 2a40 7abc 41e8 8bbd b3a5 9dbc
000003c0: 8219 c2bd d22b c9bd 8b01 a3bd 22b0 ffbd
000003d0: 643f 08bd ba46 baba bd5d 473c 0518 a73d
000003e0: bac1 9d3d fe30 aebc 165d 5a3d 12bc a53c
000003f0: 642f c83d 5e8e d43d e2f0 7abc 44ae 1abd

net.0.bias f4 [128]
0.121570535 0.15650754 -0.058418054 0.23901172 0.086553864 0.14140397 -0.036440767 0.024894107
-0.1589647 0.033570264 0.11958487 0.21574304 -0.036322907 0.03831168 -0.14371176 -0.0035070064
-0.0034635372 0.15530355 0.1373953 0.04844386 0.011952997 0.022021513 0.103790216 -0.09555227
-0.08633533 -0.013354728 0.023423344 -0.08915285 -0.10614142 -0.1383675 -0.09716472 -0.041791525
0.13724874 -0.032129817 0.09681589 0.0034591258 -0.053749595 -0.06831103 0.039649114 -0.06106915
-0.02983616 0.22345658 -0.016939446 -0.06145858 0.17618626 -0.023448182 -0.0061637773 -0.11575226
0.111055784 0.020697648 0.08703952 -0.06964614 0.038119473 -0.065180406 0.15245757 -0.08615473
0.032765508 0.06824002 -0.04401994 0.070936516 -0.044233803 -0.0015431201 -0.13889894 0.13382933
-0.08444897 -0.08286781 0.112598486 0.14992176 -0.135291 0.08242648 0.08373994 0.084428154
0.014417227 0.04673838 -0.08752648 -0.08691615 -0.072224945 0.016788227 -0.0052710273 0.09162932
-0.022458518 0.098584235 -0.1423431 -0.12730405 -0.0039532706 0.0059873224 0.0023978655 0.20633553
0.16936767 0.12159681 -0.0050180433 0.07851445 0.05101786 -0.02832585 -0.050566636 -0.10945745
-0.106731385 -0.110025086 -0.053615626 -0.11819716 -0.10937363 -0.027339691 -0.071361676 -0.1742401
-0.027916998 -0.05310124 0.10277178 -0.072390206 -0.010874736 -0.02735807 -0.029862188 0.11528448
-0.097410016 -0.043293186 0.023366781 -0.01536932 -0.029827861 0.11112858 0.06505957 0.1872067
0.0734367 -0.112641625 -0.066750094 0.014380399 0.010324384 -0.05965184 -0.11297391 0.14940688
00000000: f9f9 f83d 8343 203e c547 6fbd 7dbf 743e
00000010: 2743 b13d 34cc 103e ea42 15bd baee cb3c
00000020: a4c7 22be f980 093d eae8 f43d beeb 5c3e
00000030: 54c7 14bd b5ec 1c3d 2d29 13be ced5 65bb
00000040: 83fc 62bb e507 1f3e 5bb1 0c3e 126d 463d
00000050: 81d6 433c 7666 b43c f78f d43d e9b0 c3bd
00000060: 94d0 b0bd cacd 5abc 50e2 bf3c c595 b6bd
00000070: ac60 d9bd 36b0 0dbe 4cfe c6bd 972d 2bbd
00000080: ef8a 0c3e 8e9a 03bd 6947 c63d 80b2 623b
00000090: 8928 5cbd a7e6 8bbd 1c67 223d a523 7abd
000000a0: f66a f4bc cdd1 643e 98c4 8abc febb 7bbd
000000b0: 2c6a 343e 6716 c0bc 83f9 c9bb 850f edbd
000000c0: 3771 e33d 1d8e a93c c741 b23d a3a2 8ebd
000000d0: 2a23 1c3d 4e7d 85bd d61d 1c3e e471 b0bd
000000e0: 2035 063d 6cc1 8b3d 414e 34bd 2a47 913d
000000f0: 812e 35bd 8542 caba 863b 0ebe 8e0a 093e
00000100: 95f3 acbd 99b6 a9bd 099a e63d 1785 193e
00000110: b989 0abe 37cf a83d d87f ab3d abe8 ac3d
00000120: 3c36 6c3c be70 3f3d 1541 b3bd 1801 b2bd
00000130: acea 93bd 7787 893c 95b8 acbb 27a8 bb3d
00000140: edfa b7bc 88e6 c93d 64c2 11be fe5b 02be
00000150: 708a 81bb 4d31 c43b 8225 1d3b 9f49 533e
00000160: b86e 2d3e c007 f93d 666e a4bb 2fcc a03d
00000170: 1bf8 503d 9d0b e8bc f61e 4fbd 3a2b e0bd
00000180: fc95 dabd d554 e1bd 0f9c 5bbd 5a11 f2bd
00000190: 48ff dfbd 7df7 dfbc 1226 92bd ff6b 32be
000001a0: 30b2 e4bc b080 59bd 037a d23d 5141 94bd
000001b0: f32b 32bc 081e e0bc 8ca1 f4bc 451a ec3d
000001c0: e77e c7bd 3254 31bd b16b bf3c 9acf 7bbc
000001d0: 8f59 f4bc 6297 e33d f43d 853d 1db3 3f3e
000001e0: fb65 963d a7b0 e6bd 46b4 88bd c49b 6b3c
000001f0: 9b27 293c 7d55 74bd de5e e7bd 1efe 183e

net.2.weight f4 [5, 128]
-0.20913741 -0.0128138885 0.006716375 -0.4441975 0.086956635 0.32512107 0.52121043 0.92221195
0.030832112 -0.56738234 -0.06893091 -0.21691531 0.073841386 0.6036787 0.05456335 0.6989829
0.024749795 -0.36850622 0.4459182 -0.025229461 0.42621592 0.3850274 0.70301586 -0.027428856
0.023074485 0.004401825 -0.030231917 -0.026903134 0.75872386 -0.08089735 0.0047065723 -0.04581101
0.34527072 0.44913062 0.44775948 0.0019558284 0.6584894 -0.066184305 0.58738434 0.1137943
-0.061210793 -0.4841715 0.64957714 0.7298776 0.98162395 0.34735173 0.44983083 0.033975586
-0.36865327 1.0050257 0.44418168 0.5646679 0.40521356 0.1258301 0.6062546 0.51076126
0.4225084 0.10051876 0.0015083227 0.55675316 0.36670533 -0.26263085 -0.05451672 -0.41088402
-0.07292213 0.0068973787 0.50745636 0.7325458 -0.025725797 0.7056601 0.29819292 -0.09289016
0.37581307 -0.08879094 -0.054925807 -0.030822314 -0.1229534 0.3008701 0.047127876 0.47701856
0.43972722 0.8875355 0.0434245 -0.025434034 0.5955976 0.373863 0.83127564 -0.17110036
0.019201161 0.24801607 1.1351855 0.39266413 -0.02478048 0.7791571 -0.07355314 -0.032644007
-0.046808403 -0.056545228 0.11989704 -0.028620614 -0.010823767 0.009649834 -0.27984157 0.05985276
0.21371421 0.6895578 0.08409624 0.0071578627 0.09921557 -0.06332993 -0.043167815 0.7652669
0.07282925 0.7624258 0.0744957 -0.014866633 -0.05809255 0.944204 0.794784 -0.26821035
-0.4280973 -0.07636106 -0.011104258 0.033852816 -0.043586478 -0.04394588 0.060621537 -0.6363526
-0.14048031 0.3606907 0.053001948 0.23662375 -0.18729913 -0.13670093 -0.3201529 -0.07271873
-0.006375315 0.28945604 -0.16271701 0.41780928 0.06516443 -0.035347532 -0.01612511 -0.16310537
0.07846455 0.198438 0.03988631 0.021244848 -0.14684895 -0.07101128 -0.37638816 -0.06685388
-0.09935124 -0.011662464 0.04520821 0.07510424 -0.19545402 0.0050773886 0.0035688267 0.0010926169
-0.14972907 -0.39175808 -0.036133286 -0.025200527 0.2002422 0.28558356 -0.057577487 0.05356387
-0.0128957955 0.41926014 -0.37459368 -0.22248654 -0.3317628 0.2275227 -0.28193521 0.069635786
0.34193575 -0.5401298 0.015694609 0.034881085 -0.27324414 0.088857464 -0.13721816 -0.20303443
-0.22333172 -0.061860297 0.06733568 -0.057102796 -0.20606926 -0.026048182 -0.035088986 0.34533224
-0.039866943 -0.06282501 -0.19972757 -0.2388409 -0.052324966 -0.113331385 -0.06175796 0.23043771
-0.21468131 -0.027558599 -0.04380171 0.0529851 0.2379304 -0.116170615 -0.08431466 0.008181252
-0.19403908 -0.42696375 -0.04937444 -0.0024756086 -0.17328447 -0.003640084 -0.2582752 0.3438161
-0.10931011 -0.17348647 -0.30338714 -0.05171807 0.016813569 -0.59542966 -0.03442252 0.027113182
0.0638691 0.022419415 0.07033346 -0.11660391 -0.022686386 -0.009488009 0.12869707 -0.045676343
-0.32854807 -0.34502348 0.1627259 0.01603095 -0.26899564 -0.046757784 -0.04673777 -0.14423402
-0.00038982675 -0.2118606 0.0046162275 0.04555886 0.03859428 -0.3104109 -0.32389933 0.21635972
0.26997787 0.05984476 -0.094980344 0.030527504 0.005169296 -0.03893537 0.012149755 0.29655978
00000000: 1e28 56be 58f1 51bc 0915 dc3b db6d e3be
00000010: 5216 b23d 4576 a63e 0c6e 053f 1516 6c3f
00000020: a093 fc3c f83f 11bf a62b 8dbd 0c1f 5ebe
00000030: 273a 973d b08a 1a3f d27d 5f3d 8bf0 323f
00000040: 15c0 ca3c d9ac bcbe 644f e43e 04ae cebc
00000050: f938 da3e 5022 c53e d9f8 333f 7bb2 e0bc
00000060: b406 bd3c 2f3d 903b eda8 f7bc f663 dcbc
00000070: ba3b 423f 83ad a5bd 9739 9a3b 53a4 3bbd
00000080: 53c7 b03e 73f4 e53e bb40 e53e 5b2d 003b
00000090: c392 283f a38b 87bd d25e 163f fc0c e93d
000000a0: 2bb8 7abd 54e5 f7be b04a 263f 42d9 3a3f
000000b0: b54b 7b3f 16d8 b13e 3a50 e63e fc29 0b3d
000000c0: 1fc0 bcbe afa4 803f c86b e33e 138e 103f
000000d0: 2778 cf3e 9bd9 003e 8033 1b3f 40c1 023f
000000e0: 0553 d83e c8dc cd3d e9b2 c53a 6087 0e3f
000000f0: cdc0 bb3e 8d77 86be ed4c 5fbd 645f d2be
00000100: 3358 95bd 6803 e23b a9e8 013f 1f88 3b3f
00000110: e8be d2bc 24a6 343f beac 983e 323d bebd
00000120: 926a c03e 06d8 b5bd e2f9 60bd 147f fcbc
00000130: fece fbbd a50b 9a3e 2909 413d c73b f43e
00000140: ed23 e13e 8735 633f e3dd 313d 095b d0bc
00000150: 1679 183f f96a bf3e 7bce 543f ef34 2fbe
00000160: c14b 9d3c edf7 7d3e c24d 913f 460b c93e
00000170: 6f00 cbbc d776 473f 07a3 96bd b9b5 05bd
00000180: 2bba 3fbd f89b 67bd 948c f53d c775 eabc
00000190: 2b56 31bc 561a 1e3c 6547 8fbe 2b28 753d
000001a0: e6d7 5a3e dc86 303f a63a ac3d 818c ea3b
000001b0: 8831 cb3d 1fb3 81bd bcd0 30bd 88e8 433f
000001c0: 8027 953d 562e 433f 3491 983d 2e93 73bc
000001d0: 74f2 6dbd 5ab7 713f f776 4b3f de52 89be
000001e0: 922f dbbe 3063 9cbd a2ee 35bc 40a9 0a3d
000001f0: bc87 32bd 9800 34bd 4a4e 783d 01e8 22bf
00000200: 12da 0fbe 74ac b83e 9218 593d 7f4d 723e
00000210: 58cb 3fbe 54fb 0bbe 15eb a3be 8fed 94bd
00000220: 05e8 d0bb 9533 943e 4a9f 26be 19eb d53e
00000230: ee74 853d 93c8 10bd cf18 84bc 1805 27be
00000240: 06b2 a03d 5533 4b3e d45f 233d ad09 ae3c
00000250: 925f 16be 5d6e 91bd f3b5 c0be b0ea 88bd
00000260: aa78 cbbd eb13 3fbc 3e2c 393d 40d0 993d
00000270: 1925 48be 3960 a63b fae2 693b 2436 8f3a
00000280: 9452 19be 8494 c8be 7f00 14bd 5671 cebc
00000290: 4b0c 4d3e 0238 923e 5fd6 6bbd ca65 5b3d
000002a0: e348 53bc 44a9 d63e beca bfbe 83d3 63be
000002b0: d0dc a9be b6fb 683e d059 90be 359d 8e3d
000002c0: 3412 af3e f245 0abf fb91 803c 78df 0e3d
000002d0: a8e6 8bbe e7fa b53d eb82 0cbe 42e8 4fbe
000002e0: 12b1 64be 3961 7dbd 4ae7 893d 9fe4 69bd
000002f0: d203 53be ff62 d5bc 78b9 0fbd 63cf b03e
00000300: 854b 23bd 66aa 80bd 6285 4cbe b592 74be
00000310: b452 56bd 491a e8bd eaf5 7cbd ddf7 6b3e
00000320: 6bd5 5bbe 92c2 e1bc 6c69 33bd e706 593d
00000330: 07a4 733e dcea edbd 2aad acbd a80a 063c
00000340: 2eb2 46be fe9a dabe da3c 4abd d23d 22bb
00000350: 7c71 31be 7a8e 6ebb a63c 84be aa08 b03e
00000360: fbdd dfbd 70a6 31be 8f55 9bbe 54d6 53bd
00000370: 9cbc 893c 146e 18bf a1fe 0cbd 771c de3c
00000380: cdcd 823d eca8 b73c fd0a 903d 08ce eebd
00000390: cdd8 b9bc 9873 1bbc 2ac9 033e 1e17 3bbd
000003a0: 7437 a8be eba6 b0be 9ea1 263e 5753 833c
000003b0: ccb9 89be 1785 3fbd 1b70 3fbd 15b2 13be
000003c0: a961 ccb9 fcf1 58be b943 973b ed9b 3a3d
000003d0: 0915 1e3d 2dee 9ebe 22d6 a5be 678d 5d3e
000003e0: 8a3a 8a3e c71f 753d 0e85 c2bd d114 fa3c
000003f0: 3363 a93b b27a 1fbd c40f 473c afd6 973e

net.2.bias f4 [5]
-0.1926807 0.2472284 -0.0203528 -0.14299484 -0.021293227
00000000: 174e 45be 7129 7d3e eaba a6bc 3d6d 12be
00000010: 226f aebc
