checkpoints/frogger_policy_0.81.pt (torch, 51797 bytes, 4 tensors)

net.0.weight f4 [128, 90]
-0.084154606 -0.085279346 -0.04375048 0.021360515 0.052855443 0.5697519 0.31800273 0.22129107
-0.013081564 0.031245146 -0.08737484 0.53113574 0.5982654 -0.080930874 0.028915983 0.4055208
-0.32712114 0.6341438 -0.087293826 0.07175803 0.07200795 0.44941708 -0.0664605 -0.12754492
-0.12386329 0.01274806 0.001089477 -0.23283479 -0.13697863 0.019819384 0.08405265 -0.036085617
0.010531693 0.0974684 0.07970609 -0.12345623 0.14983359 0.16092452 0.010642596 -0.047427982
-0.34461686 0.05243909 0.22567944 0.039568674 -0.033880744 0.01905239 -0.39256036 -0.07546361
-0.19678852 0.34780625 0.087289035 0.14124686 -0.016491964 -0.32650453 0.019252446 0.077403225
0.101125196 -0.0130080525 -0.028017856 0.0071346518 0.10561548 0.031112816 0.070520155 -0.055869117
0.0735309 -0.071883805 -0.01827337 -0.06946548 -0.008884786 0.07220239 -0.03766689 -0.026113942
0.08596619 -0.043525677 -0.075796165 -0.06807075 -0.09630443 0.0074971234 -0.043421257 -0.013049783
-0.09493077 0.06953816 0.0889295 -0.1031439 -0.045836385 -0.014098585 -0.071874104 -0.027449142
-0.09395039 -0.0057819095 -0.07459835 0.08222217 -0.03582259 -0.10367734 0.08422245 0.5176695
0.5129286 0.7261107 0.0783839 -0.06772519 -0.12926531 0.6013594 0.9506034 -0.020436594
0.07292179 0.29491466 -0.26572353 0.8369249 0.20381507 -0.09035283 0.06408299 0.5665427
-0.61818254 -0.021402046 -0.06468869 -0.04055892 0.30717316 -0.33409137 -0.048060786 0.12005187
-0.04300656 -0.035859972 -0.03846448 -0.06899299 0.07250711 0.034766 0.03290175 0.17434123
-0.013505042 0.028639428 -0.6943835 0.13893159 0.11934556 0.18319227 0.16435537 0.040241767
0.21273392 0.008462927 -0.16498455 0.02444772 0.16996394 0.13562456 0.19188298 -0.5986019
0.35767594 0.013365159 -0.060503595 0.07425119 0.08183232 -0.054804016 0.09069411 0.18732698
0.19615881 0.09368127 0.17355126 0.09459806 0.043086607 0.037427038 -0.051400013 0.023963325
-0.0140999295 -0.09203535 0.09940184 0.062684104 -0.09152322 -0.051360242 -0.049657065 0.08573787
0.067473784 -0.08054514 0.0015562446 0.07386992 0.016317409 -0.085523285 0.099510625 0.091533214
0.04843008 -0.030553803 0.034745365 -0.026264643 -0.019442124 -0.059555773 0.044911005 -0.078471616
-0.016776185 0.045483682 0.5135682 0.07412339 0.024543125 0.005586738 -0.0022235627 -0.14882515
-0.18938188 0.032540772 0.06641161 -0.3545991 -0.54972285 -0.15638034 0.009571135 -0.066758566
0.10403389 -0.06844348 -0.5938923 0.09036285 0.015716745 0.082764566 0.22752744 0.5532304
-0.15225531 -0.104797095 -0.021897964 0.06973116 0.032895207 0.040659804 0.08881217 0.03688542
0.03637269 0.27229238 -0.08005008 0.01026038 0.37181216 -0.07627323 0.10397236 -0.078978926
0.03976832 -0.08158976 -0.13822737 0.040594824 0.10758537 0.47398767 0.08906354 -0.07335011
0.15997523 0.33249697 -0.15928334 -0.0015323068 -0.06956221 -0.08564068 0.039887816 -0.008565239
0.007685992 0.0011104648 0.076511405 -0.020786654 0.13555247 -0.054558657 0.0067795934 -0.08340391
-0.035567265 -0.0991643 0.06164782 -0.038806457 -0.03512549 0.076451585 0.07145426 -0.03388877
00000000: 4059 acbd f0a6 aebd b433 33bd 3ffc ae3c
00000010: f37e 583d 43db 113f 41d1 a23e 209a 623e
00000020: 0e54 56bc d2f5 ff3c 95f1 b2bd 83f8 073f
00000030: ec27 193f 16bf a5bd 36e1 ec3c 6ca0 cf3e
00000040: 6c7c a7be 4057 223f 1bc7 b2bd e0f5 923d
00000050: e778 933d ff19 e63e 711c 88bd 239b 02be
00000060: 09ac fdbd 3ddd 503c c8cc 8e3a 3e6c 6ebe
00000070: 2044 0cbe 435c a23c cc23 ac3d 83ce 13bd
00000080: 1f8d 2c3c 839d c73d f23c a33d 9fd6 fcbd
00000090: fa6d 193e 66c9 243e 485e 2e3c d843 42bd
000000a0: 9f71 b0be 5fca 563d 8318 673e c312 223d
000000b0: 89c6 0abd c213 9c3c acfd c8be aa8c 9abd
000000c0: ee82 49be a913 b23e 98c4 b23d 04a3 103e
000000d0: 281a 87bc 9a2b a7be 4eb7 9d3c 9585 9e3d
000000e0: ba1a cf3d ba1f 55bc b485 e5bc ccc9 e93b
000000f0: ee4c d83d 4ee0 fe3c df6c 903d 04d7 64bd
00000100: 5e97 963d d137 93bd 09b2 95bc eb43 8ebd
00000110: 7e91 11bc d9de 933d 9948 1abd e8ec d5bc
00000120: 0b0f b03d fb47 32bd 053b 9bbd ad68 8bbd
00000130: 423b c5bd 6eaa f53b 7dda 31bd c2ce 55bc
00000140: 106b c2bd 066a 8e3d ab20 b63d 1c3d d3bd
00000150: efbe 3bbd c0fd 66bc bb32 93bd 06dd e0bc
00000160: 1069 c0bd 2c76 bdbb 05c7 98bd 1964 a83d
00000170: b5ba 12bd c954 d4bd d27c ac3d fd85 043f
00000180: 4a4f 033f 64e2 393f bd87 a03d 81b3 8abd
00000190: 205e 04be b1f2 193f bf5a 733f a56a a7bc
000001a0: 0558 953d 0eff 963e ea0c 88be b640 563f
000001b0: e6b4 503e e80a b9bd f13d 833d f108 113f
000001c0: 3641 1ebf 5853 afbc 817b 84bd 1c21 26bd
000001d0: cd45 9d3e 060e abbe 63db 44bd c1dd f53d
000001e0: a627 30bd e8e1 12bd ee8c 1dbd 324c 8dbd
000001f0: 9c7e 943d cb66 0e3d fcc3 063d 8286 323e
00000200: 4044 5dbc 3c9d ea3c 1ec3 31bf 1544 0e3e
00000210: 726b f43d c196 3b3e c64c 283e 8dd4 243d
00000220: ecd6 593e 17a8 0a3c b6f1 28be 9646 c83c
00000230: 070b 2e3e 2ae1 0a3e f97c 443e f93d 19bf
00000240: 4d21 b73e 8af9 5a3c 9ed2 77bd 0211 983d
00000250: b497 a73d 2d7a 60bd d5bd b93d a5d2 3f3e
00000260: dbdd 483e f7db bf3d 6cb7 313e a1bc c13d
00000270: 957b 303d 184d 193d d288 52bd bc4e c43c
00000280: 6403 67bc 087d bcbd 3193 cb3d 8660 803d
00000290: 8770 bbbd 1e5f 52bd 3565 4bbd 5697 af3d
000002a0: b22f 8a3d daf4 a4bd e7fa cb3a 1d49 973d
000002b0: 16ac 853c d526 afbd 3acc cb3d c475 bb3d
000002c0: 9f5e 463d f84b fabc 2851 0e3d f328 d7bc
000002d0: 1745 9fbc c1f0 73bd 9af4 373d bab5 a0bd
000002e0: 366e 89bc 194d 3a3d 3579 033f 01ce 973d
000002f0: aa0e c93c f510 b73b 31b9 11bb 9f65 18be
00000300: 53ed 41be 7949 053d cf02 883d 038e b5be
00000310: a3ba 0cbf 2b22 20be 40d0 1c3c b7b8 88bd
00000320: b80f d53d 182c 8cbd 5309 18bf 2810 b93d
00000330: 67c0 803c 7880 a93d f4fc 683e 82a0 0d3f
00000340: d1e8 1bbe dc9f d6bd 5c63 b3bc 36cf 8e3d
00000350: 20bd 063d e58a 263d 28e3 b53d 2b15 173d
00000360: 88fb 143d e869 8b3e 4cf1 a3bd 271b 283c
00000370: 2a5e be3e 2435 9cbd 76ef d43d b4bf a1bd
00000380: 1be4 223d 8818 a7bd 7a8b 0dbe c246 263d
00000390: b855 dc3d 83ae f23e f266 b63d 9538 96bd
000003a0: 8cd0 233e 0b3d aa3e 2c1b 23be afd7 c8ba
000003b0: a276 8ebd 6164 afbd 6861 233d 3755 0cbc
000003c0: c6da fb3b 048d 913a 03b2 9c3d c648 aabc
000003d0: 44ce 0a3e e678 5fbd 5a27 de3b abcf aabd
000003e0: fbae 11bd a716 cbbd 6d82 7c3d 85f3 1ebd
000003f0: bfdf 0fbd a692 9c3d 9c56 923d f3ce 0abd

net.0.bias f4 [128]
0.06182284 0.13334541 -0.01804874 -0.12114585 -0.052115176 0.0015655091 0.015099654 -0.098622225
0.04993282 0.053367443 -0.14353132 -0.04849975 0.08734996 -0.068727665 0.06751808 0.0065417835
0.031833235 -0.13470407 -0.015468583 -0.08365126 0.03526633 -0.05149659 -0.03577586 0.0065470296
0.1801269 0.03324359 0.041571397 -0.023909567 0.047648374 0.017139157 0.11966442 -0.070044674
-0.056799773 0.0622193 0.026730081 0.05112196 0.020756451 -0.13162157 -0.002280541 0.004539096
-0.03899436 0.11612258 0.013785454 -0.02328789 -0.07334688 0.004826126 0.16081782 0.019706173
-0.14112176 0.023189062 -0.04250401 -0.061430883 -0.021086881 -0.035890136 -0.051219128 -0.13345133
-0.067855 0.27271822 -0.022003936 0.045489434 0.0377305 0.012017595 -0.09360001 -0.019129032
-0.08056356 -0.028874762 0.11891111 0.062311936 -0.09078476 0.034867648 -0.03653647 0.0783507
0.10960914 -0.007914654 0.027849562 -0.047708265 -0.007263438 -0.06212913 -0.13751325 -0.14131181
-0.013313055 0.008134958 0.031756334 0.030563276 0.009126413 -0.035356816 0.035879266 0.094096884
0.011880929 0.027328352 -0.13892546 -0.04626643 -0.013245714 0.08471833 -0.019999202 -0.055645984
-0.050446376 0.064871654 -0.014696202 -0.032849055 0.00024306095 -0.077722795 0.117379025 0.05118881
0.10396734 0.063330084 0.08170601 0.05875549 -0.06191135 -0.06202009 0.050332047 -0.044430215
-0.03211458 0.07403856 0.12439879 0.00089935045 -0.16926658 -0.04466488 -0.04231022 0.04266536
-0.06800125 -0.058328815 0.109184764 0.04530472 0.0014685672 -0.02742101 0.024490967 -0.04653893
00000000: f239 7d3d b38b 083e f4da 93bc 511b f8bd
00000010: b976 55bd c531 cd3a 8a64 773c 73fa c9bd
00000020: 5b86 4c3d d297 5a3d e0f9 12be ada7 46bd
00000030: 89e4 b23d 17c1 8cbd eb46 8a3d 755c d63b
00000040: 9163 023d ddef 09be f16f 7dbc 5a51 abbd
00000050: 6d73 103d 17ee 52bd b589 12bd 7788 d63b
00000060: 3073 383e 6e2a 083d c546 2a3d ffdd c3bc
00000070: f12a 433d 6b67 8c3c 9f12 f53d 9573 8fbd
00000080: e1a6 68bd aad9 7e3d 0bf9 da3c 4365 513d
00000090: 6f09 aa3c cec7 06be 2175 15bb b2bc 943b
000000a0: 8db8 1fbd add1 ed3d 63dc 613c 3fc6 bebc
000000b0: e436 96bd 7b24 9e3b 6dad 243e d76e a13c
000000c0: 3982 10be fdf6 bd3c af18 2ebd f39e 7bbd
000000d0: 65be acbc 8901 13bd 26cb 51bd 77a7 08be
000000e0: 90f7 8abd b9a1 8b3e 9941 b4bc 2153 3a3d
000000f0: 4c8b 1a3d 72e5 443c 5db1 bfbd 7db4 9cbc
00000100: 82fe a4bd c48a ecbc ab87 f33d cd3a 7f3d
00000110: 5ced b9bd 61d1 0e3d 44a7 15bd 5576 a03d
00000120: c27a e03d 77ac 01bc c424 e43c be69 43bd
00000130: 2202 eebb 1d7b 7ebd 46d0 0cbe 0bb4 10be
00000140: 001f 5abc 7d48 053c ee12 023d d65f fa3c
00000150: f386 153c 4fd2 10bd 23f6 123d deb5 c03d
00000160: 3aa8 423c b5df df3c 7a42 0ebe de81 3dbd
00000170: 8d04 59bc ce80 ad3d 5ed5 a3bc 0bed 63bd
00000180: dca0 4ebd 6edb 843d 57c8 70bc bb8c 06bd
00000190: 2dde 7e39 212d 9fbd 6a64 f03d 5cab 513d
000001a0: d4ec d43d 34b3 813d 7b55 a73d 99a9 703d
000001b0: c196 7dbd c708 7ebd fa28 4e3d 75fc 35bd
000001c0: 948a 03bd 87a1 973d cbc4 fe3d 63c2 6b3a
000001d0: 3854 2dbe 85f2 36bd 7b4d 2dbd dfc1 2e3d
000001e0: 3d44 8bbd 32ea 6ebd 439c df3d 7191 393d
000001f0: f07c c03a 07a2 e0bc 48a1 c83c 9b9f 3ebd

net.2.weight f4 [5, 128]
0.205295 0.5887215 0.11291459 0.7865166 0.011541733 1.0444511 0.1872339 -0.0404545
0.026076926 -0.048801806 -0.12202319 0.18135698 -0.0702615 -0.055903908 0.17293677 0.43438298
0.5398985 0.024648696 0.93371034 -0.013859324 0.16649793 -0.058641177 0.36593968 -0.03718407
0.082942165 0.44014487 -0.16962945 0.58864546 -0.029485622 0.28325093 0.20354411 0.41386303
0.1489872 0.26221067 0.51615095 -0.46298754 -0.04704719 -0.087719396 1.3408355 0.49073842
-0.44922236 0.08843701 0.47176728 0.00046738505 0.45432183 0.57861835 -0.17682798 -0.30033883
-0.003894567 -0.23651221 -0.39253762 -0.028620321 0.29070768 0.69583845 0.022646446 0.0333428
-0.017676562 -0.04138297 0.45822808 0.7996013 -0.5893394 0.21285436 0.0032427371 -0.036505554
-0.12731381 0.9743445 -0.1501537 -0.1068167 0.047978513 0.5217242 0.28801742 0.300808
0.2962765 0.17425568 0.39301074 0.25754225 -0.046604224 -0.28239214 -0.06857463 0.014559778
-0.012020901 -0.31081232 0.042220127 0.5104864 0.37361223 0.13154764 0.5814173 0.16935675
0.07940662 0.02145062 0.14589545 0.6893314 0.4692651 0.06267302 -0.06357434 0.78728914
-0.0538041 0.5596041 -0.059305295 0.5393042 0.03267151 -0.0021249293 0.3874188 0.326191
-0.040908232 0.2365769 0.24153772 -0.040131103 0.8610067 -0.009195915 -0.2956931 -0.02781037
0.64887166 -0.19524933 -0.4575304 0.21629916 -0.02671055 -0.076583385 0.09250416 0.20318647
1.0221908 0.05150399 0.103174575 0.8959936 0.36864913 -0.028609417 -0.079680346 -0.041640967
0.024963731 0.049133778 0.34383062 -0.012746165 0.02623421 -0.27029812 0.08279811 0.059135616
0.05089134 -0.055086173 -0.07131342 -0.39264405 0.09190293 0.079248585 0.35112542 -0.10697017
-0.29827625 0.06939742 -0.255344 -0.140573 -0.14091645 0.019970521 -0.0015263769 -0.023557654
0.12262258 -0.14101149 0.2791589 -0.18603827 0.03187997 -0.0018267834 0.2151163 -0.24191546
-0.1124558 -0.19522569 -0.39181373 -0.09592949 -0.07675401 -0.041354742 -0.5374844 -0.025692135
-0.09923347 -0.17343722 -0.12718935 0.030378811 -0.2544396 -0.020093448 -0.06123577 0.19477278
-0.073055886 0.021965185 0.26559544 0.06029543 -0.17366955 -0.59006214 -0.013455847 0.10611141
0.09348151 0.3092538 -0.14023592 -0.35189992 0.3435697 -0.0040867776 0.16537803 -0.088734746
-0.1653783 -0.32596287 -0.25217837 -0.23487595 0.015772816 -0.18415241 -0.16444626 -0.09138866
-0.060008053 0.17830016 -0.10435547 -0.3945113 -0.033924904 0.31654245 -0.08979717 -0.06394463
0.019413812 0.12769276 0.23316844 -0.42309624 -0.037989836 -0.2745461 -0.31488937 0.1571381
0.362691 0.3254609 0.0024318274 -0.33787355 -0.40207508 0.30133003 0.034883752 -0.21137461
-0.04754451 0.0589716 0.020792767 -0.17423381 -0.03913132 -0.10623174 0.054623935 -0.31319714
0.17087659 0.029552668 0.07243186 -0.09050603 -0.6294773 0.0490828 0.17311823 -0.049460087
-0.3254859 0.25213456 -0.029001525 0.022911206 -0.067779966 -0.06571296 0.02148428 0.22435386
-0.29124105 -0.058972843 -0.36823052 -0.27055675 -0.012278189 -0.08187452 -0.07532239 0.0021924342
00000000: da38 523e 74b6 163f c43f e73d 2759 493f
00000010: 8919 3d3c 93b0 853f 3eba 3f3e 9eb3 25bd
00000020: 479f d53c 67e4 47bd 4be7 f9bd a5b5 393e
00000030: 43e5 8fbd 7ffb 64bd 5616 313e 7267 de3e
00000040: ca36 0a3f 10ec c93c a407 6f3f 3812 63bc
00000050: 6f7e 2a3e bb31 70bd 725c bb3e 534e 18bd
00000060: 95dd a93d ab5a e13e 58b3 2dbe 78b1 163f
00000070: d58b f1bc 4406 913e de6d 503e dbe5 d33e
00000080: 1a90 183e 7a40 863e 7822 043f b40c edbe
00000090: 8eb4 40bd 3aa6 b3bd 7fa0 ab3f 1142 fb3e
000000a0: 7900 e6be 771e b53d 7b8b f13e 5c0b f539
000000b0: df9c e83e 5520 143f 6512 35be 03c6 99be
000000c0: fe3b 7fbb 4230 72be b1fa c8be 2a75 eabc
000000d0: a3d7 943e 7822 323f 0a85 b93c 7692 083d
000000e0: 70ce 90bc 3081 29bd df9c ea3e acb2 4c3f
000000f0: f2de 16bf 7ef6 593e 1a84 543b d986 15bd
00000100: 8d5e 02be a46e 793f e4c1 19be b7c2 dabd
00000110: 1e85 443d b88f 053f 0577 933e 8203 9a3e
00000120: 8eb1 973e 1570 323e b438 c93e 94dc 833e
00000130: 12e4 3ebd b495 90be db70 8cbd 238c 6e3c
00000140: 50f3 44bc cb22 9fbe 03ef 2c3d 3daf 023f
00000150: 1a4a bf3e 6db4 063e c4d7 143f db6b 2d3e
00000160: f09f a23d 36b9 af3c 9e65 153e 0678 303f
00000170: 8443 f03e b65a 803d 4333 82bd c88b 493f
00000180: b061 5cbd 3742 0f3f 1cea 72bd d70f 0a3f
00000190: 90d2 053d 6642 0bbb c25b c63e 8202 a73e
000001a0: 648f 27bd 3741 723e aa55 773e 8360 24bd
000001b0: ef6a 5c3f 77aa 16bc 1665 97be 93d2 e3bc
000001c0: 741c 263f 71ef 47be 6d41 eabe 877d 5d3e
000001d0: 15d0 dabc c0d7 9cbd d272 bd3d 1d10 503e
000001e0: 26d7 823f d9f5 523d 314d d33d d65f 653f
000001f0: 94bf bc3e 4c5e eabc 732f a3bd b88f 2abd
00000200: bd80 cc3c 8040 493d 910a b03e 4ad5 50bc
00000210: 20e9 d63c 8464 8abe 0e92 a93d 3038 723d
00000220: 7073 503d 0aa2 61bd c50c 92bd a408 c9be
00000230: 9a37 bc3d 154d a23d b6c6 b33e 2d13 dbbd
00000240: aab7 98be 3c20 8e3d 73bc 82be 5ef2 0fbe
00000250: 674c 10be 3899 a33c b610 c8ba fbfb c0bc
00000260: 8c21 fb3d 5165 10be eaed 8e3e d180 3ebe
00000270: 9294 023d ae70 efba 7347 5c3e b0b8 77be
00000280: 3a4f e6bd 3ee9 47be cf9b c8be ae76 c4bd
00000290: 3531 9dbd 9763 29bd 9498 09bf 5078 d2bc
000002a0: eb3a cbbd 8799 31be ed3d 02be fcdc f83c
000002b0: e845 82be 049b a4bc 5cd2 7abd 8472 473e
000002c0: 539e 95bd 55f0 b33c 20fc 873e 57f8 763d
000002d0: 6ed6 31be 500e 17bf ea75 5cbc f050 d93d
000002e0: 3c73 bf3d 8456 9e3e 019a 0fbe 3a2c b4be
000002f0: 5ee8 af3e 60ea 85bb dc58 293e 90ba b5bd
00000300: ee58 29be 9be4 a6be 861d 81be 5283 70be
00000310: fe35 813c 7392 3cbe 9a64 28be fa29 bbbd
00000320: 01cb 75bd 5194 363e 52b8 d5bd 63fd c9be
00000330: d7f4 0abd da11 a23e 94e7 b7bd 67f5 82bd
00000340: b709 9f3c e4c1 023e b5c3 6e3e 12a0 d8be
00000350: 3b9b 1bbd 4e91 8cbe 2e39 a1be cfe8 203e
00000360: a2b2 b93e d0a2 a63e 4b5f 1f3b c3fd acbe
00000370: c9dc cdbe ee47 9a3e 44e2 0e3d 9672 58be
00000380: 08be 42bd 348c 713d 9855 aa3c 596a 32be
00000390: 2a48 20bd 0790 d9bd 59bd 5f3d 605b a0be
000003a0: 46fa 2e3e 7018 f23c 2857 943d 3a5b b9bd
000003b0: 6d25 21bf 0c0b 493d e845 313e a996 4abd
000003c0: 16a6 a6be c817 813e 9b94 edbc 48b0 bb3c
000003d0: 39d0 8abd 8494 86bd cdff af3c 05bd 653e
000003e0: 8c1d 95be 828d 71bd b688 bcbe 6a86 8abe
000003f0: 752a 49bc d4ad a7bd a042 9abd f1ae 0f3b

net.2.bias f4 [5]
-0.06553742 0.24557166 -0.0005400259 -0.38887054 0.03881184
00000000: 7c38 86bd 2377 7b3e 8690 0dba 0a1a c7be
00000010: 2af9 1e3d
