checkpoints/frogger_policy_0.71.pt (torch, 51797 bytes, 4 tensors)

net.0.weight f4 [128, 90]
0	0x3d24c64b	0.04022817
1	0x3d06d8ba	0.03292153
2	0xbcfe6def	-0.03105828
3	0x3da2d221	0.07950235
4	0x3c6f48da	0.0146047715
5	0xbd099164	-0.03358592
6	0xbcee2b2a	-0.029073317
7	0x3d69863e	0.05701279
8	0xbdb6cecc	-0.08926162
9	0x3cc76d2f	0.024344055
10	0x3d9199c9	0.0710941
11	0x3d859dce	0.065242395
12	0x3db8e837	0.090286665
13	0xbd088e4f	-0.03333884
14	0x3ce895f6	0.02839182
15	0x3daa7fbf	0.08325147
16	0xbddec62e	-0.108776435
17	0x3c4762c3	0.012169543
18	0x3dcf64eb	0.101266704
19	0xbdf30ba0	-0.11867452
20	0xbdafde03	-0.08587267
21	0xbc348b20	-0.011019498
22	0xbd0d3b0e	-0.034480147
23	0xbda17ac2	-0.07884742
24	0x3d7cf53a	0.061757304
25	0x3c474c98	0.0121642575
26	0x3d62c2ec	0.055361673
27	0x3bf7bcba	0.0075603398
28	0x3ddef6ee	0.10886942
29	0xbd781cbc	-0.06057428
30	0x3c09f0bc	0.008419212
31	0x3db7349e	0.08945583
32	0xbc460888	-0.012086995
33	0x3b2df4e2	0.0026543667
34	0x3dcf5348	0.101233065
35	0x3d8e9aa9	0.06963093
36	0xbdbdc13a	-0.09265371
37	0xbde6a9e8	-0.11262876
38	0xbd8e5ac0	-0.06950903
39	0xbcd168c9	-0.02556266
40	0xbc32c5da	-0.010911429
41	0xbd595d07	-0.053067233
42	0xbc9e909d	-0.019356066
43	0xbd346406	-0.044040702
44	0xbe18eb94	-0.14933616
45	0xbcb403bf	-0.021974443
46	0x3d092e5b	0.033491474
47	0xbdc54b2e	-0.0963348
48	0x3cbc0338	0.022950754
49	0xbe02c020	-0.12768602
50	0xbe014d24	-0.12627083
51	0xbd8d4d13	-0.06899466
52	0x3ca323d8	0.019914553
53	0xbdb9f86b	-0.09080585
54	0xbe0adacd	-0.13560028
55	0xbc4a0177	-0.012329451
56	0xbdcdd0e9	-0.10049612
57	0x3d5950f0	0.053055704
58	0x3b4bd237	0.003110064
59	0x3db99c1f	0.09062981
60	0x3cf48cfe	0.029852387
61	0xbe12cd2f	-0.14336084
62	0xbd0ee3ee	-0.03488534
63	0x3d3abcd4	0.045590237
64	0x3ccf82d6	0.025330942
65	0xbd916d36	-0.071009085
66	0x3dd3a8ec	0.10334954
67	0xbdbf92d4	-0.09354177
68	0xbd1bf2f4	-0.038073495
69	0xbd95efc4	-0.07321122
70	0xbcafe190	-0.021469861
71	0x3dbae4d9	0.091256805
72	0xbd5825da	-0.052770473
73	0x3d9386b3	0.07203426
74	0x3daa42c4	0.08313516
75	0xbdb817ff	-0.08988952
76	0x3c678719	0.014131331
77	0xbdd0fe01	-0.102046974
78	0xbdd294da	-0.102822974
79	0x3d8fc505	0.0702
80	0xbdab0d1d	-0.083521105
81	0xbdaf155e	-0.08548997
82	0xbd7449cc	-0.05964069
83	0x3da31061	0.079621084
84	0xbd90494f	-0.070452325
85	0x3c952dc6	0.018210303
86	0x3ce412a3	0.027840918
87	0x3d5e619e	0.054292314
88	0xbd3ad5df	-0.04561412
89	0x3d241732	0.040061183
90	0xbdbd5c23	-0.09246089
91	0xbdb561c4	-0.08856538
92	0xbd2f2067	-0.04275551
93	0x3dbdc659	0.092663474
94	0x3d6b193f	0.057397123
95	0x3d746c3d	0.059673537
96	0xbd19af3f	-0.037520643
97	0xbdbb04bf	-0.091317646
98	0xbd816322	-0.06317736
99	0xbdc5d498	-0.0965969
100	0x3e0ad231	0.13556744
101	0x3d1274f6	0.035756074
102	0xb9ad7276	-0.0003308241
103	0xbd793ef4	-0.060851052
104	0xbd15abf0	-0.036540926
105	0xbde7de43	-0.1132169
106	0x3cf44119	0.029816197
107	0xbd06f699	-0.032950018
108	0xbcfa8887	-0.03058268
109	0x3d0a30a2	0.033737786
110	0x3d8e89a6	0.06959848
111	0x3ba6aeec	0.0050867703
112	0x3df60d81	0.120142944
113	0x3d010a24	0.03150381
114	0x3cfff2cc	0.031243704
115	0x3d26f026	0.040756367
116	0x3cff93d2	0.031198416
117	0xbd493ba1	-0.049129132
118	0x3dbec82b	0.09315523
119	0x3dbda4d2	0.092599526
120	0xbd95dfae	-0.07318054
121	0xbcab27ea	-0.020893056
122	0xbbb95048	-0.005655322
123	0xbda2d44f	-0.07950651
124	0x3d924827	0.07142668
125	0x3bc04099	0.0058670756
126	0xbd1db1b6	-0.038499556
127	0xbd0391ad	-0.03212135
128	0x3d331a93	0.043726515
129	0xbd83325b	-0.06406089
130	0xbd672f90	-0.056441844
131	0xbd57557d	-0.052571762
132	0x3d8ce25d	0.06879113
133	0xbe0897f0	-0.1333921
134	0x3c3a6df3	0.011378753
135	0xbd9354cb	-0.07193907
136	0x3ce45c51	0.027876051
137	0xbcaf24f6	-0.021379929
138	0xbdc886f3	-0.097913645
139	0xbe0a96e2	-0.1353412
140	0x3c0246e5	0.007951473
141	0xbc6c1bd8	-0.014410935
142	0xbd7dee32	-0.06199474
143	0xbc5c1417	-0.013432524
144	0x3c02d595	0.007985492
145	0x3cdb90c0	0.02680242
146	0x3ceb1b28	0.028699473
147	0xbd992304	-0.07477382
148	0x3d52b852	0.051445313
149	0x3d1c009e	0.038086526
150	0xbdc2def3	-0.095151804
151	0xbb84bcbc	-0.004050819
152	0xbe1985c8	-0.1499244
153	0xbe2e9c80	-0.17051888
154	0xbdf6c94f	-0.12050115
155	0x3d6aafbf	0.05729651
156	0xbd9eb753	-0.0774981
157	0x3dcba8c0	0.09944296
158	0x3d5e8dbe	0.054334395
159	0xbd73033a	-0.05932925
160	0xbdbed2e6	-0.093175694
161	0x3db15c7c	0.08660218
162	0x3beca3c1	0.0072216694
163	0x3cf8a576	0.030352335
164	0xbc90b14a	-0.017662663
165	0xbdab417f	-0.08362102
166	0xbd899de9	-0.06719572
167	0xbc0139a4	-0.007887278
168	0xbd304444	-0.043033853
169	0xbd2dcf51	-0.04243404
170	0x3d27c985	0.04096367
171	0xbcce216e	-0.025162425
172	0x3d2060bf	0.039154764
173	0x3db678b8	0.08909744
174	0x3d260353	0.040530514
175	0xbd354343	-0.0442536
176	0x3d4070ea	0.046982683
177	0x3d623b09	0.05523208
178	0xbd979337	-0.07401126
179	0x3c04a189	0.008095154
180	0xbc92fde5	-0.017943332
181	0x3c2feea3	0.010738048
182	0xbd1936bb	-0.03740571
183	0x3da275fb	0.07932659
184	0xbdbdadde	-0.09261678
185	0xbda2b438	-0.0794453
186	0x3d37d0b5	0.044876773
187	0xbe88745f	-0.26651284
188	0xbebedfc9	-0.3728011
189	0xbdf2c1ab	-0.118533455
190	0x3d409899	0.04702053
191	0x3e32bb6d	0.1745431
192	0xbe833b0a	-0.2563098
193	0xbebf650b	-0.37381777
194	0xbe998add	-0.29988757
195	0x3d08f57e	0.033437245
196	0xbda20ae3	-0.07912233
197	0xbeae1321	-0.3399897
198	0x3d70e3a0	0.05881083
199	0x3d9f53f3	0.07779684
200	0xbdb334a4	-0.08750275
201	0xbd53b4c1	-0.051686052
202	0xbe9443c1	-0.28957942
203	0xbe06b63e	-0.13155457
204	0xbdb7ccaa	-0.089745834
205	0xbc3f596c	-0.011679035
206	0x3ed958a3	0.42450437
207	0x3ebb7945	0.3661596
208	0xbe9f0d64	-0.31064904
209	0xbe9d1cb3	-0.30685958
210	0xbd3cca51	-0.04609138
211	0x3cd9121a	0.02649789
212	0xbd5e2fda	-0.054244854
213	0x3d80f383	0.06296446
214	0x3cae34ff	0.021265505
215	0xbd25a46d	-0.04044001
216	0x3e189fee	0.14904758
217	0x3da6ca15	0.08144013
218	0xbf0f4a45	-0.559727
219	0xbd48eca3	-0.0490538
220	0x3e88ffe0	0.26757717
221	0x3d0ff2fb	0.035143834
222	0xbf35673a	-0.70860636
223	0x3e148218	0.14502752
224	0x3e647118	0.22308767
225	0xbf16876f	-0.58800405
226	0x3d2c8862	0.042122252
227	0x3e4aea10	0.1981585
228	0x3dae749e	0.08518337
229	0x3d80d723	0.06291034
230	0xbf797410	-0.9744272
231	0x3cebf1e4	0.028801866
232	0x3e298948	0.16556275
233	0x3e9ad2d1	0.30238965
234	0x3d0e2d9d	0.03471147
235	0x3d101111	0.035172526
236	0xbd8b65af	-0.06806504
237	0xbdb548e2	-0.08851792
238	0x3ce4bd4b	0.027922293
239	0xbcc691bf	-0.024239419
240	0xbd474e81	-0.04865885
241	0xbdbd0084	-0.09228614
242	0xbd95e582	-0.07319166
243	0x3ba9688d	0.005169934
244	0x3d3daf7b	0.04630993
245	0x3d8b77a3	0.06809928
246	0xbce01783	-0.027354961
247	0xbbe0d6f0	-0.00686156
248	0xbd9fb07c	-0.077973336
249	0xbd84106e	-0.06448446
250	0x3ba41fd0	0.005008675
251	0x3d0dd3fb	0.03462599
252	0x3db77752	0.089583054
253	0xbca751b6	-0.020424705
254	0xbd27a1be	-0.040925734
255	0x3d7968ee	0.060891084

net.0.bias f4 [128]
0	0xbd4709a9	-0.048593197
1	0x3c9fbe85	0.019500026
2	0x3dce8c4a	0.10085352
3	0xbd93a4c8	-0.07209164
4	0xbda18b05	-0.07887844
5	0x3ca98bde	0.020696577
6	0x3dd991ab	0.10623487
7	0x3e355a4f	0.17710231
8	0xbdb5a1f1	-0.088687785
9	0xbe1247bc	-0.14285177
10	0x3e1620a6	0.14660892
11	0xbbbf89f1	-0.0058453013
12	0xbe43e24a	-0.19129291
13	0x3caed346	0.021340977
14	0x3cdf5d90	0.027266294
15	0x3cbab950	0.022793442
16	0xbd5977f0	-0.053092897
17	0x3d09cf4d	0.033644963
18	0x3dc3813b	0.09546133
19	0xbdc4b9db	-0.096057616
20	0x3dd20f5d	0.102568366
21	0x3dccc48b	0.09998425
22	0x3d1d813e	0.038453333
23	0x3db0f53b	0.08640524
24	0xbd45cefa	-0.04829309
25	0xbc04665b	-0.008081044
26	0xbdcd15e3	-0.1001394
27	0xbd9f2a1d	-0.07771704
28	0x3e12f5f3	0.14351635
29	0x3dc3b3af	0.09555756
30	0xbda3b82c	-0.07994112
31	0x3dfc0b3e	0.12306832
32	0x3dfc55cd	0.12321053
33	0x3da04c3f	0.07827043
34	0x3dbc71a1	0.092013605
35	0x3d146e01	0.03623772
36	0x3cbea46f	0.023271767
37	0x3bb462b9	0.0055049327
38	0x3e2bad87	0.16765414
39	0x3e15dafd	0.14634319
40	0xbd84024a	-0.06445749
41	0xbcdcca14	-0.026951827
42	0x3c4c29dc	0.012461152
43	0xbd1dc02b	-0.038513344
44	0x3dd29c42	0.1028371
45	0xbd77e709	-0.060523067
46	0xbe034e0d	-0.12822743
47	0x3c69d99e	0.014273075
48	0xbe5cd7c8	-0.21566689
49	0x3d0c299c	0.03421937
50	0x3c43e841	0.011957229
51	0xbd74a39a	-0.059726335
52	0x3cddbef4	0.027068593
53	0x3bd3139f	0.006441548
54	0xbcf4c97a	-0.029881228
55	0x3d7224fa	0.059117295
56	0x3d60dd92	0.054898806
57	0x3dc4f239	0.09616513
58	0xbd9e079d	-0.07716296
59	0x3d0783b3	0.033084583
60	0x3d1e9279	0.038713906
61	0x3d0764ff	0.0330553
62	0xbd100d4e	-0.03516894
63	0x3de020f9	0.10943789
64	0xbd1097b5	-0.03530093
65	0x3e03fee0	0.12890196
66	0xbc641ea1	-0.013923318
67	0xbc0da96c	-0.00864635
68	0x3dcca496	0.0999233
69	0x3e145b41	0.14487936
70	0xbc32383a	-0.010877663
71	0x3c473551	0.012158708
72	0xbc86da4d	-0.016461516
73	0xba09a19a	-0.0005250216
74	0xbd935623	-0.07194164
75	0x3cd81d99	0.0263813
76	0x3ceb316a	0.028710086
77	0xbc1473b1	-0.009060786
78	0x3ca3cbd9	0.019994663
79	0x3e20c09e	0.15698478
80	0xbd128477	-0.03577086
81	0xbe0066ac	-0.12539166
82	0x3d8613cd	0.065467454
83	0x3c86bdd5	0.01644794
84	0xbdce8a49	-0.100849696
85	0xbe1e701d	-0.15472455
86	0xbca8d474	-0.020609118
87	0xbcb2bb26	-0.021817755
88	0x3bc7890a	0.0060893344
89	0xbd4c9e5f	-0.049955722
90	0xbd540fd1	-0.051772896
91	0x3db1e2b2	0.08685817
92	0x3d12a46d	0.03580134
93	0xbd71ee24	-0.059065
94	0xbd4cebaf	-0.050029453
95	0xbcf4a585	-0.029864082
96	0xbdb9e92f	-0.09077679
97	0xbd8f2561	-0.06989551
98	0xbd02d7a3	-0.03194393
99	0x3e035e69	0.12828983
100	0x3da5c05e	0.08093332
101	0x3ce0c019	0.02743535
102	0x3cc153f9	0.023599612
103	0x3d78e632	0.060766406
104	0xbc4fd07d	-0.012683985
105	0x3c81eb6a	0.015859324
106	0xbdbf7fb5	-0.0935053
107	0x3e30b2ff	0.17255782
108	0x3b7b158f	0.003831241
109	0x39ec65ba	0.0004508922
110	0x3bee9bac	0.007281741
111	0xbddb5afc	-0.10710713
112	0xbc74962d	-0.014928383
113	0x3d9975a0	0.07493138
114	0x3e38421c	0.17993969
115	0xbd6b125f	-0.057390567
116	0x3afdd76c	0.0019366569
117	0xbcefc357	-0.02926795
118	0x3c6dd9a4	0.014517222
119	0xbdad2e98	-0.08456153
120	0x3c969bb1	0.018384786
121	0x3dc05f2e	0.09393154
122	0x3d8487ce	0.06471215
123	0x3d086d3b	0.033307295
124	0xbc9b7250	-0.018975407
125	0x3b4e2c7d	0.0031459623
126	0xbd5d6542	-0.054051645
127	0x3cb7f447	0.022455348

net.2.weight f4 [5, 128]
0	0xbd380d92	-0.044934817
1	0xbb07d1d3	-0.002072443
2	0xbed510ba	-0.41614324
3	0xbd5d8f0f	-0.05409151
4	0xbd2d2e2c	-0.04228036
5	0x3d545842	0.05184198
6	0x3be40fe1	0.0069599007
7	0x3da3fc32	0.08007087
8	0xbca49e36	-0.020094972
9	0xbd86dc3f	-0.06584977
10	0x3f38df43	0.7221567
11	0x3cc439fa	0.023953427
12	0x3d93ca7e	0.07216357
13	0xbdec1c48	-0.11528832
14	0xbd97c6db	-0.074109755
15	0x3f2b40ad	0.6689556
16	0xbd67ff20	-0.05663979
17	0x3df0210f	0.117250554
18	0x3c8749e2	0.016514722
19	0xbd835e9b	-0.06414529
20	0x3eef1494	0.46695387
21	0xbda53e80	-0.080685616
22	0x3e4be566	0.19911727
23	0x3e449b22	0.19199803
24	0xbe89891c	-0.2686242
25	0xbcfbda88	-0.030743852
26	0x3c22bcc2	0.009932699
27	0xbd8347f0	-0.06410205
28	0x3f4d4507	0.8018345
29	0x3de7f42e	0.113258705
30	0xbe16eab1	-0.14737965
31	0x3e5599cc	0.2085945
32	0x3eda927d	0.42689887
33	0x3f061888	0.5238118
34	0xbe8df009	-0.27722195
35	0xbe8557da	-0.26043588
36	0xbc11bfbd	-0.008895812
37	0xbe27259d	-0.16322942
38	0x3e1f2d7b	0.15544693
39	0x3f252757	0.6451315
40	0xbc0bb516	-0.008527061
41	0xbd8f0e9e	-0.0698521
42	0x3ed647a1	0.41851524
43	0xbd76300b	-0.06010441
44	0x3e846d84	0.25864804
45	0xbcc15c73	-0.023603654
46	0xbc8228e0	-0.015888631
47	0x3dfe717e	0.12423991
48	0xbd982476	-0.07428829
49	0x3ec5081d	0.38482752
50	0x3df28329	0.11841423
51	0xbe1a37e3	-0.15060382
52	0x3eaaa684	0.33330166
53	0x3f02c7eb	0.510863
54	0xbce7aaf8	-0.028279766
55	0x3ec5d661	0.3864012
56	0x3d5b196c	0.05349104
57	0x3eb04d1e	0.34433836
58	0x3d7b4629	0.061346207
59	0x3e0606ec	0.13088578
60	0xbe41198f	-0.18857406
61	0x3d8a449e	0.06751369
62	0xbce70bab	-0.028203806
63	0x3eb27a64	0.34859002
64	0xbd1bae7e	-0.038008206
65	0x3f0bd974	0.5462868
66	0x3ee99141	0.45618632
67	0x3f12963e	0.572605
68	0x3ea8d0e6	0.32971877
69	0x3e920cee	0.2852549
70	0xbe27de75	-0.16393454
71	0xbd0b0465	-0.033939738
72	0xbd5fa6cb	-0.054602426
73	0xbd86af7a	-0.06576438
74	0xbc708fe9	-0.014682748
75	0x3e775b26	0.24155864
76	0x3eabc83a	0.33551198
77	0x3e9c8f5f	0.30578133
78	0xbe98a9cf	-0.29817054
79	0xbd8e2462	-0.06940533
80	0x3da91e85	0.08257774
81	0x3ef3d57a	0.47623807
82	0xbd8f0931	-0.06984175
83	0x3efe55d6	0.49674863
84	0x3c339a19	0.010962033
85	0x3bf9f8ae	0.007628522
86	0x3e81fc2a	0.25387698
87	0xbdab4145	-0.083620586
88	0x3eaf2fc3	0.34216127
89	0x3eaeb644	0.34123433
90	0xbeafacf9	-0.34311655
91	0xbd548f42	-0.051894434
92	0x3f082d4e	0.5319413
93	0x3e83094d	0.25593033
94	0xbea1168e	-0.3146252
95	0x3eb93a95	0.36177507
96	0xbd52a3b1	-0.05142564
97	0xbc9d7196	-0.019219201
98	0xbea8a0bb	-0.32935128
99	0x3da334a7	0.07969027
100	0x3eaafd09	0.33396176
101	0xbbeb43c2	-0.007179708
102	0x3ee3e158	0.4450786
103	0x3d2f6c97	0.04282817
104	0xbc8242d8	-0.015901014
105	0x3d12bf94	0.035827234
106	0xbcca3879	-0.024685131
107	0x3e070d87	0.13188754
108	0x3e696a6f	0.22794507
109	0x3e5ef52c	0.21773213
110	0x3f21febf	0.63279337
111	0x3f3bce30	0.7336149
112	0x3e05130a	0.12995544
113	0xbc79abe7	-0.015238739
114	0x3e8ebbb5	0.27877584
115	0x3cad37af	0.021144716
116	0xbcc5ccd4	-0.024145521
117	0x3f25adbe	0.64718235
118	0x3c7a2ea0	0.015269905
119	0xbe222724	-0.15835243
120	0x3e6b8f08	0.23003781
121	0x3ec7a412	0.38992363
122	0x3edb3a72	0.42818028
123	0xbe687c91	-0.22703768
124	0x3ee3c1c7	0.44483778
125	0x3ccf58e4	0.025310941
126	0x3e5411f3	0.20709972
127	0x3cde8cfb	0.027166834
128	0x3d2b8dcf	0.041883286
129	0xbba169f3	-0.00492596
130	0xbe84cbdb	-0.2593678
131	0x3b247b16	0.002509778
132	0xbd16a46e	-0.036777906
133	0xbe408d60	-0.1880393
134	0x3ed4d1ca	0.41566306
135	0xbe56a379	-0.20960797
136	0xbce88b23	-0.028386658
137	0xbd0d5312	-0.03450305
138	0xbf0b78e1	-0.5448132
139	0x3d38a2a8	0.045076996
140	0xbd58913d	-0.052872885
141	0x3e0cfd29	0.13768448
142	0xbd848a76	-0.06471722
143	0xbeafaeaf	-0.3431296
144	0x3d78393a	0.06060145
145	0xbe6b154c	-0.22957343
146	0x3cbab872	0.022793029
147	0xbd0eb4c2	-0.034840353
148	0xbe06b3a2	-0.13154462
149	0x3c816a05	0.015797624
150	0xbdbd0e0f	-0.09231197
151	0xbe1f2499	-0.15541305
152	0x3debe56b	0.115183674
153	0xbb957838	-0.0045614503
154	0x3d78fef0	0.060790002
155	0x3d4b8d3c	0.04969524
156	0xbefefa61	-0.498004
157	0x3e9da126	0.3078701
158	0x3e359ef6	0.1773642
159	0x3e405ab9	0.18784608
160	0x3e416183	0.18884854
161	0xbe8c854c	-0.27445447
162	0x3ec4e336	0.38454598
163	0x3ebc06e4	0.36724007
164	0x3d55501b	0.052078348
165	0x3f778351	0.9668475
166	0xbeb339b2	-0.35004956
167	0xbe3e5b10	-0.18589425
168	0x3f05b5dd	0.52230626
169	0x3d77125e	0.06032025
170	0x3e68f129	0.22748245
171	0x3e8b849c	0.2724961
172	0x3e3a5f53	0.18200426
173	0x3d94628c	0.07245359
174	0xbd9d37a5	-0.07676629
175	0xbe7ec03c	-0.24878019
176	0x3d4c0c56	0.049816452
177	0xbd500748	-0.050788194
178	0xbe60b465	-0.21943815
179	0x3ab2204c	0.0013589947
180	0xbd51ce43	-0.051222097
181	0xbd1bfc98	-0.03808269
182	0xbda94f61	-0.082670934
183	0x3f027a31	0.509677
184	0xbb3f3de0	-0.0029181167
185	0x3de6b924	0.112657815
186	0xbd0c9593	-0.034322333
187	0x3e3044b9	0.17213716
188	0x3e0ebbad	0.1393878
189	0x3d8b6241	0.0680585
190	0x3c8ec824	0.017429419
191	0x3c16e448	0.0092097
192	0xbd9fb1c8	-0.07797581
193	0xbd8601b0	-0.065432906
194	0xbecdbeff	-0.4018478
195	0xbe81745e	-0.25284094
196	0x3c44495b	0.01198038
197	0x3e99d6fe	0.3004684
198	0x3dc70e9a	0.09719582
199	0x3d7997c5	0.060935754
200	0x3c8fa3a9	0.017534094
201	0xbd6feb85	-0.05857422
202	0xbd1c3e40	-0.038145304
203	0x3e836112	0.25659996
204	0x3e85b994	0.26118147
205	0x3e094918	0.1340679
206	0xbd96f4a1	-0.07370878
207	0x3f8b4a2d	1.0882012
208	0xbd278ca6	-0.040905617
209	0xbe8adef8	-0.27123237
210	0xbdb6adb5	-0.08919851
211	0xbeca94d3	-0.3956667
212	0xbd80f4eb	-0.062967144
213	0xbdc40364	-0.09570959
214	0x3e6fb4b8	0.23408782
215	0xbd7e0a20	-0.062021375
216	0x3e42c8bf	0.19021891
217	0xbe03213e	-0.1280565
218	0xbe3a18af	-0.18173479
219	0xbdb4f531	-0.08835829
220	0xbecfb41b	-0.40567097
221	0xbe82de9a	-0.25560457
222	0x3d57df6c	0.052703306
223	0xbdc0b811	-0.09410108
224	0xbd3ff35d	-0.04686295
225	0xbd4d5461	-0.050129298
226	0x3e84fbb6	0.2597329
227	0xbe8e5cd9	-0.27805212
228	0x3e30e06f	0.17273115
229	0xbde7d4eb	-0.11319908
230	0xbe79a0b8	-0.24377716
231	0xbe33c44d	-0.17555352
232	0x3d176d6b	0.036969583
233	0x3dab7aaf	0.083730094
234	0x3df1ee83	0.118130706
235	0xbe321797	-0.17391811
236	0x3eb4233c	0.35183132
237	0x3e529187	0.20563327
238	0xbe9ecd25	-0.31015888
239	0xbef44c35	-0.4771439
240	0x3ec45b30	0.3835082
241	0x3b4eab68	0.0031535272
242	0x3d5cca95	0.053904135
243	0xbd199452	-0.037494965
244	0x3c86cb64	0.016454406
245	0xbf047b15	-0.5175031
246	0xbc86720e	-0.016411807
247	0x3d502ebb	0.050825816
248	0x3ecdab21	0.40169623
249	0xbd0a7455	-0.03380235
250	0xbe996b4e	-0.2996468
251	0xbd2d7608	-0.04234889
252	0xbeb715e2	-0.35758883
253	0x3d26a182	0.04068137
254	0xbbb31ee9	-0.0054663313
255	0xbcdb5645	-0.026774535

net.2.bias f4 [5]
0	0x3b6973d5	0.003562202
1	0x3d63afd1	0.055587593
2	0xbe0d883e	-0.13821504
3	0x3e216f6b	0.15765159
4	0xbe17e9bd	-0.14835258
